Models/default/model.pt (torch_old, 10038 bytes, 3 tensors)

sigmas f4 [225]
0	0x3f800f61	1.0004693
1	0x3f802a34	1.0012879
2	0x3f7faebd	0.99876004
3	0x3f7ff819	0.9998794
4	0x3f77db00	0.9681854
5	0x3f829a78	1.020339
6	0x3f8452bc	1.0337749
7	0x3f770b56	0.9650167
8	0x3f72e363	0.94878215
9	0x3f8403bc	1.031364
10	0x3f80da35	1.0066592
11	0x3f7f843d	0.99811155
12	0x3f7f2e25	0.99679786
13	0x3f80016d	1.0000435
14	0x3f7ffe2a	0.999972
15	0x3f7fe19d	0.99953634
16	0x3f7fa465	0.9986022
17	0x3f7ffb5f	0.99992937
18	0x3f7c4c20	0.9855366
19	0x3f805070	1.0024548
20	0x3f800163	1.0000423
21	0x3f731edf	0.9496898
22	0x3f79982e	0.9749783
23	0x3f8278b6	1.0193088
24	0x3f85ecea	1.0462925
25	0x3f7ad149	0.97975594
26	0x3f7f2ce5	0.9967788
27	0x3f7fd467	0.99933475
28	0x3f7f703d	0.9978064
29	0x3f8001e0	1.0000572
30	0x3f8009aa	1.0002949
31	0x3f7fe846	0.99963796
32	0x3f809f99	1.0048705
33	0x3f7f60ee	0.9975728
34	0x3f7e7d2b	0.9940974
35	0x3f80a5d8	1.0050611
36	0x3f829f26	1.0204818
37	0x3f879821	1.0593301
38	0x3f8ac65f	1.0841788
39	0x3f86ea67	1.0540284
40	0x3f7cc3a2	0.9873601
41	0x3f8137fa	1.0095208
42	0x3f800980	1.0002899
43	0x3f801887	1.0007485
44	0x3f7ffe31	0.9999724
45	0x3f80012d	1.0000359
46	0x3f80ba00	1.0056763
47	0x3f816827	1.010991
48	0x3f7cc8b4	0.9874375
49	0x3f80f678	1.0075216
50	0x3f7d8f6a	0.9904696
51	0x3f7f14d4	0.99641156
52	0x3f7dd21c	0.99148726
53	0x3f81d44f	1.0142916
54	0x3f7b5c86	0.98188055
55	0x3f803727	1.0016831
56	0x3f814383	1.0098728
57	0x3f818219	1.0117828
58	0x3f7feed0	0.99973774
59	0x3f80005d	1.0000111
60	0x3f7fedef	0.9997243
61	0x3f806c22	1.0033
62	0x3f80361a	1.001651
63	0x3f7f6f5c	0.99779296
64	0x3f7f1c19	0.9965225
65	0x3f810056	1.0078228
66	0x3f85826c	1.0430427
67	0x3f776a07	0.9664616
68	0x3f63dd51	0.8900958
69	0x3f831567	1.0240906
70	0x3f7a9fe8	0.9790025
71	0x3f80739d	1.0035282
72	0x3f7f282e	0.99670684
73	0x3f7ffee1	0.9999829
74	0x3f7ff4ff	0.9998321
75	0x3f800403	1.0001224
76	0x3f8030fe	1.0014951
77	0x3f81a112	1.012728
78	0x3f810a64	1.0081296
79	0x3f7c67bd	0.9859579
80	0x3f7c2f9c	0.98510146
81	0x3f6df61a	0.92953646
82	0x3f319019	0.693605
83	0x3f8a9e4c	1.0829558
84	0x3f72e364	0.9487822
85	0x3f825816	1.0183132
86	0x3f8057c6	1.0026786
87	0x3f7f8a45	0.9982036
88	0x3f7ff10d	0.9997719
89	0x3f800037	1.0000066
90	0x3f8001b3	1.0000519
91	0x3f800496	1.00014
92	0x3f8042d3	1.0020393
93	0x3f7fc5f3	0.9991142
94	0x3f7f8f05	0.99827605
95	0x3f801c12	1.0008566
96	0x3f6bfb37	0.921802
97	0x3f761efb	0.9614102
98	0x3f35544e	0.70831764
99	0x3f578564	0.8418791
100	0x3f83b5b3	1.0289825
101	0x3f7e99a1	0.9945317
102	0x3f80078e	1.0002306
103	0x3f7fd74e	0.99937904
104	0x3f80030a	1.0000927
105	0x3f800000	1.0
106	0x3f800714	1.000216
107	0x3f7fdabd	0.99943143
108	0x3f801ad8	1.0008192
109	0x3f7f3219	0.9968582
110	0x3f7bfe65	0.9843505
111	0x3f59ed38	0.8512759
112	0x3f2a35a1	0.6648808
113	0x3f61672c	0.8804805
114	0x3f7c4edd	0.98557836
115	0x3f7ffcf7	0.9999537
116	0x3f7fe4d0	0.99958515
117	0x3f7fae13	0.9987499
118	0x3f800244	1.0000691
119	0x3f7ffdde	0.99996746
120	0x3f800000	1.0
121	0x3f80041e	1.0001256
122	0x3f7ff925	0.9998954
123	0x3f8004c9	1.000146
124	0x3f847294	1.0347466
125	0x3f515678	0.81772566
126	0x3f381632	0.7190887
127	0x3f90f13f	1.1323622
128	0x3f7397b5	0.9515336
129	0x3f76e485	0.96442443
130	0x3f80082f	1.0002497
131	0x3f7f4776	0.99718416
132	0x3f81258f	1.0089587
133	0x3f7fb6ea	0.9988848
134	0x3f800298	1.0000792
135	0x3f7ffefe	0.9999846
136	0x3f7ff513	0.9998333
137	0x3f80833c	1.004005
138	0x3f80004f	1.0000094
139	0x3f826a42	1.0188677
140	0x3f74bb38	0.95598173
141	0x3f840878	1.0315084
142	0x3f6d57e0	0.9271221
143	0x3f771820	0.96521187
144	0x3f806a2e	1.0032403
145	0x3f7ad82f	0.9798612
146	0x3f81b619	1.0133697
147	0x3f8149d2	1.0100653
148	0x3f7f5683	0.9974138
149	0x3f7ffd3f	0.999958
150	0x3f7ffd0d	0.999955
151	0x3f7fd716	0.9993757
152	0x3f80874b	1.0041288
153	0x3f80cd63	1.0062679
154	0x3f80ae9e	1.0053289
155	0x3f82cf65	1.0219542
156	0x3f706307	0.93901104
157	0x3f8120e2	1.008816
158	0x3f8277d0	1.0192814
159	0x3f819a93	1.0125297
160	0x3f8002f2	1.0000899
161	0x3f7f0b84	0.99626946
162	0x3f808ecb	1.0043577
163	0x3f80e379	1.0069419
164	0x3f7ff038	0.9997592
165	0x3f7fdcfb	0.99946564
166	0x3f7fe524	0.99959016
167	0x3f7fabcc	0.99871516
168	0x3f807d09	1.0038158
169	0x3f80f81b	1.0075716
170	0x3f777e5a	0.9667717
171	0x3f8007ff	1.000244
172	0x3f7e9ad6	0.9945501
173	0x3f7fe28c	0.9995506
174	0x3f7cfaaf	0.9882001
175	0x3f7a6b84	0.97820306
176	0x3f7fda39	0.99942356
177	0x3f7ff05b	0.9997613
178	0x3f804706	1.0021675
179	0x3f7fe14c	0.9995315
180	0x3f7fc333	0.99907225
181	0x3f8007b5	1.0002352
182	0x3f804700	1.0021667
183	0x3f7f2411	0.9966441
184	0x3f7c7fae	0.98632324
185	0x3f83958e	1.0280015
186	0x3f82b172	1.0210402
187	0x3f9048f6	1.1272266
188	0x3f83c162	1.0293391
189	0x3f80bed6	1.0058239
190	0x3f7f102d	0.9963406
191	0x3f802875	1.0012347
192	0x3f7f273c	0.9966924
193	0x3f809d18	1.0047941
194	0x3f8023e0	1.0010948
195	0x3f80137e	1.0005949
196	0x3f804526	1.0021102
197	0x3f7fa8b6	0.9986681
198	0x3f7e51a1	0.99343306
199	0x3f7a0ebd	0.9767874
200	0x3f8551bc	1.0415568
201	0x3f8302de	1.023525
202	0x3f79c54f	0.97566694
203	0x3f7296e1	0.9476147
204	0x3f80bf57	1.0058392
205	0x3f7e7a83	0.9940569
206	0x3f7fa02f	0.99853796
207	0x3f805f4b	1.0029081
208	0x3f7fa897	0.9986662
209	0x3f7faddd	0.9987467
210	0x3f801f15	1.0009485
211	0x3f7fdf93	0.9995052
212	0x3f800246	1.0000694
213	0x3f7efea4	0.996073
214	0x3f7e906b	0.99439114
215	0x3f81c4c6	1.0138175
216	0x3f722669	0.9458986
217	0x3f7b1d16	0.98091257
218	0x3f853826	1.040776
219	0x3f831eba	1.0243752
220	0x3f75bf35	0.95994884
221	0x3f7f339d	0.9968813
222	0x3f80539b	1.0025514
223	0x3f7fd7f0	0.9993887
224	0x3f7fc039	0.99902683

centres f4 [225, 2]
0	0xc0490fdb	-3.1415927
1	0xc0fb53d1	-7.8539815
2	0xc0490fdb	-3.1415927
3	0xc0d76c6a	-6.731984
4	0xc0490fdb	-3.1415927
5	0xc0b38503	-5.609987
6	0xc0490fdb	-3.1415927
7	0xc08f9d9c	-4.4879894
8	0xc0490fdb	-3.1415927
9	0xc0576c6a	-3.365992
10	0xc0490fdb	-3.1415927
11	0xc00f9d9c	-2.2439947
12	0xc0490fdb	-3.1415927
13	0xbf8f9d9c	-1.1219974
14	0xc0490fdb	-3.1415927
15	0x00000000	0.0
16	0xc0490fdb	-3.1415927
17	0x3f8f9d9c	1.1219974
18	0xc0490fdb	-3.1415927
19	0x400f9d9c	2.2439947
20	0xc0490fdb	-3.1415927
21	0x40576c6a	3.365992
22	0xc0490fdb	-3.1415927
23	0x408f9d9c	4.4879894
24	0xc0490fdb	-3.1415927
25	0x40b38503	5.609987
26	0xc0490fdb	-3.1415927
27	0x40d76c6a	6.731984
28	0xc0490fdb	-3.1415927
29	0x40fb53d1	7.8539815
30	0xc02c56bb	-2.6927936
31	0xc0fb53d1	-7.8539815
32	0xc02c56bb	-2.6927936
33	0xc0d76c6a	-6.731984
34	0xc02c56bb	-2.6927936
35	0xc0b38503	-5.609987
36	0xc02c56bb	-2.6927936
37	0xc08f9d9c	-4.4879894
38	0xc02c56bb	-2.6927936
39	0xc0576c6a	-3.365992
40	0xc02c56bb	-2.6927936
41	0xc00f9d9c	-2.2439947
42	0xc02c56bb	-2.6927936
43	0xbf8f9d9c	-1.1219974
44	0xc02c56bb	-2.6927936
45	0x00000000	0.0
46	0xc02c56bb	-2.6927936
47	0x3f8f9d9c	1.1219974
48	0xc02c56bb	-2.6927936
49	0x400f9d9c	2.2439947
50	0xc02c56bb	-2.6927936
51	0x40576c6a	3.365992
52	0xc02c56bb	-2.6927936
53	0x408f9d9c	4.4879894
54	0xc02c56bb	-2.6927936
55	0x40b38503	5.609987
56	0xc02c56bb	-2.6927936
57	0x40d76c6a	6.731984
58	0xc02c56bb	-2.6927936
59	0x40fb53d1	7.8539815
60	0xc00f9d9c	-2.2439947
61	0xc0fb53d1	-7.8539815
62	0xc00f9d9c	-2.2439947
63	0xc0d76c6a	-6.731984
64	0xc00f9d9c	-2.2439947
65	0xc0b38503	-5.609987
66	0xc00f9d9c	-2.2439947
67	0xc08f9d9c	-4.4879894
68	0xc00f9d9c	-2.2439947
69	0xc0576c6a	-3.365992
70	0xc00f9d9c	-2.2439947
71	0xc00f9d9c	-2.2439947
72	0xc00f9d9c	-2.2439947
73	0xbf8f9d9c	-1.1219974
74	0xc00f9d9c	-2.2439947
75	0x00000000	0.0
76	0xc00f9d9c	-2.2439947
77	0x3f8f9d9c	1.1219974
78	0xc00f9d9c	-2.2439947
79	0x400f9d9c	2.2439947
80	0xc00f9d9c	-2.2439947
81	0x40576c6a	3.365992
82	0xc00f9d9c	-2.2439947
83	0x408f9d9c	4.4879894
84	0xc00f9d9c	-2.2439947
85	0x40b38503	5.609987
86	0xc00f9d9c	-2.2439947
87	0x40d76c6a	6.731984
88	0xc00f9d9c	-2.2439947
89	0x40fb53d1	7.8539815
90	0xbfe5c8fa	-1.7951958
91	0xc0fb53d1	-7.8539815
92	0xbfe5c8fa	-1.7951958
93	0xc0d76c6a	-6.731984
94	0xbfe5c8fa	-1.7951958
95	0xc0b38503	-5.609987
96	0xbfe5c8fa	-1.7951958
97	0xc08f9d9c	-4.4879894
98	0xbfe5c8fa	-1.7951958
99	0xc0576c6a	-3.365992
100	0xbfe5c8fa	-1.7951958
101	0xc00f9d9c	-2.2439947
102	0xbfe5c8fa	-1.7951958
103	0xbf8f9d9c	-1.1219974
104	0xbfe5c8fa	-1.7951958
105	0x00000000	0.0
106	0xbfe5c8fa	-1.7951958
107	0x3f8f9d9c	1.1219974
108	0xbfe5c8fa	-1.7951958
109	0x400f9d9c	2.2439947
110	0xbfe5c8fa	-1.7951958
111	0x40576c6a	3.365992
112	0xbfe5c8fa	-1.7951958
113	0x408f9d9c	4.4879894
114	0xbfe5c8fa	-1.7951958
115	0x40b38503	5.609987
116	0xbfe5c8fa	-1.7951958
117	0x40d76c6a	6.731984
118	0xbfe5c8fa	-1.7951958
119	0x40fb53d1	7.8539815
120	0xbfac56bb	-1.3463968
121	0xc0fb53d1	-7.8539815
122	0xbfac56bb	-1.3463968
123	0xc0d76c6a	-6.731984
124	0xbfac56bb	-1.3463968
125	0xc0b38503	-5.609987
126	0xbfac56bb	-1.3463968
127	0xc08f9d9c	-4.4879894
128	0xbfac56bb	-1.3463968
129	0xc0576c6a	-3.365992
130	0xbfac56bb	-1.3463968
131	0xc00f9d9c	-2.2439947
132	0xbfac56bb	-1.3463968
133	0xbf8f9d9c	-1.1219974
134	0xbfac56bb	-1.3463968
135	0x00000000	0.0
136	0xbfac56bb	-1.3463968
137	0x3f8f9d9c	1.1219974
138	0xbfac56bb	-1.3463968
139	0x400f9d9c	2.2439947
140	0xbfac56bb	-1.3463968
141	0x40576c6a	3.365992
142	0xbfac56bb	-1.3463968
143	0x408f9d9c	4.4879894
144	0xbfac56bb	-1.3463968
145	0x40b38503	5.609987
146	0xbfac56bb	-1.3463968
147	0x40d76c6a	6.731984
148	0xbfac56bb	-1.3463968
149	0x40fb53d1	7.8539815
150	0xbf65c8fa	-0.8975979
151	0xc0fb53d1	-7.8539815
152	0xbf65c8fa	-0.8975979
153	0xc0d76c6a	-6.731984
154	0xbf65c8fa	-0.8975979
155	0xc0b38503	-5.609987
156	0xbf65c8fa	-0.8975979
157	0xc08f9d9c	-4.4879894
158	0xbf65c8fa	-0.8975979
159	0xc0576c6a	-3.365992
160	0xbf65c8fa	-0.8975979
161	0xc00f9d9c	-2.2439947
162	0xbf65c8fa	-0.8975979
163	0xbf8f9d9c	-1.1219974
164	0xbf65c8fa	-0.8975979
165	0x00000000	0.0
166	0xbf65c8fa	-0.8975979
167	0x3f8f9d9c	1.1219974
168	0xbf65c8fa	-0.8975979
169	0x400f9d9c	2.2439947
170	0xbf65c8fa	-0.8975979
171	0x40576c6a	3.365992
172	0xbf65c8fa	-0.8975979
173	0x408f9d9c	4.4879894
174	0xbf65c8fa	-0.8975979
175	0x40b38503	5.609987
176	0xbf65c8fa	-0.8975979
177	0x40d76c6a	6.731984
178	0xbf65c8fa	-0.8975979
179	0x40fb53d1	7.8539815
180	0xbee5c8fa	-0.44879895
181	0xc0fb53d1	-7.8539815
182	0xbee5c8fa	-0.44879895
183	0xc0d76c6a	-6.731984
184	0xbee5c8fa	-0.44879895
185	0xc0b38503	-5.609987
186	0xbee5c8fa	-0.44879895
187	0xc08f9d9c	-4.4879894
188	0xbee5c8fa	-0.44879895
189	0xc0576c6a	-3.365992
190	0xbee5c8fa	-0.44879895
191	0xc00f9d9c	-2.2439947
192	0xbee5c8fa	-0.44879895
193	0xbf8f9d9c	-1.1219974
194	0xbee5c8fa	-0.44879895
195	0x00000000	0.0
196	0xbee5c8fa	-0.44879895
197	0x3f8f9d9c	1.1219974
198	0xbee5c8fa	-0.44879895
199	0x400f9d9c	2.2439947
200	0xbee5c8fa	-0.44879895
201	0x40576c6a	3.365992
202	0xbee5c8fa	-0.44879895
203	0x408f9d9c	4.4879894
204	0xbee5c8fa	-0.44879895
205	0x40b38503	5.609987
206	0xbee5c8fa	-0.44879895
207	0x40d76c6a	6.731984
208	0xbee5c8fa	-0.44879895
209	0x40fb53d1	7.8539815
210	0x00000000	0.0
211	0xc0fb53d1	-7.8539815
212	0x00000000	0.0
213	0xc0d76c6a	-6.731984
214	0x00000000	0.0
215	0xc0b38503	-5.609987
216	0x00000000	0.0
217	0xc08f9d9c	-4.4879894
218	0x00000000	0.0
219	0xc0576c6a	-3.365992
220	0x00000000	0.0
221	0xc00f9d9c	-2.2439947
222	0x00000000	0.0
223	0xbf8f9d9c	-1.1219974
224	0x00000000	0.0
225	0x00000000	0.0
226	0x00000000	0.0
227	0x3f8f9d9c	1.1219974
228	0x00000000	0.0
229	0x400f9d9c	2.2439947
230	0x00000000	0.0
231	0x40576c6a	3.365992
232	0x00000000	0.0
233	0x408f9d9c	4.4879894
234	0x00000000	0.0
235	0x40b38503	5.609987
236	0x00000000	0.0
237	0x40d76c6a	6.731984
238	0x00000000	0.0
239	0x40fb53d1	7.8539815
240	0x3ee5c8fa	0.44879895
241	0xc0fb53d1	-7.8539815
242	0x3ee5c8fa	0.44879895
243	0xc0d76c6a	-6.731984
244	0x3ee5c8fa	0.44879895
245	0xc0b38503	-5.609987
246	0x3ee5c8fa	0.44879895
247	0xc08f9d9c	-4.4879894
248	0x3ee5c8fa	0.44879895
249	0xc0576c6a	-3.365992
250	0x3ee5c8fa	0.44879895
251	0xc00f9d9c	-2.2439947
252	0x3ee5c8fa	0.44879895
253	0xbf8f9d9c	-1.1219974
254	0x3ee5c8fa	0.44879895
255	0x00000000	0.0

weight f4 [1, 225]
0	0xbcf32a7b	-0.029683342
1	0xbd1f8c50	-0.03895217
2	0x3ca1a49e	0.019731816
3	0x3d1a3881	0.037651543
4	0xbe57044a	-0.2099773
5	0xbebb72eb	-0.36611113
6	0xbeb04139	-0.3442476
7	0xbf067770	-0.52526
8	0xbebc0d0a	-0.36728698
9	0xbe0957db	-0.1341242
10	0xbe8abc7e	-0.27096933
11	0x3c910068	0.017700389
12	0x3d283a03	0.04107095
13	0x3c21129e	0.009831099
14	0x3d0cea52	0.034403153
15	0x3cc6f07a	0.02428459
16	0x3cc33bc7	0.023832215
17	0xbd76c9de	-0.06025111
18	0x3df3b7db	0.11900302
19	0xbdbb6e4f	-0.09151899
20	0xbe65005b	-0.22363417
21	0xbe8e72dd	-0.2782201
22	0xbe83d60a	-0.25749236
23	0xbda10b7b	-0.07863518
24	0xbd4af286	-0.049547695
25	0xbe5eb63a	-0.21749201
26	0x3c6c77ea	0.014432887
27	0x3daa81d2	0.083255425
28	0xbd724179	-0.05914447
29	0x3cb9ef6d	0.022697175
30	0xbc9ba006	-0.018997204
31	0xbb3c19de	-0.0028701941
32	0xbe22c3f6	-0.15895066
33	0x3d160543	0.03662611
34	0x3dca20f0	0.098695636
35	0xb31621f1	-3.4955466e-08
36	0xba81a609	-0.0009891401
37	0x3d15d705	0.03658201
38	0x3bc1437f	0.0058979387
39	0xbe22fb79	-0.15916242
40	0xbe287344	-0.1645022
41	0x3d99f933	0.07518234
42	0x3b728b76	0.0037009395
43	0x3d5d2e9c	0.05399953
44	0xbd0c6194	-0.034272745
45	0xbb3f2791	-0.002916787
46	0xbdac1300	-0.084020615
47	0xbe132a9e	-0.14371726
48	0xbe1db7fd	-0.15402217
49	0x3d7a94c6	0.061177038
50	0x3e2e6415	0.17030366
51	0x3e6854cf	0.22688602
52	0x3e2a15c6	0.16609868
53	0xbcfa2181	-0.030533554
54	0xbdf56e71	-0.11983956
55	0x3984dc53	0.00025341156
56	0x3e43ba61	0.19114067
57	0x3d9e01dc	0.077151984
58	0xbd1edb1b	-0.038783174
59	0x3c06090e	0.00818087
60	0x3d5fce0d	0.054639865
61	0xbd7d140b	-0.061786693
62	0xbd2545ce	-0.040349774
63	0xbdbd29cd	-0.092364885
64	0xbcf10af0	-0.02942416
65	0x39c0bcca	0.00036761753
66	0x3d2c499e	0.042062394
67	0xbe028bb5	-0.12748607
68	0xbe7eb45d	-0.2487349
69	0xbd31b7f6	-0.04338833
70	0x3e8157fc	0.2526244
71	0x3e5d9657	0.21639381
72	0xbd5de4c5	-0.05417325
73	0xbcd4ebaa	-0.02599128
74	0x3d5180f5	0.051148374
75	0xbd83137e	-0.06400202
76	0xbd48e6cf	-0.04904824
77	0xbdd745de	-0.10511373
78	0xbde7829a	-0.11304207
79	0xbe44ee34	-0.19231492
80	0xbe12d903	-0.14340596
81	0xbe8d6779	-0.27618006
82	0xbec49b5d	-0.38399783
83	0x3de58263	0.1120651
84	0x3e7d7535	0.24751742
85	0x3e9588df	0.29205987
86	0x3dda5d68	0.10662347
87	0xbd1cdba2	-0.038295396
88	0x3b8697fd	0.004107474
89	0xbc961e84	-0.018325098
90	0xbd73c66f	-0.059515413
91	0xbc28cb51	-0.010302381
92	0xbccf5c3d	-0.025312537
93	0xbc4acddf	-0.012378185
94	0xbe09900a	-0.13433853
95	0xbd8bb879	-0.06822295
96	0xbe070fec	-0.13189667
97	0x3e79b41a	0.2438511
98	0x3f06aec9	0.5261045
99	0x3ec00b44	0.37508595
100	0x3e440f6b	0.19146506
101	0x3be9d661	0.0071361517
102	0x3d0117ec	0.031516954
103	0x3d5c14b9	0.0537307
104	0x3d645fc6	0.0557554
105	0x3d3d84ac	0.046269104
106	0xbd7ecdf6	-0.06220814
107	0x3cdd7a89	0.027035968
108	0x3d2a92a0	0.04164374
109	0xbbc2a730	-0.0059403405
110	0x3e194a44	0.14969736
111	0x3e98147c	0.29703128
112	0x3f6ad53a	0.9173161
113	0x3e9f3c02	0.3110047
114	0x3e585ba0	0.21128702
115	0x3a3059c6	0.00067272445
116	0xbd812634	-0.06306115
117	0x3cb03b30	0.021512598
118	0xbbeade55	-0.0071676173
119	0xbd36a374	-0.044589475
120	0x3ba48c1b	0.0050215847
121	0xbcb8eb99	-0.02257328
122	0x3be20f83	0.006898822
123	0x3d01eac8	0.031718045
124	0x3e69628e	0.22791502
125	0x3ede2ef2	0.4339519
126	0x3f02df5a	0.5112206
127	0x3e03ff82	0.12890437
128	0xbdc573db	-0.09641238
129	0xbe16fe49	-0.1474544
130	0xbd7dc88e	-0.061958842
131	0xbc3817ad	-0.0112361135
132	0xbdb45186	-0.08804612
133	0x3ce57f62	0.028014842
134	0xbcf212d5	-0.029549995
135	0x3b732d8b	0.0037106003
136	0x3c34affd	0.011028287
137	0x3d7e5bb8	0.06209919
138	0x3d94b453	0.072609566
139	0x3e72e98f	0.23721908
140	0x3e741e4a	0.2383968
141	0x3d6cfec0	0.057860136
142	0xbe726efd	-0.23675151
143	0xbe590415	-0.21192963
144	0xbd5f223b	-0.054476004
145	0xbe4ff47e	-0.2030811
146	0xbe38cd44	-0.18047053
147	0xbdac9717	-0.084272556
148	0x3d1826b0	0.03714627
149	0x3c094c58	0.008380018
150	0x3c3d0349	0.011536428
151	0x3d51c744	0.051215425
152	0x3d726819	0.059181307
153	0x3e35795b	0.17722075
154	0x3e69c57e	0.22829244
155	0x3c53fbae	0.012938423
156	0xbe1dffb5	-0.15429576
157	0xbda5cdfa	-0.080959275
158	0x3d83dcb3	0.064385794
159	0x3d0b9c90	0.034084857
160	0xbcf03acb	-0.02932491
161	0xbdb4b39e	-0.08823322
162	0xbd9dbf3b	-0.0770249
163	0xbdba8d4f	-0.09108984
164	0x3c8b15c7	0.016978158
165	0x3d7750de	0.060379855
166	0x3c1dc9df	0.009630649
167	0xbce40857	-0.027836008
168	0x3e4d34d5	0.20039685
169	0x3d98abfc	0.074546784
170	0xbe1a55ce	-0.15071794
171	0x3d89b10b	0.067232214
172	0x3e6e52fc	0.23273844
173	0x3e57a2a3	0.21058135
174	0x3e18fbc7	0.14939795
175	0x3e2d93e5	0.16950949
176	0xbbcbc172	-0.006218129
177	0xbd977c9f	-0.073968165
178	0xbd2d1712	-0.04225833
179	0x3cac19ad	0.021008337
180	0x3d74f185	0.059800643
181	0xbbaa9587	-0.0052058133
182	0x3d10dddb	0.035367828
183	0x3d4d0296	0.050051294
184	0xbe10899a	-0.14114991
185	0xbd46569f	-0.048422452
186	0x3d4cbb7d	0.04998349
187	0x3ce41ec7	0.027846707
188	0x3c1c9162	0.009556146
189	0xbc0da902	-0.008646252
190	0x3daee504	0.08539775
191	0x3ce53272	0.027978156
192	0xbdeaef0b	-0.11471375
193	0xbdce6c82	-0.1007929
194	0xbd66d921	-0.056359414
195	0xbd00138e	-0.03126865
196	0xbd8f3978	-0.06993383
197	0xbc993f69	-0.018706994
198	0x3cdb545e	0.026773628
199	0xbe74fee2	-0.23925355
200	0xbda864f0	-0.08222377
201	0xbe843635	-0.25822607
202	0xbe8f51c7	-0.2799208
203	0xbea932ff	-0.3304672
204	0xbe8e1408	-0.27749658
205	0xbdc94102	-0.098268524
206	0x3d87bc7e	0.06627749
207	0x3d5de8b1	0.05417699
208	0x3c788be2	0.015170069
209	0x3d486bb3	0.048930835
210	0xbd4b5692	-0.049643107
211	0x3b84f533	0.0040575503
212	0x3ce0e263	0.0274517
213	0x3cdd24c8	0.026995078
214	0xbe0b18c1	-0.13583662
215	0xbe13b449	-0.14424242
216	0xbead2d7a	-0.33823758
217	0xbf059314	-0.5217755
218	0xbeac6171	-0.33668092
219	0xbe9e94a8	-0.3097279
220	0xbe8b2c77	-0.2718236
221	0x3d568772	0.052375264
222	0x3d8af9a2	0.06785895
223	0x3c81f285	0.015862713
224	0x3d1af068	0.037826926
