Models/Success4/model.pt (torch_old, 9925 bytes, 3 tensors)

sigmas f4 [225]
0.9995461 1.0000389 1.0001355 1.0025852 1.0015111 1.0049186 1.0031904 1.0044634
1.0097406 0.99999386 1.0085529 1.0044235 1.0012019 1.0000885 1.0000098 1.0003507
0.9998767 0.9996498 1.0017204 1.0001422 1.006212 1.0291791 1.0046926 0.99916124
0.9986579 1.0002768 1.0021236 0.9990447 1.0001031 0.99991465 1.000522 1.0002327
0.9994404 0.9988239 0.99919105 1.0036507 1.002132 1.0023998 0.99620944 1.005315
1.0109065 1.0030259 0.9965558 1.0019778 0.99973017 0.99965507 1.0000074 1.0006244
1.0009197 0.99947464 0.99732435 0.9971746 1.0063754 1.0014199 0.9981446 1.0028533
1.0030677 1.009772 0.997325 1.000768 1.0008967 1.0003084 1.0002536 0.9998996
0.9992483 0.9994336 1.0004106 0.996625 1.0013239 0.99799395 1.0136504 1.0080245
0.99816865 1.0028993 1.0009532 1.0010415 1.000458 1.0001471 0.9997513 1.0002495
1.0016427 1.003826 1.0050594 1.0042862 1.0098873 1.0019848 0.9977995 1.0033878
0.99766386 1.001669 1.0010589 0.99794316 1.0012608 1.0026208 0.99827105 1.002018
0.9952556 1.0535188 1.0098964 0.9965933 1.0006276 1.0106531 1.0064536 0.9979584
1.0019406 1.0005338 0.9978117 0.9992899 0.99768424 1.00388 1.0074321 1.0290122
1.020857 1.0098777 1.0052887 1.0026585 0.9947483 0.9990706 1.0087223 1.0001632
0.99980044 1.0040627 0.9986436 1.0066937 1.008817 0.9950766 1.0287755 1.0209273
1.0328649 0.99773353 1.0050623 1.0083838 1.0011517 1.0003856 0.99801517 1.0012841
1.0011008 1.0058305 1.0091391 0.9991097 0.9973948 1.0315504 1.0121318 0.99997264
1.0000974 0.9993404 0.9955751 1.0083187 0.99949294 0.9994122 0.99957675 1.0026575
1.0041107 1.0013523 1.0010315 0.9991157 1.0157592 0.9996647 1.0005032 1.0005776
0.9981511 0.9993504 1.0065489 1.0013499 0.99915695 0.9999686 0.9995375 1.0026038
1.0037941 0.9990739 1.0025097 1.000833 1.0070671 1.0014074 0.99805796 1.0043097
1.0033078 1.0026441 1.0001343 0.99975353 0.9990758 1.0006205 1.0008857 1.0016565
1.0031527 1.0026389 1.0027568 0.9782172 0.9972149 0.9981017 1.0057576 0.9988478
0.9988695 0.999177 1.0001955 0.99917614 1.0002996 1.0005946 1.0030794 0.9989218
1.0018923 1.0014851 0.87351304 0.99988776 0.9975669 1.0002666 0.9981862 1.0003202
0.99937034 0.9999977 1.0001363 1.0002735 1.0000664 1.0010576 1.001635 1.0062076
0.99712026 1.0035242 1.0095204 0.9989458 0.99920344 0.9989084 0.99879825 0.9997582
1.0000228
00000000: 41e2 7f3f 4601 803f 7104 803f b654 803f
00000010: 8431 803f 2ca1 803f 8b68 803f 4292 803f
00000020: 2e3f 813f 99ff 7f3f 4318 813f f390 803f
00000030: 6227 803f e602 803f 5200 803f 7e0b 803f
00000040: ebf7 7f3f 0de9 7f3f 6038 803f a904 803f
00000050: 8ecb 803f 24bc 833f c499 803f 08c9 7f3f
00000060: 0ba8 7f3f 1209 803f 9645 803f 65c1 7f3f
00000070: 6103 803f 68fa 7f3f 1b11 803f a007 803f
00000080: 53db 7f3f ecb2 7f3f fcca 7f3f a077 803f
00000090: dd45 803f a34e 803f 9507 7f3f 29ae 803f
000000a0: 6265 813f 2763 803f 481e 7f3f cf40 803f
000000b0: 51ee 7f3f 65e9 7f3f 3e00 803f 7614 803f
000000c0: 231e 803f 92dd 7f3f a650 7f3f d646 7f3f
000000d0: e9d0 803f 872e 803f 6886 7f3f 7f5d 803f
000000e0: 8664 803f 3540 813f b150 7f3f 2a19 803f
000000f0: 621d 803f 1b0a 803f 4f08 803f 6cf9 7f3f
00000100: bdce 7f3f e1da 7f3f 740d 803f d122 7f3f
00000110: 622b 803f 887c 7f3f 4cbf 813f f206 813f
00000120: fb87 7f3f 015f 803f 3c1f 803f 2122 803f
00000130: 020f 803f d204 803f b4ef 7f3f 2d08 803f
00000140: d435 803f 5f7d 803f c9a5 803f 738c 803f
00000150: fd43 813f 0a41 803f ca6f 7f3f 036f 803f
00000160: e666 7f3f b136 803f b322 803f 3479 7f3f
00000170: 5029 803f e155 803f b18e 7f3f 2042 803f
00000180: 12c9 7e3f b4d9 863f 4944 813f bd20 7f3f
00000190: 9114 803f 155d 813f 79d3 803f 347a 7f3f
000001a0: 973f 803f 7e11 803f 9670 7f3f 76d1 7f3f
000001b0: 3c68 7f3f 247f 803f 89f3 803f acb6 833f
000001c0: 71ab 823f ac43 813f 4dad 803f 1d57 803f
000001d0: d3a7 7e3f 17c3 7f3f d01d 813f 5905 803f
000001e0: ecf2 7f3f 2085 803f 1ba7 7f3f 57db 803f
000001f0: ea20 813f 57bd 7e3f eaae 833f bfad 823f
00000200: eb34 843f 776b 7f3f e2a5 803f b812 813f
00000210: bd25 803f a30c 803f ec7d 7f3f 142a 803f
00000220: 1224 803f 0ebf 803f 782b 813f a7c5 7f3f
00000230: 4455 7f3f d809 843f 898d 813f 35fe 7f3f
00000240: 3103 803f c6d4 7f3f 02de 7e3f 9610 813f
00000250: c5de 7f3f 7ad9 7f3f 43e4 7f3f 1557 803f
00000260: b386 803f 502c 803f cd21 803f 0cc6 7f3f
00000270: 6604 823f 07ea 7f3f 7d10 803f ed12 803f
00000280: d586 7f3f 6ed5 7f3f 98d6 803f 3c2c 803f
00000290: c0c8 7f3f f1fd 7f3f b1e1 7f3f 5255 803f
000002a0: 537c 803f 4fc3 7f3f 3d52 803f 4c1b 803f
000002b0: 93e7 803f 1e2e 803f ba80 7f3f 388d 803f
000002c0: 646c 803f a456 803f 6704 803f d9ef 7f3f
000002d0: 6ec3 7f3f 5514 803f 061d 803f 4836 803f
000002e0: 4f67 803f 7956 803f 565a 803f 716c 7a3f
000002f0: 7a49 7f3f 9883 7f3f aabc 803f 7db4 7f3f
00000300: e9b5 7f3f 10ca 7f3f 6806 803f 02ca 7f3f
00000310: d109 803f 7c13 803f e864 803f 57b9 7f3f
00000320: 023e 803f aa30 803f 8d9e 5f3f a5f8 7f3f
00000330: 8b60 7f3f bc08 803f 2189 7f3f 7e0a 803f
00000340: bcd6 7f3f d9ff 7f3f 7704 803f f608 803f
00000350: 2d02 803f a822 803f 9335 803f 69cb 803f
00000360: 4643 7f3f 7b73 803f f737 813f e9ba 7f3f
00000370: cccb 7f3f 76b8 7f3f 3eb1 7f3f 27f0 7f3f
00000380: bf00 803f

centres f4 [225, 2]
0.0 -7.8539815 0.0 -6.731984 0.0 -5.609987 0.0 -4.4879894
0.0 -3.365992 0.0 -2.2439947 0.0 -1.1219974 0.0 0.0
0.0 1.1219974 0.0 2.2439947 0.0 3.365992 0.0 4.4879894
0.0 5.609987 0.0 6.731984 0.0 7.8539815 0.44879895 -7.8539815
0.44879895 -6.731984 0.44879895 -5.609987 0.44879895 -4.4879894 0.44879895 -3.365992
0.44879895 -2.2439947 0.44879895 -1.1219974 0.44879895 0.0 0.44879895 1.1219974
0.44879895 2.2439947 0.44879895 3.365992 0.44879895 4.4879894 0.44879895 5.609987
0.44879895 6.731984 0.44879895 7.8539815 0.8975979 -7.8539815 0.8975979 -6.731984
0.8975979 -5.609987 0.8975979 -4.4879894 0.8975979 -3.365992 0.8975979 -2.2439947
0.8975979 -1.1219974 0.8975979 0.0 0.8975979 1.1219974 0.8975979 2.2439947
0.8975979 3.365992 0.8975979 4.4879894 0.8975979 5.609987 0.8975979 6.731984
0.8975979 7.8539815 1.3463968 -7.8539815 1.3463968 -6.731984 1.3463968 -5.609987
1.3463968 -4.4879894 1.3463968 -3.365992 1.3463968 -2.2439947 1.3463968 -1.1219974
1.3463968 0.0 1.3463968 1.1219974 1.3463968 2.2439947 1.3463968 3.365992
1.3463968 4.4879894 1.3463968 5.609987 1.3463968 6.731984 1.3463968 7.8539815
1.7951958 -7.8539815 1.7951958 -6.731984 1.7951958 -5.609987 1.7951958 -4.4879894
1.7951958 -3.365992 1.7951958 -2.2439947 1.7951958 -1.1219974 1.7951958 0.0
1.7951958 1.1219974 1.7951958 2.2439947 1.7951958 3.365992 1.7951958 4.4879894
1.7951958 5.609987 1.7951958 6.731984 1.7951958 7.8539815 2.2439947 -7.8539815
2.2439947 -6.731984 2.2439947 -5.609987 2.2439947 -4.4879894 2.2439947 -3.365992
2.2439947 -2.2439947 2.2439947 -1.1219974 2.2439947 0.0 2.2439947 1.1219974
2.2439947 2.2439947 2.2439947 3.365992 2.2439947 4.4879894 2.2439947 5.609987
2.2439947 6.731984 2.2439947 7.8539815 2.6927936 -7.8539815 2.6927936 -6.731984
2.6927936 -5.609987 2.6927936 -4.4879894 2.6927936 -3.365992 2.6927936 -2.2439947
2.6927936 -1.1219974 2.6927936 0.0 2.6927936 1.1219974 2.6927936 2.2439947
2.6927936 3.365992 2.6927936 4.4879894 2.6927936 5.609987 2.6927936 6.731984
2.6927936 7.8539815 3.1415927 -7.8539815 3.1415927 -6.731984 3.1415927 -5.609987
3.1415927 -4.4879894 3.1415927 -3.365992 3.1415927 -2.2439947 3.1415927 -1.1219974
3.1415927 0.0 3.1415927 1.1219974 3.1415927 2.2439947 3.1415927 3.365992
3.1415927 4.4879894 3.1415927 5.609987 3.1415927 6.731984 3.1415927 7.8539815
3.5903916 -7.8539815 3.5903916 -6.731984 3.5903916 -5.609987 3.5903916 -4.4879894
3.5903916 -3.365992 3.5903916 -2.2439947 3.5903916 -1.1219974 3.5903916 0.0
00000000: 0000 0000 d153 fbc0 0000 0000 6a6c d7c0
00000010: 0000 0000 0385 b3c0 0000 0000 9c9d 8fc0
00000020: 0000 0000 6a6c 57c0 0000 0000 9c9d 0fc0
00000030: 0000 0000 9c9d 8fbf 0000 0000 0000 0000
00000040: 0000 0000 9c9d 8f3f 0000 0000 9c9d 0f40
00000050: 0000 0000 6a6c 5740 0000 0000 9c9d 8f40
00000060: 0000 0000 0385 b340 0000 0000 6a6c d740
00000070: 0000 0000 d153 fb40 fac8 e53e d153 fbc0
00000080: fac8 e53e 6a6c d7c0 fac8 e53e 0385 b3c0
00000090: fac8 e53e 9c9d 8fc0 fac8 e53e 6a6c 57c0
000000a0: fac8 e53e 9c9d 0fc0 fac8 e53e 9c9d 8fbf
000000b0: fac8 e53e 0000 0000 fac8 e53e 9c9d 8f3f
000000c0: fac8 e53e 9c9d 0f40 fac8 e53e 6a6c 5740
000000d0: fac8 e53e 9c9d 8f40 fac8 e53e 0385 b340
000000e0: fac8 e53e 6a6c d740 fac8 e53e d153 fb40
000000f0: fac8 653f d153 fbc0 fac8 653f 6a6c d7c0
00000100: fac8 653f 0385 b3c0 fac8 653f 9c9d 8fc0
00000110: fac8 653f 6a6c 57c0 fac8 653f 9c9d 0fc0
00000120: fac8 653f 9c9d 8fbf fac8 653f 0000 0000
00000130: fac8 653f 9c9d 8f3f fac8 653f 9c9d 0f40
00000140: fac8 653f 6a6c 5740 fac8 653f 9c9d 8f40
00000150: fac8 653f 0385 b340 fac8 653f 6a6c d740
00000160: fac8 653f d153 fb40 bb56 ac3f d153 fbc0
00000170: bb56 ac3f 6a6c d7c0 bb56 ac3f 0385 b3c0
00000180: bb56 ac3f 9c9d 8fc0 bb56 ac3f 6a6c 57c0
00000190: bb56 ac3f 9c9d 0fc0 bb56 ac3f 9c9d 8fbf
000001a0: bb56 ac3f 0000 0000 bb56 ac3f 9c9d 8f3f
000001b0: bb56 ac3f 9c9d 0f40 bb56 ac3f 6a6c 5740
000001c0: bb56 ac3f 9c9d 8f40 bb56 ac3f 0385 b340
000001d0: bb56 ac3f 6a6c d740 bb56 ac3f d153 fb40
000001e0: fac8 e53f d153 fbc0 fac8 e53f 6a6c d7c0
000001f0: fac8 e53f 0385 b3c0 fac8 e53f 9c9d 8fc0
00000200: fac8 e53f 6a6c 57c0 fac8 e53f 9c9d 0fc0
00000210: fac8 e53f 9c9d 8fbf fac8 e53f 0000 0000
00000220: fac8 e53f 9c9d 8f3f fac8 e53f 9c9d 0f40
00000230: fac8 e53f 6a6c 5740 fac8 e53f 9c9d 8f40
00000240: fac8 e53f 0385 b340 fac8 e53f 6a6c d740
00000250: fac8 e53f d153 fb40 9c9d 0f40 d153 fbc0
00000260: 9c9d 0f40 6a6c d7c0 9c9d 0f40 0385 b3c0
00000270: 9c9d 0f40 9c9d 8fc0 9c9d 0f40 6a6c 57c0
00000280: 9c9d 0f40 9c9d 0fc0 9c9d 0f40 9c9d 8fbf
00000290: 9c9d 0f40 0000 0000 9c9d 0f40 9c9d 8f3f
000002a0: 9c9d 0f40 9c9d 0f40 9c9d 0f40 6a6c 5740
000002b0: 9c9d 0f40 9c9d 8f40 9c9d 0f40 0385 b340
000002c0: 9c9d 0f40 6a6c d740 9c9d 0f40 d153 fb40
000002d0: bb56 2c40 d153 fbc0 bb56 2c40 6a6c d7c0
000002e0: bb56 2c40 0385 b3c0 bb56 2c40 9c9d 8fc0
000002f0: bb56 2c40 6a6c 57c0 bb56 2c40 9c9d 0fc0
00000300: bb56 2c40 9c9d 8fbf bb56 2c40 0000 0000
00000310: bb56 2c40 9c9d 8f3f bb56 2c40 9c9d 0f40
00000320: bb56 2c40 6a6c 5740 bb56 2c40 9c9d 8f40
00000330: bb56 2c40 0385 b340 bb56 2c40 6a6c d740
00000340: bb56 2c40 d153 fb40 db0f 4940 d153 fbc0
00000350: db0f 4940 6a6c d7c0 db0f 4940 0385 b3c0
00000360: db0f 4940 9c9d 8fc0 db0f 4940 6a6c 57c0
00000370: db0f 4940 9c9d 0fc0 db0f 4940 9c9d 8fbf
00000380: db0f 4940 0000 0000 db0f 4940 9c9d 8f3f
00000390: db0f 4940 9c9d 0f40 db0f 4940 6a6c 5740
000003a0: db0f 4940 9c9d 8f40 db0f 4940 0385 b340
000003b0: db0f 4940 6a6c d740 db0f 4940 d153 fb40
000003c0: fac8 6540 d153 fbc0 fac8 6540 6a6c d7c0
000003d0: fac8 6540 0385 b3c0 fac8 6540 9c9d 8fc0
000003e0: fac8 6540 6a6c 57c0 fac8 6540 9c9d 0fc0
000003f0: fac8 6540 9c9d 8fbf fac8 6540 0000 0000

weight f4 [1, 225]
-0.061844133 0.009018001 0.008760286 0.066632845 0.030652434 0.057328776 0.13017009 0.34813166
0.08363802 -0.028935445 -0.10839805 -0.0848817 -0.04943143 -0.016567344 -0.0217777 0.02539055
-0.025291443 -0.022432027 0.038926974 0.01298858 0.092903785 0.22138157 0.2333877 -0.028611772
-0.029159073 -0.026207935 -0.036703788 0.014679727 -0.007821724 0.042780887 0.03740101 0.016319497
-0.03738925 -0.022129444 0.0009859102 0.040197734 0.052827843 0.07363532 -0.10325743 -0.10877205
-0.12351215 -0.047706995 0.034399733 -0.06060824 0.043636512 -0.02964822 -0.012801061 0.048210654
0.05502845 0.011059557 -0.03374227 -0.015062759 0.05709112 -0.07662611 -0.051892728 -0.06705602
-0.05751222 -0.11518767 0.039552096 -0.056962244 0.067397155 -0.043010388 0.009925579 -0.02184051
-0.029759655 -0.031117331 -0.05786451 -0.0136144115 -0.04976426 -0.029347597 -0.13186494 -0.105775796
-0.01745118 -0.051713437 -0.043005805 0.039607733 -0.02724166 -0.0019419403 0.008164303 -0.06908745
-0.07500922 -0.06892911 -0.08541011 -0.06906819 -0.09577973 -0.045969144 -0.034085892 -0.07668399
0.010063806 -0.055610992 0.049200416 0.04969502 -0.05383512 -0.072258584 0.014075566 -0.048224457
-0.037816662 -0.29110146 -0.09156153 0.0012423558 -0.031052044 -0.11988705 -0.10697347 0.0027129138
-0.056392394 -0.08415809 0.033491403 0.00070369715 -0.010288473 -0.0653146 -0.0984547 -0.15773028
-0.351542 -0.1033125 -0.06846353 -0.048055965 -0.0069649452 -0.04304188 -0.12641577 -0.009261792
0.0029745563 -0.08473578 0.007499527 -0.10589942 -0.104276575 0.02104455 -0.17718986 -0.4231928
-0.18640687 -0.010397145 -0.07939302 -0.10699798 -0.04547976 -0.022450617 0.05219084 -0.08103008
-0.03347338 -0.09954409 -0.12558112 -0.040664878 -0.007207138 -0.1622262 -0.26331377 -0.080207236
-0.03383501 -0.02823914 0.012761872 -0.10011272 -0.0048377654 0.01825879 0.026969384 -0.077324435
-0.06759649 -0.043977976 -0.063770495 -0.02893997 -0.119471006 -0.14691836 -0.06676666 -0.09364753
-0.010079004 -0.01458862 -0.09649394 -0.035990983 0.04399599 -0.00096855604 0.006079683 -0.052574985
-0.06373247 -0.031645507 -0.10021711 -0.08194014 0.07993752 0.04789319 -0.035768364 -0.06782935
-0.058108088 -0.05700505 -0.00917606 0.023670284 0.058248196 -0.048075207 -0.0324093 -0.030415474
-0.061813887 -0.080579095 0.049016185 0.3006738 0.015670033 -0.022000512 -0.09734711 0.00884667
0.019508038 0.032709777 -0.04527294 0.06489246 -0.026235659 -0.04612324 -0.061637916 0.008143815
-0.0582481 0.08854905 0.4242895 0.055098597 -0.006185643 -0.018605722 0.032927208 -0.01411282
0.053047866 0.0016703764 -0.03669269 -0.027877832 -0.015696637 -0.05449884 -0.028933749 -0.088961326
0.050150815 0.15763979 0.084471196 -0.015030141 0.015460106 0.022249598 0.056824554 0.055025216
-0.06340563
00000000: 4650 7dbd 3dc0 133c 4d87 0f3c cd76 883d
00000010: d01a fb3c 94d1 6a3d 4f4b 053e 503e b23e
00000020: 694a ab3d 070a edbc ccff ddbd 75d6 adbd
00000030: 9c78 4abd 3db8 87bc 2667 b2bc d8ff cf3c
00000040: 0030 cfbc 5fc3 b7bc e471 1f3d 0ece 543c
00000050: 5744 be3d dab1 623e 2ffd 6e3e 3c63 eabc
00000060: 02df eebc 06b2 d6bc b656 16bd 3d83 703c
00000070: b026 00bc 033b 2f3d cd31 193d 77b0 853c
00000080: 7825 19bd cf48 b5bc a839 813a 61a6 243d
00000090: 0262 583d 1dce 963d a278 d3bd e1c3 debd
000000a0: f0f3 fcbd 6968 43bd bce6 0c3d 5940 78bd
000000b0: 33bc 323d d3e0 f2bc 8bbb 51bc 8978 453d
000000c0: 8365 613d 2533 353c 5635 0abd cac9 76bc
000000d0: 61d8 693d 26ee 9cbd 788d 54bd ab54 89bd
000000e0: ef91 6bbd 83e7 ebbd 6101 223d 3e51 69bd
000000f0: 8507 8a3d a92b 30bd e59e 223c dfea b2bc
00000100: 85ca f3bc c6e9 febc 5603 6dbd fb0e 5fbc
00000110: 9cd5 4bbd 5f6a f0bc 9a07 07be fba0 d8bd
00000120: c7f5 8ebc 78d1 53bd db26 30bd b83b 223d
00000130: e729 dfbc b488 feba 92c3 053c b97d 8dbd
00000140: 6f9e 99bd b52a 8dbd 7feb aebd a073 8dbd
00000150: 2a28 c4bd 244a 3cbd a69d 0bbd 7f0c 9dbd
00000160: a9e2 243c 5ac8 63bd 6086 493d 018d 4b3d
00000170: 3782 5cbd 4ffc 93bd 349d 663c 0287 45bd
00000180: a5e5 1abd 400b 95be 9d84 bbbd 8bd6 a23a
00000190: db60 febc 5787 f5bd e814 dbbd 24cb 313b
000001a0: b6fb 66bd 145b acbd 482e 093d 5178 383a
000001b0: fc90 28bc a9c3 85bd 9ea2 c9bd 0c84 21be
000001c0: 50fd b3be 8195 d3bd 9b36 8cbd 55d6 44bd
000001d0: 323a e4bb af4c 30bd 2373 01be c5be 17bc
000001e0: c6f0 423b f489 adbd 98be f53b cce1 d8bd
000001f0: f58e d5bd 9f65 ac3c 4271 35be baac d8be
00000200: 71e1 3ebe c958 2abc cf98 a2bd c221 dbbd
00000210: fc48 3abd 5bea b7bc 10c6 553d 19f3 a5bd
00000220: 621b 09bd c6dd cbbd 5698 00be 3790 26bd
00000230: db29 ecbb a01e 26be 10d1 86be b143 a4bd
00000240: 9496 0abd c555 e7bc 2c17 513c e607 cdbd
00000250: 1e86 9ebb 7593 953c e6ee dc3c 465c 9ebd
00000260: 0770 8abd 4022 34bd 1b9a 82bd 8413 edbc
00000270: 37ad f4bd c471 16be f5bc 88bd 47ca bfbd
00000280: 6822 25bc 1b05 6fbc 9d9e c5bd 486b 13bd
00000290: 2435 343d b2e6 7dba 1438 c73b de58 57bd
000002a0: 2b86 82bd b89e 01bd a13e cdbd 3bd0 a7bd
000002b0: 48b6 a33d a62b 443d d981 12bd 1dea 8abd
000002c0: bf02 6ebd 217e 69bd 2f57 16bc 2fe8 c13c
000002d0: a995 6e3d 82ea 44bd 9dbf 04bd df29 f9bc
000002e0: 8f30 7dbd a706 a5bd 32c5 483d ebf1 993e
000002f0: 715e 803c 6b3a b4bc ec5d c7bd a0f1 103c
00000300: 52cf 9f3c b0fa 053d 1e70 39bd 57e6 843d
00000310: 2aec d6bc b9eb 3cbd 0a78 7cbd a36d 053c
00000320: 8f95 6ebd 3459 b53d 793c d93e 11af 613d
00000330: efb0 cabb 076b 98bc aede 063d 7539 67bc
00000340: b848 593d 88f0 da3a 134b 16bd 0d60 e4bc
00000350: 3c96 80bc 2d3a 5fbd 7806 edbc 5b31 b6bd
00000360: f16a 4d3d 536c 213e 3cff ac3d fb40 76bc
00000370: 624c 7d3c ca44 b63c ddc0 683d 1f62 613d
00000380: d0da 81bd
