Models/Success4_v4/model.pt (torch_old, 10071 bytes, 3 tensors)

sigmas f4 [225]
0	0x3f7fb574	0.9988625
1	0x3f7c0952	0.9845172
2	0x3f7ed2b9	0.9954029
3	0x3f80607f	1.0029448
4	0x3f7fd7e7	0.99938816
5	0x3f800f36	1.0004642
6	0x3f7da887	0.9908528
7	0x3f7ee99c	0.9957521
8	0x3f7fa544	0.9986155
9	0x3f7f59ee	0.99746597
10	0x3f8170a1	1.0112497
11	0x3f801d29	1.0008899
12	0x3f7e0cd1	0.99238306
13	0x3f8094ab	1.004537
14	0x3f800b20	1.0003395
15	0x3f7ee66e	0.9957036
16	0x3f813b4c	1.0096221
17	0x3f80273b	1.0011972
18	0x3f7e87d4	0.9942601
19	0x3f7f2e09	0.9967962
20	0x3f7e4392	0.99321854
21	0x3f7a9cb5	0.97895366
22	0x3f7eedb8	0.9958148
23	0x3f7fc529	0.9991022
24	0x3f7c015f	0.9843959
25	0x3f7e044f	0.99225324
26	0x3f7c9fc2	0.9868127
27	0x3f7f1f77	0.99657387
28	0x3f80849e	1.0040472
29	0x3f7f5ec3	0.9975397
30	0x3f7fd027	0.9992699
31	0x3f7a080e	0.9766854
32	0x3f7db855	0.99109393
33	0x3f7fef97	0.9997496
34	0x3f722612	0.9458934
35	0x3f760439	0.96100193
36	0x3f7fa72b	0.99864453
37	0x3f70cb01	0.9405976
38	0x3f795176	0.97389925
39	0x3f76e798	0.96447134
40	0x3f7d192d	0.9886654
41	0x3f7ff0e1	0.9997693
42	0x3f7eb841	0.994999
43	0x3f7fc6bd	0.99912626
44	0x3f7e7fe3	0.9941389
45	0x3f802175	1.001021
46	0x3f7f9ef6	0.9985193
47	0x3f8084ea	1.0040562
48	0x3f805167	1.0024842
49	0x3f72af3d	0.9479864
50	0x3f8469ce	1.0344789
51	0x3f77fbc9	0.9686857
52	0x3f04948f	0.5178918
53	0x3f624d31	0.88399035
54	0x3f823047	1.0170983
55	0x3f781c07	0.96917766
56	0x3f7ec149	0.9951368
57	0x3f7f5e9f	0.99753755
58	0x3f7febdf	0.99969286
59	0x3f7f14e9	0.9964128
60	0x3f7ffc3a	0.9999424
61	0x3f800e57	1.0004376
62	0x3f7f9aaf	0.99845403
63	0x3f7f3dfc	0.99703956
64	0x3f77d33f	0.9680671
65	0x3f79aee7	0.97532505
66	0x3f6ecaf5	0.9327844
67	0x3f2f9da5	0.6859992
68	0x3f52eae8	0.8238969
69	0x3f7bfaad	0.98429376
70	0x3f7fb66e	0.9988774
71	0x3f7f3968	0.9969697
72	0x3f7faca5	0.9987281
73	0x3f8012a9	1.0005695
74	0x3f852152	1.0400794
75	0x3f7fb330	0.99882793
76	0x3f8014f7	1.0006398
77	0x3f80a266	1.004956
78	0x3f7cf57d	0.98812085
79	0x3f7fd784	0.99938226
80	0x3f73439d	0.95025045
81	0x3f65e0b8	0.8979602
82	0x3e926ea2	0.2860003
83	0x3f5b5021	0.8566914
84	0x3f815e0d	1.0106827
85	0x3f7f092f	0.9962339
86	0x3f7fbf5d	0.9990137
87	0x3f7ff4dc	0.99983
88	0x3f7fe5e0	0.99960136
89	0x3f841a43	1.0320514
90	0x3f7fe11d	0.9995287
91	0x3f8031aa	1.0015156
92	0x3f7e028c	0.99222636
93	0x3f80ae15	1.0053126
94	0x3f7f5ae8	0.99748087
95	0x3f7ae00d	0.97998124
96	0x3f42a7be	0.76037204
97	0x3d5374d6	0.051625095
98	0x3f375932	0.71620476
99	0x3f7e7a74	0.994056
100	0x3f7f3a3e	0.99698246
101	0x3f7ffaf1	0.9999228
102	0x3f7ffb34	0.9999268
103	0x3f7ff2c1	0.9997979
104	0x3f81a010	1.0126972
105	0x3f8002c0	1.0000839
106	0x3f8038a8	1.001729
107	0x3f7fe54b	0.9995925
108	0x3f800269	1.0000736
109	0x3f7e120c	0.9924629
110	0x3f7c160c	0.9847114
111	0x3f24e879	0.64417225
112	0x3f95f125	1.1714216
113	0x3eccc3f2	0.39993244
114	0x3f7a8e42	0.9787332
115	0x3f7fa951	0.9986773
116	0x3f7f8647	0.99814266
117	0x3f7fffd7	0.99999756
118	0x3f7ff1b0	0.9997816
119	0x3f7ea1f7	0.9946589
120	0x3f800201	1.0000612
121	0x3f7f1d1b	0.99653786
122	0x3f7fec2d	0.9996975
123	0x3f811738	1.0085211
124	0x3f7c3014	0.9851086
125	0x3f7ffb34	0.9999268
126	0x3f4b10d0	0.7932253
127	0xbb478848	-0.003044622
128	0x3f2f06ae	0.6836957
129	0x3f7ca37b	0.9868695
130	0x3f7f3952	0.9969684
131	0x3f8046f8	1.0021658
132	0x3f7fb8b0	0.99891186
133	0x3f801724	1.0007062
134	0x3f7fd14c	0.99928737
135	0x3f7ff039	0.99975926
136	0x3f80e4b7	1.0069798
137	0x3f7dc27b	0.9912488
138	0x3f7f7269	0.9978395
139	0x3f7eeed8	0.99583197
140	0x3f748199	0.9551025
141	0x3f725ce6	0.94673
142	0x3e8f94f1	0.2804332
143	0x3f4e767c	0.8064954
144	0x3f7eeb2e	0.99577606
145	0x3f7fa4e2	0.99860966
146	0x3f80295b	1.0012621
147	0x3f804964	1.0022397
148	0x3f805f54	1.0029092
149	0x3f7f8bd2	0.99822724
150	0x3f7ffd1f	0.9999561
151	0x3f7e9ce6	0.9945816
152	0x3f8112f6	1.0083911
153	0x3f7b557f	0.9817733
154	0x3f7d66b9	0.9898487
155	0x3f761530	0.9612608
156	0x3f66c804	0.9014895
157	0x3f3e886f	0.7442693
158	0x3f847e2d	1.0351006
159	0x3f7f482e	0.9971951
160	0x3f81d0a0	1.0141792
161	0x3f7e5f31	0.99364
162	0x3f7fbba2	0.9989568
163	0x3f7ed800	0.9954834
164	0x3f7ffa85	0.9999164
165	0x3f800581	1.000168
166	0x3f795d2a	0.9740778
167	0x3f855f8d	1.0419785
168	0x3f7f38cf	0.9969606
169	0x3f75e1f1	0.96047884
170	0x3f80117f	1.0005339
171	0x3f7de264	0.9917357
172	0x3f6e5cf0	0.9311056
173	0x3f7587ae	0.95910156
174	0x3f7979af	0.974513
175	0x3f7ce026	0.98779523
176	0x3f7d7b26	0.99016035
177	0x3f7eca76	0.9952768
178	0x3f80a6a3	1.0050853
179	0x3f80e925	1.007115
180	0x3f806297	1.0030087
181	0x3f7ffc84	0.99994683
182	0x3f7f1f47	0.996571
183	0x3f80f348	1.0074244
184	0x3f80352d	1.0016228
185	0x3f7f08d3	0.9962284
186	0x3f7a419b	0.97756356
187	0x3f74e937	0.9566836
188	0x3f77a5f7	0.9673762
189	0x3f774334	0.9658692
190	0x3f7e0483	0.99225634
191	0x3f80aa43	1.005196
192	0x3f7ed0cb	0.9953734
193	0x3f7ed272	0.99539864
194	0x3f805bd8	1.0028028
195	0x3f7edfe1	0.9956036
196	0x3f82f138	1.0229864
197	0x3f7d8066	0.99024045
198	0x3f786309	0.97026116
199	0x3f7fc62f	0.9991178
200	0x3f816ca0	1.0111275
201	0x3f7dcb69	0.99138504
202	0x3f7eba3e	0.99502933
203	0x3f7e8545	0.99422103
204	0x3f7e887f	0.99427027
205	0x3f81fbaf	1.0154933
206	0x3f81f2ff	1.0152282
207	0x3f80528b	1.002519
208	0x3f7f98d1	0.99842554
209	0x3f7f8f71	0.9982825
210	0x3f7f0595	0.9961789
211	0x3f81fed6	1.0155895
212	0x3f781b1d	0.9691637
213	0x3f8212f1	1.016203
214	0x3f7eb1ee	0.9949025
215	0x3f8156eb	1.010465
216	0x3f7f4edb	0.997297
217	0x3f7f3ba3	0.99700373
218	0x3f7ecd59	0.99532086
219	0x3f81444c	1.0098968
220	0x3f7f12ec	0.9963825
221	0x3f7f6445	0.99762374
222	0x3f804ea0	1.0023994
223	0x3f7f3d82	0.9970323
224	0x3f7f501e	0.99731624

centres f4 [225, 2]
0	0xc0490fdb	-3.1415927
1	0xc0fb53d1	-7.8539815
2	0xc0490fdb	-3.1415927
3	0xc0d76c6a	-6.731984
4	0xc0490fdb	-3.1415927
5	0xc0b38503	-5.609987
6	0xc0490fdb	-3.1415927
7	0xc08f9d9c	-4.4879894
8	0xc0490fdb	-3.1415927
9	0xc0576c6a	-3.365992
10	0xc0490fdb	-3.1415927
11	0xc00f9d9c	-2.2439947
12	0xc0490fdb	-3.1415927
13	0xbf8f9d9c	-1.1219974
14	0xc0490fdb	-3.1415927
15	0x00000000	0.0
16	0xc0490fdb	-3.1415927
17	0x3f8f9d9c	1.1219974
18	0xc0490fdb	-3.1415927
19	0x400f9d9c	2.2439947
20	0xc0490fdb	-3.1415927
21	0x40576c6a	3.365992
22	0xc0490fdb	-3.1415927
23	0x408f9d9c	4.4879894
24	0xc0490fdb	-3.1415927
25	0x40b38503	5.609987
26	0xc0490fdb	-3.1415927
27	0x40d76c6a	6.731984
28	0xc0490fdb	-3.1415927
29	0x40fb53d1	7.8539815
30	0xc02c56bb	-2.6927936
31	0xc0fb53d1	-7.8539815
32	0xc02c56bb	-2.6927936
33	0xc0d76c6a	-6.731984
34	0xc02c56bb	-2.6927936
35	0xc0b38503	-5.609987
36	0xc02c56bb	-2.6927936
37	0xc08f9d9c	-4.4879894
38	0xc02c56bb	-2.6927936
39	0xc0576c6a	-3.365992
40	0xc02c56bb	-2.6927936
41	0xc00f9d9c	-2.2439947
42	0xc02c56bb	-2.6927936
43	0xbf8f9d9c	-1.1219974
44	0xc02c56bb	-2.6927936
45	0x00000000	0.0
46	0xc02c56bb	-2.6927936
47	0x3f8f9d9c	1.1219974
48	0xc02c56bb	-2.6927936
49	0x400f9d9c	2.2439947
50	0xc02c56bb	-2.6927936
51	0x40576c6a	3.365992
52	0xc02c56bb	-2.6927936
53	0x408f9d9c	4.4879894
54	0xc02c56bb	-2.6927936
55	0x40b38503	5.609987
56	0xc02c56bb	-2.6927936
57	0x40d76c6a	6.731984
58	0xc02c56bb	-2.6927936
59	0x40fb53d1	7.8539815
60	0xc00f9d9c	-2.2439947
61	0xc0fb53d1	-7.8539815
62	0xc00f9d9c	-2.2439947
63	0xc0d76c6a	-6.731984
64	0xc00f9d9c	-2.2439947
65	0xc0b38503	-5.609987
66	0xc00f9d9c	-2.2439947
67	0xc08f9d9c	-4.4879894
68	0xc00f9d9c	-2.2439947
69	0xc0576c6a	-3.365992
70	0xc00f9d9c	-2.2439947
71	0xc00f9d9c	-2.2439947
72	0xc00f9d9c	-2.2439947
73	0xbf8f9d9c	-1.1219974
74	0xc00f9d9c	-2.2439947
75	0x00000000	0.0
76	0xc00f9d9c	-2.2439947
77	0x3f8f9d9c	1.1219974
78	0xc00f9d9c	-2.2439947
79	0x400f9d9c	2.2439947
80	0xc00f9d9c	-2.2439947
81	0x40576c6a	3.365992
82	0xc00f9d9c	-2.2439947
83	0x408f9d9c	4.4879894
84	0xc00f9d9c	-2.2439947
85	0x40b38503	5.609987
86	0xc00f9d9c	-2.2439947
87	0x40d76c6a	6.731984
88	0xc00f9d9c	-2.2439947
89	0x40fb53d1	7.8539815
90	0xbfe5c8fa	-1.7951958
91	0xc0fb53d1	-7.8539815
92	0xbfe5c8fa	-1.7951958
93	0xc0d76c6a	-6.731984
94	0xbfe5c8fa	-1.7951958
95	0xc0b38503	-5.609987
96	0xbfe5c8fa	-1.7951958
97	0xc08f9d9c	-4.4879894
98	0xbfe5c8fa	-1.7951958
99	0xc0576c6a	-3.365992
100	0xbfe5c8fa	-1.7951958
101	0xc00f9d9c	-2.2439947
102	0xbfe5c8fa	-1.7951958
103	0xbf8f9d9c	-1.1219974
104	0xbfe5c8fa	-1.7951958
105	0x00000000	0.0
106	0xbfe5c8fa	-1.7951958
107	0x3f8f9d9c	1.1219974
108	0xbfe5c8fa	-1.7951958
109	0x400f9d9c	2.2439947
110	0xbfe5c8fa	-1.7951958
111	0x40576c6a	3.365992
112	0xbfe5c8fa	-1.7951958
113	0x408f9d9c	4.4879894
114	0xbfe5c8fa	-1.7951958
115	0x40b38503	5.609987
116	0xbfe5c8fa	-1.7951958
117	0x40d76c6a	6.731984
118	0xbfe5c8fa	-1.7951958
119	0x40fb53d1	7.8539815
120	0xbfac56bb	-1.3463968
121	0xc0fb53d1	-7.8539815
122	0xbfac56bb	-1.3463968
123	0xc0d76c6a	-6.731984
124	0xbfac56bb	-1.3463968
125	0xc0b38503	-5.609987
126	0xbfac56bb	-1.3463968
127	0xc08f9d9c	-4.4879894
128	0xbfac56bb	-1.3463968
129	0xc0576c6a	-3.365992
130	0xbfac56bb	-1.3463968
131	0xc00f9d9c	-2.2439947
132	0xbfac56bb	-1.3463968
133	0xbf8f9d9c	-1.1219974
134	0xbfac56bb	-1.3463968
135	0x00000000	0.0
136	0xbfac56bb	-1.3463968
137	0x3f8f9d9c	1.1219974
138	0xbfac56bb	-1.3463968
139	0x400f9d9c	2.2439947
140	0xbfac56bb	-1.3463968
141	0x40576c6a	3.365992
142	0xbfac56bb	-1.3463968
143	0x408f9d9c	4.4879894
144	0xbfac56bb	-1.3463968
145	0x40b38503	5.609987
146	0xbfac56bb	-1.3463968
147	0x40d76c6a	6.731984
148	0xbfac56bb	-1.3463968
149	0x40fb53d1	7.8539815
150	0xbf65c8fa	-0.8975979
151	0xc0fb53d1	-7.8539815
152	0xbf65c8fa	-0.8975979
153	0xc0d76c6a	-6.731984
154	0xbf65c8fa	-0.8975979
155	0xc0b38503	-5.609987
156	0xbf65c8fa	-0.8975979
157	0xc08f9d9c	-4.4879894
158	0xbf65c8fa	-0.8975979
159	0xc0576c6a	-3.365992
160	0xbf65c8fa	-0.8975979
161	0xc00f9d9c	-2.2439947
162	0xbf65c8fa	-0.8975979
163	0xbf8f9d9c	-1.1219974
164	0xbf65c8fa	-0.8975979
165	0x00000000	0.0
166	0xbf65c8fa	-0.8975979
167	0x3f8f9d9c	1.1219974
168	0xbf65c8fa	-0.8975979
169	0x400f9d9c	2.2439947
170	0xbf65c8fa	-0.8975979
171	0x40576c6a	3.365992
172	0xbf65c8fa	-0.8975979
173	0x408f9d9c	4.4879894
174	0xbf65c8fa	-0.8975979
175	0x40b38503	5.609987
176	0xbf65c8fa	-0.8975979
177	0x40d76c6a	6.731984
178	0xbf65c8fa	-0.8975979
179	0x40fb53d1	7.8539815
180	0xbee5c8fa	-0.44879895
181	0xc0fb53d1	-7.8539815
182	0xbee5c8fa	-0.44879895
183	0xc0d76c6a	-6.731984
184	0xbee5c8fa	-0.44879895
185	0xc0b38503	-5.609987
186	0xbee5c8fa	-0.44879895
187	0xc08f9d9c	-4.4879894
188	0xbee5c8fa	-0.44879895
189	0xc0576c6a	-3.365992
190	0xbee5c8fa	-0.44879895
191	0xc00f9d9c	-2.2439947
192	0xbee5c8fa	-0.44879895
193	0xbf8f9d9c	-1.1219974
194	0xbee5c8fa	-0.44879895
195	0x00000000	0.0
196	0xbee5c8fa	-0.44879895
197	0x3f8f9d9c	1.1219974
198	0xbee5c8fa	-0.44879895
199	0x400f9d9c	2.2439947
200	0xbee5c8fa	-0.44879895
201	0x40576c6a	3.365992
202	0xbee5c8fa	-0.44879895
203	0x408f9d9c	4.4879894
204	0xbee5c8fa	-0.44879895
205	0x40b38503	5.609987
206	0xbee5c8fa	-0.44879895
207	0x40d76c6a	6.731984
208	0xbee5c8fa	-0.44879895
209	0x40fb53d1	7.8539815
210	0x00000000	0.0
211	0xc0fb53d1	-7.8539815
212	0x00000000	0.0
213	0xc0d76c6a	-6.731984
214	0x00000000	0.0
215	0xc0b38503	-5.609987
216	0x00000000	0.0
217	0xc08f9d9c	-4.4879894
218	0x00000000	0.0
219	0xc0576c6a	-3.365992
220	0x00000000	0.0
221	0xc00f9d9c	-2.2439947
222	0x00000000	0.0
223	0xbf8f9d9c	-1.1219974
224	0x00000000	0.0
225	0x00000000	0.0
226	0x00000000	0.0
227	0x3f8f9d9c	1.1219974
228	0x00000000	0.0
229	0x400f9d9c	2.2439947
230	0x00000000	0.0
231	0x40576c6a	3.365992
232	0x00000000	0.0
233	0x408f9d9c	4.4879894
234	0x00000000	0.0
235	0x40b38503	5.609987
236	0x00000000	0.0
237	0x40d76c6a	6.731984
238	0x00000000	0.0
239	0x40fb53d1	7.8539815
240	0x3ee5c8fa	0.44879895
241	0xc0fb53d1	-7.8539815
242	0x3ee5c8fa	0.44879895
243	0xc0d76c6a	-6.731984
244	0x3ee5c8fa	0.44879895
245	0xc0b38503	-5.609987
246	0x3ee5c8fa	0.44879895
247	0xc08f9d9c	-4.4879894
248	0x3ee5c8fa	0.44879895
249	0xc0576c6a	-3.365992
250	0x3ee5c8fa	0.44879895
251	0xc00f9d9c	-2.2439947
252	0x3ee5c8fa	0.44879895
253	0xbf8f9d9c	-1.1219974
254	0x3ee5c8fa	0.44879895
255	0x00000000	0.0

weight f4 [1, 225]
0	0x3cd79f43	0.02632106
1	0x3e0669d1	0.13126303
2	0xbd294b32	-0.041331477
3	0xbdb422c7	-0.08795696
4	0xbd874d51	-0.06606544
5	0xbc1195c3	-0.008885804
6	0xbda5109e	-0.0805981
7	0xbda2ba8f	-0.079457395
8	0xbd1561a8	-0.036470085
9	0xbda7998c	-0.081835836
10	0xbe3a300d	-0.18182392
11	0xbe07e145	-0.13269527
12	0xbde8f4a1	-0.11374784
13	0xbd9ed8a2	-0.07756163
14	0xbd666b84	-0.05625488
15	0xbd092b9f	-0.033488866
16	0x3d7ce543	0.06174208
17	0xbd8f6f60	-0.07003665
18	0xbd475131	-0.048661415
19	0xbcb69290	-0.022286683
20	0x3d42dd3a	0.04757426
21	0xbd82d699	-0.063885875
22	0x3cede33f	0.029039023
23	0xbd70dea0	-0.05880606
24	0xbe2ee9bc	-0.1708135
25	0xbd66269e	-0.056189172
26	0x3d1ceed1	0.03831369
27	0x3d1858fe	0.037194245
28	0xbde8131c	-0.1133177
29	0xbd344131	-0.044007484
30	0xbce8fd94	-0.028441228
31	0xbda41b92	-0.08013071
32	0x3d2faa2b	0.042886894
33	0xbdcbf4a7	-0.09958773
34	0xbdf202b2	-0.1181692
35	0x3da83906	0.08214001
36	0xbb081847	-0.0020766424
37	0x3e30ac5b	0.17253248
38	0xbd2ec2f7	-0.0426664
39	0xbe0639e1	-0.13108017
40	0xbbdc6e47	-0.0067270133
41	0x3d1d0703	0.038336765
42	0x3d8e4969	0.069475956
43	0xbc10a920	-0.008829385
44	0xbd014018	-0.031555265
45	0xbd1b163f	-0.037863012
46	0x3c2c3b2a	0.010512153
47	0xbc8d9f6f	-0.017287938
48	0xbcd1134f	-0.025521902
49	0xbdc83794	-0.09776226
50	0xbdf5062a	-0.11964066
51	0x3d13b4ad	0.036060978
52	0x3ebc0270	0.3672061
53	0x3d20022f	0.039064582
54	0xbc3399b3	-0.010961938
55	0x3da95a08	0.08269125
56	0xbc780659	-0.015138232
57	0xbcc1a014	-0.023635902
58	0xbbfbc233	-0.0076830625
59	0x3c555f97	0.013023279
60	0xbc42c769	-0.011888363
61	0xbc0603d5	-0.008179625
62	0xbb843989	-0.004035179
63	0x3d260d46	0.040540002
64	0xbd74ad88	-0.059735805
65	0xbdcc58c4	-0.09977868
66	0xbda7c4ab	-0.08191808
67	0xbdbb14fe	-0.09134863
68	0xbb9108f6	-0.004426117
69	0xbb3e4d2c	-0.0029037697
70	0xbad801f8	-0.0016480079
71	0xbc201e7f	-0.009772896
72	0xbc6871de	-0.014187304
73	0x3d512bc2	0.05106712
74	0x3e2ab322	0.16669896
75	0x3d24d425	0.04024138
76	0x3d3e6185	0.04647972
77	0x3c2c4684	0.010514859
78	0x3d536bb8	0.0516164
79	0x3c6cc2f1	0.0144507745
80	0xbdb026fd	-0.086011864
81	0xbe80bec4	-0.25145543
82	0xbe5b9880	-0.21444893
83	0x3e9ae3f6	0.30252045
84	0x3dd9ddc3	0.10638001
85	0x3c15ffcf	0.009155228
86	0x3b0db238	0.002162112
87	0xbc8052a0	-0.015664399
88	0xbd059083	-0.03260852
89	0x3e0a636e	0.13514492
90	0x3d6f7f77	0.05847117
91	0x3d4de417	0.05026635
92	0xbd67bac4	-0.056574598
93	0xbd567a97	-0.052363005
94	0x3c9ae9de	0.018910345
95	0xbdcc97fb	-0.099899255
96	0xbe9c5840	-0.3053608
97	0xbf0057ab	-0.5013377
98	0x3eb8bca1	0.36081412
99	0x3de436ff	0.11143302
100	0x3d0119b3	0.03151865
101	0xbd4afc54	-0.049557045
102	0x3d0b26c9	0.033972535
103	0x3b8e0802	0.0043344507
104	0x3d4803b2	0.04883165
105	0x3d4b43c5	0.049625177
106	0x3d1e8c4b	0.038708013
107	0x3c9c8fd0	0.019111544
108	0x3c94ce97	0.018164916
109	0x3da2a5cb	0.07941779
110	0x3d5b5225	0.053545136
111	0xbd67efbf	-0.056625124
112	0x3f78f9ca	0.9725615
113	0x3e3c7b2f	0.18406366
114	0xbc9e8341	-0.019349696
115	0x3d0b1234	0.033952907
116	0x3d199baa	0.03750197
117	0xbd026958	-0.031838745
118	0xbcb0a9a1	-0.02156526
119	0xbd186a89	-0.037210975
120	0x3c8a2feb	0.016868552
121	0xbcec6a02	-0.028859142
122	0x3dd663eb	0.104682766
123	0x3e00a527	0.12563
124	0x3de4ca90	0.11171448
125	0x3c1bd357	0.009510837
126	0x3e9d6273	0.30739173
127	0x3deb0ea0	0.11477399
128	0xbf0e7b80	-0.55657196
129	0xbcbd12ea	-0.023080308
130	0xbd5aee59	-0.053449962
131	0xbd2a3702	-0.041556366
132	0x3cf5ff29	0.030028896
133	0xbd6170a4	-0.055039063
134	0xbcbed597	-0.023295207
135	0xbc439f9d	-0.01193991
136	0x3d8497ef	0.064742915
137	0x3dc3bd06	0.09557538
138	0x3dbe9460	0.09305644
139	0x3c97f327	0.018548561
140	0x3db163c6	0.086616084
141	0x3e7e319c	0.24823612
142	0xbf0169a3	-0.50551814
143	0xbf22db38	-0.6361575
144	0xbd15f536	-0.036610804
145	0xbd032b1d	-0.032023538
146	0xbd7183c3	-0.05896355
147	0xbd639e0b	-0.055570643
148	0xbd8ed074	-0.06973353
149	0x3c63aa3f	0.01389557
150	0xbc8383f6	-0.016054135
151	0x3dbc5a61	0.09196926
152	0x3d64fe2e	0.055906467
153	0x3d49e587	0.04929116
154	0x3c8132b8	0.015771255
155	0x3d6b4947	0.05744293
156	0xbd7b3ccc	-0.061337277
157	0xbe93c602	-0.28862005
158	0xbed4b140	-0.4154148
159	0xbd0f46b1	-0.034979526
160	0xbdc18703	-0.094495796
161	0xbd85c29c	-0.065312594
162	0xbd3105a0	-0.043218255
163	0x3cde8cac	0.027166687
164	0xbc89e235	-0.016831497
165	0xbd6fe4a3	-0.058567654
166	0x3ddcf18d	0.1078826
167	0x3dc25417	0.09488695
168	0x3d7a2f8f	0.06108051
169	0x3d63e732	0.055640407
170	0xbd7deef4	-0.06199546
171	0xbd5d54f4	-0.054036096
172	0xbd2d49c7	-0.042306688
173	0xbd051143	-0.032487165
174	0xbdc6f26b	-0.09714206
175	0x3cdec198	0.027191922
176	0xbd1b545b	-0.037922245
177	0xbd99f6a1	-0.07517744
178	0xbdb2d8e8	-0.08732778
179	0xbd9900f4	-0.07470885
180	0x3c6324f5	0.013863792
181	0x3d4dc904	0.05024053
182	0x3d531b9d	0.051540006
183	0xbdb3e507	-0.08783918
184	0xbd455aec	-0.048182413
185	0xbcf9b327	-0.030480934
186	0xbe1de10f	-0.15417884
187	0x3d8eba97	0.06969183
188	0x3d9577cb	0.07298239
189	0xbe14848c	-0.14503688
190	0x3ba13a8e	0.0049203103
191	0xbd015fcc	-0.0315855
192	0xbcfe957f	-0.031077145
193	0xbcdba67c	-0.026812784
194	0xbd79d580	-0.060994625
195	0xbd33155d	-0.043721545
196	0x3c6a80c3	0.014312926
197	0xbd0f26cb	-0.034949105
198	0x3c4d8fca	0.012546489
199	0xbda0cf60	-0.07852054
200	0xbe0a1912	-0.13486126
201	0xbd945b69	-0.072439976
202	0x3c06774c	0.0082071535
203	0xbcac3102	-0.021019462
204	0xbd2cd57b	-0.04219578
205	0xbde728f8	-0.11287111
206	0xbcc22d46	-0.023703229
207	0xbd1becf2	-0.038067766
208	0xbdb8331f	-0.089941256
209	0xbd0ef61a	-0.03490267
210	0x3d57932c	0.05263059
211	0x3dc82d84	0.097743064
212	0xbddc70d2	-0.10763706
213	0xbd95f99d	-0.073230006
214	0xbe0042a9	-0.12525429
215	0xbdd626c5	-0.104566135
216	0xbda7c830	-0.081924796
217	0xbd11fdf5	-0.035642583
218	0xbd9e89db	-0.077411376
219	0xbdd2e4ea	-0.10297568
220	0xbdc38c4d	-0.095482446
221	0xbd1e5275	-0.038652856
222	0x3bd35328	0.006449122
223	0xbd5e78d9	-0.054314468
224	0xbca56b44	-0.02019275
