Models/RBF2/model.pt (torch_old, 10071 bytes, 3 tensors)

sigmas f4 [225]
0.9991588 0.99121183 0.99741364 0.9961422 0.9995128 0.99891925 1.0000408 0.99942154
0.9995689 1.0021106 1.0010964 0.99568295 0.96951675 0.9784224 0.99630636 0.999312
0.9986753 0.99407923 1.00282 1.0063198 1.0003303 0.9959092 1.0053456 1.0000658
1.0035764 1.0005574 0.9930665 0.9961178 1.0245324 0.99685574 0.9985582 1.0190299
0.9694986 1.0084124 0.9853906 0.9996959 0.9902242 1.06984 1.0035042 1.0068544
0.99108016 0.9864536 1.022988 1.0020136 1.001626 1.0001075 1.0046998 0.988126
0.96676433 0.9932239 0.89903146 0.85017836 1.192595 0.8669617 0.9991141 0.9736806
0.9648164 1.0411718 0.97579795 0.9972102 1.0000612 1.0036278 1.0059221 0.90460545
1.0667541 0.81682664 1.3915606 1.0015266 0.55792665 0.88613266 0.9467223 0.9903822
1.0028514 0.99366313 1.0005456 0.9998745 0.9999193 1.0043666 0.99067473 0.98528224
0.82610476 1.2795353 0.69855964 0.75110596 0.8228719 0.9850442 0.9907563 1.0034231
1.004389 0.9999488 0.9999951 1.0003362 1.0026156 0.99337804 0.96557015 0.98602253
1.1013653 0.4617014 0.77153563 0.8110494 1.0351483 0.99824166 1.0022135 0.9972694
0.9997458 1.000005 0.9995462 1.001091 1.0018884 0.9804732 0.81530005 0.33351624
0.000995831 0.16108692 0.61274296 0.97026086 0.9962218 1.0014296 0.99961615 1.0002977
0.9999561 1.0002246 0.9991983 0.9981695 1.0182366 0.9566187 0.5083971 0.15089273
1.0477761 1.2580075 0.9717855 1.0040407 1.0000868 0.9996315 0.9999955 1.0003138
0.9992137 0.9988796 0.9921496 1.02945 0.7239003 0.46957913 1.3982601 1.2724843
1.0004432 0.9522605 1.0014341 1.0019008 0.9992453 0.9999746 0.99836904 0.99934304
0.99861974 0.985248 1.0225058 0.96739584 0.574884 0.62348855 1.005703 0.79614925
0.96166074 0.97257185 1.0124934 0.99501204 1.0007848 0.9997418 0.994897 1.0133878
0.9887981 0.9770194 0.9734464 0.7985084 0.9155172 0.97906756 0.903579 0.9828257
0.9628943 1.0110503 0.996906 0.99936235 0.9984713 0.95871806 1.0070765 0.99626064
0.99468476 0.9956232 0.98781353 0.9976005 0.9997267 0.9824886 0.9973777 0.9763073
0.9951458 0.9876468 0.99890524 1.0010543 0.97501713 0.99869907 0.99475807 1.0005053
0.99997497 1.0063796 0.9969028 0.99782985 0.999293 0.99805045 0.9945201 0.98614365
0.9921203 0.9998464 1.0029769 0.9686566 0.99204904 0.99998206 1.000576 1.0009412
1.0001094 1.0005399 0.9999893 0.99924433 0.9968824 0.9986627 0.99334586 1.018254
0.9986376
00000000: dfc8 7f3f 0fc0 7d3f 8056 7f3f 2d03 7f3f
00000010: 12e0 7f3f 2cb9 7f3f 5601 803f 17da 7f3f
00000020: bfe3 7f3f 2945 803f ed23 803f 14e5 7e3f
00000030: 4032 783f e479 7a3f ef0d 7f3f e9d2 7f3f
00000040: 2fa9 7f3f fa7b 7e3f 685c 803f 16cf 803f
00000050: d30a 803f e8f3 7e3f 2aaf 803f 2802 803f
00000060: 3175 803f 4412 803f 9b39 7e3f 9301 7f3f
00000070: e123 833f f031 7f3f 83a1 7f3f 926f 823f
00000080: 0f31 783f a813 813f 8f42 7c3f 12ec 7f3f
00000090: 557f 7d3f 84f0 883f d372 803f 9be0 803f
000000a0: 6eb7 7d3f 3988 7c3f 45f1 823f fb41 803f
000000b0: 4835 803f 8603 803f 019a 803f d3f5 7c3f
000000c0: de7d 773f ec43 7e3f ed26 663f 4aa5 593f
000000d0: f4a6 983f 34f1 5d3f f1c5 7f3f 2243 793f
000000e0: 35fe 763f 1e45 853f e5cd 793f 2b49 7f3f
000000f0: 0102 803f e076 803f 0ec2 803f 3994 673f
00000100: 668b 883f 8d1b 513f a81e b23f 0632 803f
00000110: 48d4 0e3f 97d9 623f 655c 723f b089 7d3f
00000120: 6f5d 803f b560 7e3f e111 803f c6f7 7f3f
00000130: b6fa 7f3f 168f 803f dc9c 7d3f 753b 7c3f
00000140: 9a7b 533f d0c7 a33f ced4 323f 7b48 403f
00000150: bca7 523f db2b 7c3f 34a2 7d3f 2b70 803f
00000160: d28f 803f a5fc 7f3f aeff 7f3f 040b 803f
00000170: b555 803f 064e 7e3f 9b2f 773f f96b 7c3f
00000180: 8af9 8c3f 2064 ec3e 5c83 453f efa0 4f3f
00000190: bd7f 843f c48c 7f3f 8848 803f 0c4d 7f3f
000001a0: 57ef 7f3f 2a00 803f 42e2 7f3f c023 803f
000001b0: e13d 803f 4b00 7b3f 81b7 503f a4c2 aa3e
000001c0: 8b86 823a f8f3 243e b9dc 1c3f 0463 783f
000001d0: 6408 7f3f d82e 803f d8e6 7f3f c109 803f
000001e0: 1ffd 7f3f 5c07 803f 76cb 7f3f 0988 7f3f
000001f0: 9455 823f f7e4 743f 5026 023f a083 1a3e
00000200: 871d 863f 6406 a13f efc6 783f 6884 803f
00000210: d802 803f dae7 7f3f b5ff 7f3f 480a 803f
00000220: 78cc 7f3f 93b6 7f3f 84fd 7d3f 05c5 833f
00000230: 8851 393f ad6c f03e 30fa b23f c4e0 a23f
00000240: 860e 803f 58c7 733f fe2e 803f 493e 803f
00000250: 8ace 7f3f 56fe 7f3f 1d95 7f3f f2d4 7f3f
00000260: 8ba5 7f3f 3739 7c3f 78e1 823f 41a7 773f
00000270: 992b 133f f29c 1f3f e0ba 803f 70d0 4b3f
00000280: 662f 763f 78fa 783f 6299 813f 1cb9 7e3f
00000290: b719 803f 14ef 7f3f 92b1 7e3f b1b6 813f
000002a0: df21 7d3f f21d 7a3f c933 793f 0c6b 4c3f
000002b0: 565f 6a3f 2ca4 7a3f f450 673f 779a 7b3f
000002c0: 3e80 763f 196a 813f 3b35 7f3f 36d6 7f3f
000002d0: d19b 7f3f 8c6e 753f e2e7 803f f00a 7f3f
000002e0: a9a3 7e3f 29e1 7e3f 59e1 7c3f bf62 7f3f
000002f0: 17ee 7f3f 5f84 7b3f 2554 7f3f 46ef 793f
00000300: e0c1 7e3f 6cd6 7c3f 41b8 7f3f 8c22 803f
00000310: b99a 793f beaa 7f3f 77a8 7e3f 8f10 803f
00000320: 5cfe 7f3f 0cd1 803f 0635 7f3f c771 7f3f
00000330: abd1 7f3f 3c80 7f3f df98 7e3f e973 7c3f
00000340: 99fb 7d3f eff5 7f3f 8c61 803f e1f9 773f
00000350: edf6 7d3f d3fe 7f3f e012 803f d71e 803f
00000360: 9603 803f b111 803f 4cff 7f3f 7ace 7f3f
00000370: af33 7f3f 5ca8 7f3f ea4b 7e3f 2656 823f
00000380: b7a6 7f3f

centres f4 [225, 2]
-3.1415927 -7.8539815 -3.1415927 -6.731984 -3.1415927 -5.609987 -3.1415927 -4.4879894
-3.1415927 -3.365992 -3.1415927 -2.2439947 -3.1415927 -1.1219974 -3.1415927 0.0
-3.1415927 1.1219974 -3.1415927 2.2439947 -3.1415927 3.365992 -3.1415927 4.4879894
-3.1415927 5.609987 -3.1415927 6.731984 -3.1415927 7.8539815 -2.6927936 -7.8539815
-2.6927936 -6.731984 -2.6927936 -5.609987 -2.6927936 -4.4879894 -2.6927936 -3.365992
-2.6927936 -2.2439947 -2.6927936 -1.1219974 -2.6927936 0.0 -2.6927936 1.1219974
-2.6927936 2.2439947 -2.6927936 3.365992 -2.6927936 4.4879894 -2.6927936 5.609987
-2.6927936 6.731984 -2.6927936 7.8539815 -2.2439947 -7.8539815 -2.2439947 -6.731984
-2.2439947 -5.609987 -2.2439947 -4.4879894 -2.2439947 -3.365992 -2.2439947 -2.2439947
-2.2439947 -1.1219974 -2.2439947 0.0 -2.2439947 1.1219974 -2.2439947 2.2439947
-2.2439947 3.365992 -2.2439947 4.4879894 -2.2439947 5.609987 -2.2439947 6.731984
-2.2439947 7.8539815 -1.7951958 -7.8539815 -1.7951958 -6.731984 -1.7951958 -5.609987
-1.7951958 -4.4879894 -1.7951958 -3.365992 -1.7951958 -2.2439947 -1.7951958 -1.1219974
-1.7951958 0.0 -1.7951958 1.1219974 -1.7951958 2.2439947 -1.7951958 3.365992
-1.7951958 4.4879894 -1.7951958 5.609987 -1.7951958 6.731984 -1.7951958 7.8539815
-1.3463968 -7.8539815 -1.3463968 -6.731984 -1.3463968 -5.609987 -1.3463968 -4.4879894
-1.3463968 -3.365992 -1.3463968 -2.2439947 -1.3463968 -1.1219974 -1.3463968 0.0
-1.3463968 1.1219974 -1.3463968 2.2439947 -1.3463968 3.365992 -1.3463968 4.4879894
-1.3463968 5.609987 -1.3463968 6.731984 -1.3463968 7.8539815 -0.8975979 -7.8539815
-0.8975979 -6.731984 -0.8975979 -5.609987 -0.8975979 -4.4879894 -0.8975979 -3.365992
-0.8975979 -2.2439947 -0.8975979 -1.1219974 -0.8975979 0.0 -0.8975979 1.1219974
-0.8975979 2.2439947 -0.8975979 3.365992 -0.8975979 4.4879894 -0.8975979 5.609987
-0.8975979 6.731984 -0.8975979 7.8539815 -0.44879895 -7.8539815 -0.44879895 -6.731984
-0.44879895 -5.609987 -0.44879895 -4.4879894 -0.44879895 -3.365992 -0.44879895 -2.2439947
-0.44879895 -1.1219974 -0.44879895 0.0 -0.44879895 1.1219974 -0.44879895 2.2439947
-0.44879895 3.365992 -0.44879895 4.4879894 -0.44879895 5.609987 -0.44879895 6.731984
-0.44879895 7.8539815 0.0 -7.8539815 0.0 -6.731984 0.0 -5.609987
0.0 -4.4879894 0.0 -3.365992 0.0 -2.2439947 0.0 -1.1219974
0.0 0.0 0.0 1.1219974 0.0 2.2439947 0.0 3.365992
0.0 4.4879894 0.0 5.609987 0.0 6.731984 0.0 7.8539815
0.44879895 -7.8539815 0.44879895 -6.731984 0.44879895 -5.609987 0.44879895 -4.4879894
0.44879895 -3.365992 0.44879895 -2.2439947 0.44879895 -1.1219974 0.44879895 0.0
00000000: db0f 49c0 d153 fbc0 db0f 49c0 6a6c d7c0
00000010: db0f 49c0 0385 b3c0 db0f 49c0 9c9d 8fc0
00000020: db0f 49c0 6a6c 57c0 db0f 49c0 9c9d 0fc0
00000030: db0f 49c0 9c9d 8fbf db0f 49c0 0000 0000
00000040: db0f 49c0 9c9d 8f3f db0f 49c0 9c9d 0f40
00000050: db0f 49c0 6a6c 5740 db0f 49c0 9c9d 8f40
00000060: db0f 49c0 0385 b340 db0f 49c0 6a6c d740
00000070: db0f 49c0 d153 fb40 bb56 2cc0 d153 fbc0
00000080: bb56 2cc0 6a6c d7c0 bb56 2cc0 0385 b3c0
00000090: bb56 2cc0 9c9d 8fc0 bb56 2cc0 6a6c 57c0
000000a0: bb56 2cc0 9c9d 0fc0 bb56 2cc0 9c9d 8fbf
000000b0: bb56 2cc0 0000 0000 bb56 2cc0 9c9d 8f3f
000000c0: bb56 2cc0 9c9d 0f40 bb56 2cc0 6a6c 5740
000000d0: bb56 2cc0 9c9d 8f40 bb56 2cc0 0385 b340
000000e0: bb56 2cc0 6a6c d740 bb56 2cc0 d153 fb40
000000f0: 9c9d 0fc0 d153 fbc0 9c9d 0fc0 6a6c d7c0
00000100: 9c9d 0fc0 0385 b3c0 9c9d 0fc0 9c9d 8fc0
00000110: 9c9d 0fc0 6a6c 57c0 9c9d 0fc0 9c9d 0fc0
00000120: 9c9d 0fc0 9c9d 8fbf 9c9d 0fc0 0000 0000
00000130: 9c9d 0fc0 9c9d 8f3f 9c9d 0fc0 9c9d 0f40
00000140: 9c9d 0fc0 6a6c 5740 9c9d 0fc0 9c9d 8f40
00000150: 9c9d 0fc0 0385 b340 9c9d 0fc0 6a6c d740
00000160: 9c9d 0fc0 d153 fb40 fac8 e5bf d153 fbc0
00000170: fac8 e5bf 6a6c d7c0 fac8 e5bf 0385 b3c0
00000180: fac8 e5bf 9c9d 8fc0 fac8 e5bf 6a6c 57c0
00000190: fac8 e5bf 9c9d 0fc0 fac8 e5bf 9c9d 8fbf
000001a0: fac8 e5bf 0000 0000 fac8 e5bf 9c9d 8f3f
000001b0: fac8 e5bf 9c9d 0f40 fac8 e5bf 6a6c 5740
000001c0: fac8 e5bf 9c9d 8f40 fac8 e5bf 0385 b340
000001d0: fac8 e5bf 6a6c d740 fac8 e5bf d153 fb40
000001e0: bb56 acbf d153 fbc0 bb56 acbf 6a6c d7c0
000001f0: bb56 acbf 0385 b3c0 bb56 acbf 9c9d 8fc0
00000200: bb56 acbf 6a6c 57c0 bb56 acbf 9c9d 0fc0
00000210: bb56 acbf 9c9d 8fbf bb56 acbf 0000 0000
00000220: bb56 acbf 9c9d 8f3f bb56 acbf 9c9d 0f40
00000230: bb56 acbf 6a6c 5740 bb56 acbf 9c9d 8f40
00000240: bb56 acbf 0385 b340 bb56 acbf 6a6c d740
00000250: bb56 acbf d153 fb40 fac8 65bf d153 fbc0
00000260: fac8 65bf 6a6c d7c0 fac8 65bf 0385 b3c0
00000270: fac8 65bf 9c9d 8fc0 fac8 65bf 6a6c 57c0
00000280: fac8 65bf 9c9d 0fc0 fac8 65bf 9c9d 8fbf
00000290: fac8 65bf 0000 0000 fac8 65bf 9c9d 8f3f
000002a0: fac8 65bf 9c9d 0f40 fac8 65bf 6a6c 5740
000002b0: fac8 65bf 9c9d 8f40 fac8 65bf 0385 b340
000002c0: fac8 65bf 6a6c d740 fac8 65bf d153 fb40
000002d0: fac8 e5be d153 fbc0 fac8 e5be 6a6c d7c0
000002e0: fac8 e5be 0385 b3c0 fac8 e5be 9c9d 8fc0
000002f0: fac8 e5be 6a6c 57c0 fac8 e5be 9c9d 0fc0
00000300: fac8 e5be 9c9d 8fbf fac8 e5be 0000 0000
00000310: fac8 e5be 9c9d 8f3f fac8 e5be 9c9d 0f40
00000320: fac8 e5be 6a6c 5740 fac8 e5be 9c9d 8f40
00000330: fac8 e5be 0385 b340 fac8 e5be 6a6c d740
00000340: fac8 e5be d153 fb40 0000 0000 d153 fbc0
00000350: 0000 0000 6a6c d7c0 0000 0000 0385 b3c0
00000360: 0000 0000 9c9d 8fc0 0000 0000 6a6c 57c0
00000370: 0000 0000 9c9d 0fc0 0000 0000 9c9d 8fbf
00000380: 0000 0000 0000 0000 0000 0000 9c9d 8f3f
00000390: 0000 0000 9c9d 0f40 0000 0000 6a6c 5740
000003a0: 0000 0000 9c9d 8f40 0000 0000 0385 b340
000003b0: 0000 0000 6a6c d740 0000 0000 d153 fb40
000003c0: fac8 e53e d153 fbc0 fac8 e53e 6a6c d7c0
000003d0: fac8 e53e 0385 b3c0 fac8 e53e 9c9d 8fc0
000003e0: fac8 e53e 6a6c 57c0 fac8 e53e 9c9d 0fc0
000003f0: fac8 e53e 9c9d 8fbf fac8 e53e 0000 0000

weight f4 [1, 225]
-0.0010693613 -0.17686051 -0.051609796 0.023341516 0.009635295 0.050407026 0.031028146 0.014368119
0.0059633763 -0.063592955 -0.027207894 -0.041853454 0.037782922 0.044054706 0.068087965 0.0032856443
-0.005137755 -0.089704044 -0.028940368 -0.07466356 -0.030253561 -0.044498578 -0.043387063 -0.016317757
-0.047912467 -0.072347336 -0.09202938 0.047306743 -0.019510895 -0.0013063573 0.05337569 -0.057488915
-0.16400963 -0.12213958 0.029285777 0.015261804 0.077138916 -0.1607716 -0.113383494 -0.049138483
-0.045936093 0.03309901 0.08007939 0.029994909 -0.06709949 -0.025850065 -0.026335208 -0.065753065
-0.10571881 -0.011082556 -0.12397064 0.23354502 -0.47911674 -0.27649528 -0.08214587 -0.016848931
0.12308923 0.072178796 0.0992408 0.03568528 0.033152442 -0.060266104 -0.062326033 -0.17964382
-0.19689792 -0.070360005 -0.6563662 -0.7499948 -0.8890778 -0.07497228 0.08071559 0.13282755
0.028610315 0.039674792 -0.022964433 -0.060387377 -0.004894755 -0.031725377 -0.020086242 -0.15089607
-0.19431342 -1.2769526 -1.0265315 0.080324195 0.2790697 0.13863623 0.032602105 0.07206109
0.060814787 -0.066102654 0.020695567 -0.01841636 -0.040797938 0.058594465 -0.16440284 0.20055899
-1.3554783 -1.8317127 0.45142817 0.051347192 0.17750221 0.024539797 0.061432622 -0.050282996
-0.032091998 -0.006696408 0.062489696 -0.059587263 -0.03939574 -0.102097064 -0.10644923 -0.1408658
0.11534012 0.04848393 0.17626597 0.076989494 0.0009887601 0.03753413 -0.027289862 -0.030223494
-0.03848754 -0.01413047 0.043808807 -0.042295083 0.07751662 -0.21825852 0.3626027 -0.68316334
0.06268333 -0.11270235 0.04518465 0.078782655 0.038149927 -0.012325687 -0.037943717 0.031875852
-0.03437087 -0.017517073 0.024612477 0.05118946 0.22619225 -0.33674836 -0.01247414 -0.082601555
-0.06447183 -0.03615922 0.018744467 -0.020705257 -0.010578766 -0.056397777 -0.052821524 -0.0045714034
0.028312184 0.026704146 0.053902045 -0.02536324 -0.6990254 -0.19886026 0.029858768 0.13359308
-0.052936293 -0.08216339 -0.027092932 0.057465974 -0.043325145 0.0012659279 0.033827305 0.033901557
-0.0016853026 -0.075425334 0.041748792 -0.26273024 -0.069126636 0.07384388 0.013632651 -0.047103778
-0.012040148 -0.031761445 -0.019216739 0.009792099 -0.048142392 0.11614106 -0.01354584 -0.039042704
-0.01925865 0.03398381 -0.079678774 -0.049675986 0.040096506 -0.035334468 -0.05509335 0.005533262
-0.013491761 -0.06657349 0.040179383 -0.039348587 0.04930171 -0.094863266 0.005015373 -0.04576419
-0.048889235 -0.07490685 0.031557716 -0.050534274 -0.01836948 -0.0063041653 -0.025058124 -0.0008159444
-0.060809396 -0.0029873487 -0.049211856 -0.26347202 -0.14559457 -0.04609399 -0.018613597 -0.069210395
-0.02168407 -0.033766173 -0.019064726 0.055417605 0.053478476 0.007037471 0.071766295 0.15244186
0.0030429394
00000000: d029 8cba ec1a 35be cb64 53bd b536 bf3c
00000010: 5bdd 1d3c 9977 4e3d bd2e fe3c 4268 6b3c
00000020: 6d68 c33b 063d 82bd 17e3 debc 876e 2bbd
00000030: 44c2 1a3d b572 343d b471 8b3d f753 573b
00000040: 9d5a a8bb c1b6 b7bd 5a14 edbc 35e9 98bd
00000050: 51d6 f7bc 2444 36bd a2b6 31bd d1ac 85bc
00000060: dd3f 44bd d72a 94bd e679 bcbd b7c4 413d
00000070: 50d5 9fbc 143a abba 78a0 5a3d 7f79 6bbd
00000080: 24f2 27be 5124 fabd bae8 ef3c a50c 7a3c
00000090: 02fb 9d3d 4fa1 24be 9b35 e8bd 6f45 49bd
000000a0: 7c27 3cbd d492 073d aa00 a43d e2b7 f53c
000000b0: 756b 89bd 84c3 d3bc efbc d7bc 8ba9 86bd
000000c0: 1a83 d8bd 9c93 35bc 52e4 fdbd 6d26 6f3e
000000d0: ca4e f5be ca90 8dbe 183c a8bd c506 8abc
000000e0: 3516 fc3d 7ad2 933d c33e cb3d ba2a 123d
000000f0: dbca 073d 97d9 76bd 9549 7fbd 8df4 37be
00000100: 9c9f 49be e818 90bd 9e07 28bf a9ff 3fbf
00000110: 9a9a 63bf 118b 99bd 374e a53d f203 083e
00000120: 2e60 ea3c 0982 223d e81f bcbc c158 77bd
00000130: 2e64 a0bb 78f2 01bd e78b a4bc 8084 1abe
00000140: 19fa 46be 2f73 a3bf 6265 83bf 0381 a43d
00000150: 39e2 8e3e a8f6 0d3e c989 053d c494 933d
00000160: ed18 793d d460 87bd c089 a93c e8dd 96bc
00000170: bd1b 27bd c000 703d 3859 28be 565f 4d3e
00000180: 5080 adbf 9075 eabf 9821 e73e 6f51 523d
00000190: 24c3 353e af07 c93c c6a0 7b3d 8bf5 4dbd
000001a0: e672 03bd 8b6d dbbb 32f5 7f3d c611 74bd
000001b0: 6d5d 21bd 4418 d1bd 0e02 dabd 203f 10be
000001c0: 7137 ec3d 1697 463d 117f 343e abac 9d3d
000001d0: 4999 813a 63bd 193d fd8e dfbc 4397 f7bc
000001e0: 1ca5 1dbd 7d83 67bc dd70 333d 9c3d 2dbd
000001f0: 09c1 9e3d 297f 5fbe 10a7 b93e cbe3 2ebf
00000200: 1e60 803d 7dd0 e6bd 8a13 393d cd58 a13d
00000210: 1943 1c3d aef1 49bc df6a 1bbd 4190 023d
00000220: 78c8 0cbd f77f 8fbc 1ba0 c93c 0aac 513d
00000230: f19e 673e 486a acbe 5660 4cbc 012b a9bd
00000240: cf09 84bd b11b 14bd ff8d 993c 129e a9bc
00000250: 9052 2dbc 5b01 67bd 625b 58bd b6cb 95bb
00000260: f4ee e73c a7c2 da3c 64c8 5c3d 92c6 cfbc
00000270: 54f3 32bf 06a2 4bbe 609a f43c a0cc 083e
00000280: bad3 58bd 4845 a8bd fff1 ddbc 7161 6b3d
00000290: b575 31bd 7eed a53a 808e 0a3d 5cdc 0a3d
000002a0: 5fe5 dcba 9978 9abd c800 2b3d 9484 86be
000002b0: 4492 8dbd 763b 973d 7c5b 5f3c e4ef 40bd
000002c0: 0a44 45bc 4a18 02bd 6c6c 9dbc 0a6f 203c
000002d0: f530 45bd 5ddb ed3d 5fef 5dbc 3eeb 1fbd
000002e0: 51c4 9dbc 9c32 0b3d a02e a3bd 0c79 4bbd
000002f0: 3c3c 243d e0ba 10bd 91a9 61bd 5e50 b53b
00000300: 8c0c 5dbc af57 88bd 2393 243d fc2b 21bd
00000310: 97f0 493d ac47 c2bd 0058 a43b 3b73 3bbd
00000320: 1440 48bd c368 99bd aa42 013d 07fd 4ebd
00000330: 977b 96bc 2c93 cebb b246 cdbc 1ae5 55ba
00000340: 4613 79bd 65c7 43bb 5f92 49bd cee5 86be
00000350: be16 15be 0dcd 3cbd 8b7b 98bc 2ebe 8dbd
00000360: caa2 b1bc 664e 0abd a12d 9cbc 92fd 623d
00000370: 3f0c 5b3d 969a e63b 35fa 923d b819 1c3e
00000380: 0d6c 473b
