Models/RBF3/model.pt (torch_old, 10071 bytes, 3 tensors)

sigmas f4 [225]
0	0x3f8008a3	1.0002636
1	0x3f80502f	1.002447
2	0x3f7cd017	0.9875502
3	0x3f7ce758	0.987905
4	0x3f7c6b5f	0.98601335
5	0x3f7ebf40	0.99510574
6	0x3f7e751f	0.9939746
7	0x3f7c758e	0.98616874
8	0x3f801249	1.000558
9	0x3f7fff90	0.9999933
10	0x3f80061b	1.0001863
11	0x3f815747	1.010476
12	0x3f369c27	0.7133202
13	0x3ebc5ebd	0.3679103
14	0x3f7ef51e	0.9959277
15	0x3f801c04	1.000855
16	0x3f8024cc	1.001123
17	0x3f7878b1	0.9705916
18	0x3f7f0346	0.9961437
19	0x3f82f24e	1.0230196
20	0x3f8141db	1.0098222
21	0x3f6cfc37	0.9257235
22	0x3fab99a4	1.3406262
23	0x3f7fc5cd	0.99911195
24	0x3f7fec42	0.99969876
25	0x3f7ffa0c	0.99990916
26	0x3f7e841a	0.9942032
27	0x3f9df824	1.2341352
28	0x3f54fb55	0.83196
29	0x3f7d97c9	0.9905973
30	0x3f800932	1.0002806
31	0x3f7ed96e	0.9955052
32	0x3f78408f	0.9697351
33	0x3f84f47b	1.038711
34	0x3f739066	0.9514221
35	0x3f71e749	0.9449354
36	0x3f395309	0.72392327
37	0x3f88ac6e	1.0677621
38	0x3f83ba9f	1.0291327
39	0x3f802df8	1.0014029
40	0x3f7ffddd	0.9999674
41	0x3f808552	1.0040686
42	0x3fb67b6d	1.4256417
43	0x3f8f8c0b	1.1214613
44	0x3f7eda09	0.99551445
45	0x3f7fd769	0.99938065
46	0x3f7ef689	0.9959493
47	0x3f7b897c	0.9825666
48	0x3f86f29e	1.0542791
49	0x3f47627e	0.7788466
50	0x3f22a9df	0.6354045
51	0x3f04141a	0.5159317
52	0x3f577855	0.8416799
53	0x3f819a78	1.0125265
54	0x3f800d28	1.0004015
55	0x3f7fb246	0.998814
56	0x3f8112bd	1.0083843
57	0x3fa7d7a4	1.3112683
58	0x3f8a3d69	1.0799991
59	0x3f7ef8dd	0.99598485
60	0x3f80098e	1.0002916
61	0x3f7f8656	0.99814355
62	0x3f7c4f48	0.98558474
63	0x3f7ee14e	0.9956254
64	0x3f68c585	0.9092639
65	0x3ef9a5bc	0.48759258
66	0x3e9155fd	0.28385916
67	0x3f387efb	0.72068757
68	0x3f4b7ec4	0.79490304
69	0x3f836b78	1.0267172
70	0x3f7ecfc8	0.995358
71	0x3f8024ef	1.0011271
72	0x3f858991	1.0432607
73	0x3f807084	1.0034337
74	0x3f7f6b4c	0.997731
75	0x3f7ffdc9	0.9999662
76	0x3f7fefc2	0.99975216
77	0x3f7e2cde	0.9928721
78	0x3f7f5c6a	0.9975039
79	0x3fef6be8	1.8704805
80	0x3f1c4d06	0.6105503
81	0x3dae0001	0.084960945
82	0x3f2ee5ce	0.68319404
83	0x3f230dc4	0.6369288
84	0x3f905de7	1.1278657
85	0x3f882f9f	1.0639533
86	0x3f80a0c9	1.0049068
87	0x3f813098	1.0092955
88	0x3f7f3953	0.99696845
89	0x3f8016dd	1.0006977
90	0x3f7ffd45	0.99995834
91	0x3f7ff34a	0.99980605
92	0x3f7f8ad3	0.99821204
93	0x3f78ea1b	0.97232217
94	0x3ffa7b38	1.9568853
95	0x3f48f45a	0.7849785
96	0x3e8e7590	0.27824068
97	0xbcbd3e97	-0.023101134
98	0x3ed80803	0.42193612
99	0x3f4815b9	0.78158146
100	0x3f8794a2	1.0592234
101	0x3f7f5378	0.9973674
102	0x3f7f4878	0.99719954
103	0x3f7fbd41	0.99898154
104	0x3f8005a1	1.0001718
105	0x3f7fffcc	0.9999969
106	0x3f800051	1.0000097
107	0x3f7fbc82	0.99897015
108	0x3f7e1698	0.99253225
109	0x3fd32c7c	1.649795
110	0x3f49cc28	0.7882714
111	0x3e33b922	0.17551091
112	0xbee89ad6	-0.4543063
113	0x3e270592	0.16310719
114	0x3f460d40	0.7736397
115	0x3f844db4	1.0336213
116	0x3f803d01	1.0018617
117	0x3f7f246b	0.99664944
118	0x3f7fe872	0.9996406
119	0x3f7ffb63	0.9999296
120	0x3f800017	1.0000027
121	0x3f800119	1.0000335
122	0x3f7ff139	0.9997745
123	0x3f7f964f	0.9983873
124	0x3f8a8d6a	1.0824406
125	0x3f8bcb95	1.0921503
126	0x3ee0bd12	0.4389425
127	0xbd108497	-0.035282698
128	0x3f0c8d60	0.5490322
129	0x3fc54e7b	1.5414575
130	0x3ffadac6	1.9598014
131	0x3f726a38	0.94693327
132	0x3f7fd125	0.99928504
133	0x3f7f6b28	0.9977288
134	0x3f8009ad	1.0002953
135	0x3f80012f	1.0000361
136	0x3f8006e5	1.0002104
137	0x3f80070f	1.0002154
138	0x3f7fc11a	0.99904025
139	0x3f831c33	1.0242981
140	0x3f9202d9	1.1407119
141	0x3ee13bae	0.43990844
142	0x3fa56c89	1.2923747
143	0x3e9b6142	0.3034764
144	0x3fd8f982	1.6951144
145	0x400630ce	2.0967288
146	0x3f6191ed	0.8811329
147	0x3f7cc00d	0.98730546
148	0x3f7e93a7	0.9944405
149	0x3f801be6	1.0008514
150	0x3f80029f	1.00008
151	0x3f801609	1.0006725
152	0x3f7fdf4f	0.99950117
153	0x3f7fe375	0.99956447
154	0x3f80f9ce	1.0076234
155	0x3f79a9d1	0.97524744
156	0x3f0c175f	0.5472316
157	0x3f6e9bbf	0.932064
158	0x3fa55d67	1.2919129
159	0x3f5e2293	0.86771506
160	0x3f98aa45	1.1926962
161	0x3f5c51b4	0.8606217
162	0x3f7625b3	0.96151274
163	0x3f7de808	0.99182177
164	0x3f803dda	1.0018876
165	0x3f7ffcab	0.99994916
166	0x3f802d30	1.001379
167	0x3f8001b9	1.0000526
168	0x3f8008fd	1.0002743
169	0x3f7f8b4f	0.99821943
170	0x3f8011bd	1.0005413
171	0x3f2ffcb8	0.68744993
172	0x3f92193f	1.1413954
173	0x3f20dfb8	0.6284137
174	0x3f808d30	1.0043087
175	0x3f314970	0.6925268
176	0x3f528fcf	0.82250684
177	0x3f8a1506	1.0787666
178	0x3f7ed937	0.99550194
179	0x3f7fe678	0.9996104
180	0x3f7fda81	0.99942786
181	0x3f7f3eff	0.997055
182	0x3f80130f	1.0005816
183	0x3f7fcdba	0.9992329
184	0x3f7fea18	0.99966574
185	0x3f80019e	1.0000494
186	0x3f728345	0.9473155
187	0x3fa988df	1.3244895
188	0x3fd7c5e1	1.6857263
189	0x3f8862f7	1.0655202
190	0x3f394f5a	0.72386706
191	0x3f59c593	0.850671
192	0x3f9b0c19	1.2113067
193	0x3f792010	0.9731455
194	0x3f7dac10	0.9909067
195	0x3f7f8325	0.99809486
196	0x3f807f36	1.0038822
197	0x3f803316	1.001559
198	0x3f8004a3	1.0001415
199	0x3f8001ee	1.0000589
200	0x3f8001a2	1.0000498
201	0x3f7f96f6	0.99839723
202	0x3fc02728	1.501195
203	0x3f925a96	1.1433895
204	0x3f8e5739	1.1120368
205	0x3f714c4b	0.9425704
206	0x3f667468	0.9002137
207	0x3f86c81a	1.0529816
208	0x3f4ddecc	0.80418086
209	0x3f7e0de4	0.99239945
210	0x3f7feec2	0.9997369
211	0x3f804cbe	1.002342
212	0x3f7f8623	0.9981405
213	0x3f802596	1.001147
214	0x3f7ffa78	0.9999156
215	0x3f7ff377	0.9998087
216	0x3f7f32fc	0.9968717
217	0x3f7da346	0.9907726
218	0x3f7fce8b	0.99924535
219	0x3f812243	1.0088581
220	0x3f7c976e	0.98668563
221	0x3f70f6fe	0.9412688
222	0x3f3f9f70	0.7485266
223	0x3ed7d6f6	0.4215619
224	0x3f7d5669	0.98959976

centres f4 [225, 2]
0	0xc0490fdb	-3.1415927
1	0xc0fb53d1	-7.8539815
2	0xc0490fdb	-3.1415927
3	0xc0d76c6a	-6.731984
4	0xc0490fdb	-3.1415927
5	0xc0b38503	-5.609987
6	0xc0490fdb	-3.1415927
7	0xc08f9d9c	-4.4879894
8	0xc0490fdb	-3.1415927
9	0xc0576c6a	-3.365992
10	0xc0490fdb	-3.1415927
11	0xc00f9d9c	-2.2439947
12	0xc0490fdb	-3.1415927
13	0xbf8f9d9c	-1.1219974
14	0xc0490fdb	-3.1415927
15	0x00000000	0.0
16	0xc0490fdb	-3.1415927
17	0x3f8f9d9c	1.1219974
18	0xc0490fdb	-3.1415927
19	0x400f9d9c	2.2439947
20	0xc0490fdb	-3.1415927
21	0x40576c6a	3.365992
22	0xc0490fdb	-3.1415927
23	0x408f9d9c	4.4879894
24	0xc0490fdb	-3.1415927
25	0x40b38503	5.609987
26	0xc0490fdb	-3.1415927
27	0x40d76c6a	6.731984
28	0xc0490fdb	-3.1415927
29	0x40fb53d1	7.8539815
30	0xc02c56bb	-2.6927936
31	0xc0fb53d1	-7.8539815
32	0xc02c56bb	-2.6927936
33	0xc0d76c6a	-6.731984
34	0xc02c56bb	-2.6927936
35	0xc0b38503	-5.609987
36	0xc02c56bb	-2.6927936
37	0xc08f9d9c	-4.4879894
38	0xc02c56bb	-2.6927936
39	0xc0576c6a	-3.365992
40	0xc02c56bb	-2.6927936
41	0xc00f9d9c	-2.2439947
42	0xc02c56bb	-2.6927936
43	0xbf8f9d9c	-1.1219974
44	0xc02c56bb	-2.6927936
45	0x00000000	0.0
46	0xc02c56bb	-2.6927936
47	0x3f8f9d9c	1.1219974
48	0xc02c56bb	-2.6927936
49	0x400f9d9c	2.2439947
50	0xc02c56bb	-2.6927936
51	0x40576c6a	3.365992
52	0xc02c56bb	-2.6927936
53	0x408f9d9c	4.4879894
54	0xc02c56bb	-2.6927936
55	0x40b38503	5.609987
56	0xc02c56bb	-2.6927936
57	0x40d76c6a	6.731984
58	0xc02c56bb	-2.6927936
59	0x40fb53d1	7.8539815
60	0xc00f9d9c	-2.2439947
61	0xc0fb53d1	-7.8539815
62	0xc00f9d9c	-2.2439947
63	0xc0d76c6a	-6.731984
64	0xc00f9d9c	-2.2439947
65	0xc0b38503	-5.609987
66	0xc00f9d9c	-2.2439947
67	0xc08f9d9c	-4.4879894
68	0xc00f9d9c	-2.2439947
69	0xc0576c6a	-3.365992
70	0xc00f9d9c	-2.2439947
71	0xc00f9d9c	-2.2439947
72	0xc00f9d9c	-2.2439947
73	0xbf8f9d9c	-1.1219974
74	0xc00f9d9c	-2.2439947
75	0x00000000	0.0
76	0xc00f9d9c	-2.2439947
77	0x3f8f9d9c	1.1219974
78	0xc00f9d9c	-2.2439947
79	0x400f9d9c	2.2439947
80	0xc00f9d9c	-2.2439947
81	0x40576c6a	3.365992
82	0xc00f9d9c	-2.2439947
83	0x408f9d9c	4.4879894
84	0xc00f9d9c	-2.2439947
85	0x40b38503	5.609987
86	0xc00f9d9c	-2.2439947
87	0x40d76c6a	6.731984
88	0xc00f9d9c	-2.2439947
89	0x40fb53d1	7.8539815
90	0xbfe5c8fa	-1.7951958
91	0xc0fb53d1	-7.8539815
92	0xbfe5c8fa	-1.7951958
93	0xc0d76c6a	-6.731984
94	0xbfe5c8fa	-1.7951958
95	0xc0b38503	-5.609987
96	0xbfe5c8fa	-1.7951958
97	0xc08f9d9c	-4.4879894
98	0xbfe5c8fa	-1.7951958
99	0xc0576c6a	-3.365992
100	0xbfe5c8fa	-1.7951958
101	0xc00f9d9c	-2.2439947
102	0xbfe5c8fa	-1.7951958
103	0xbf8f9d9c	-1.1219974
104	0xbfe5c8fa	-1.7951958
105	0x00000000	0.0
106	0xbfe5c8fa	-1.7951958
107	0x3f8f9d9c	1.1219974
108	0xbfe5c8fa	-1.7951958
109	0x400f9d9c	2.2439947
110	0xbfe5c8fa	-1.7951958
111	0x40576c6a	3.365992
112	0xbfe5c8fa	-1.7951958
113	0x408f9d9c	4.4879894
114	0xbfe5c8fa	-1.7951958
115	0x40b38503	5.609987
116	0xbfe5c8fa	-1.7951958
117	0x40d76c6a	6.731984
118	0xbfe5c8fa	-1.7951958
119	0x40fb53d1	7.8539815
120	0xbfac56bb	-1.3463968
121	0xc0fb53d1	-7.8539815
122	0xbfac56bb	-1.3463968
123	0xc0d76c6a	-6.731984
124	0xbfac56bb	-1.3463968
125	0xc0b38503	-5.609987
126	0xbfac56bb	-1.3463968
127	0xc08f9d9c	-4.4879894
128	0xbfac56bb	-1.3463968
129	0xc0576c6a	-3.365992
130	0xbfac56bb	-1.3463968
131	0xc00f9d9c	-2.2439947
132	0xbfac56bb	-1.3463968
133	0xbf8f9d9c	-1.1219974
134	0xbfac56bb	-1.3463968
135	0x00000000	0.0
136	0xbfac56bb	-1.3463968
137	0x3f8f9d9c	1.1219974
138	0xbfac56bb	-1.3463968
139	0x400f9d9c	2.2439947
140	0xbfac56bb	-1.3463968
141	0x40576c6a	3.365992
142	0xbfac56bb	-1.3463968
143	0x408f9d9c	4.4879894
144	0xbfac56bb	-1.3463968
145	0x40b38503	5.609987
146	0xbfac56bb	-1.3463968
147	0x40d76c6a	6.731984
148	0xbfac56bb	-1.3463968
149	0x40fb53d1	7.8539815
150	0xbf65c8fa	-0.8975979
151	0xc0fb53d1	-7.8539815
152	0xbf65c8fa	-0.8975979
153	0xc0d76c6a	-6.731984
154	0xbf65c8fa	-0.8975979
155	0xc0b38503	-5.609987
156	0xbf65c8fa	-0.8975979
157	0xc08f9d9c	-4.4879894
158	0xbf65c8fa	-0.8975979
159	0xc0576c6a	-3.365992
160	0xbf65c8fa	-0.8975979
161	0xc00f9d9c	-2.2439947
162	0xbf65c8fa	-0.8975979
163	0xbf8f9d9c	-1.1219974
164	0xbf65c8fa	-0.8975979
165	0x00000000	0.0
166	0xbf65c8fa	-0.8975979
167	0x3f8f9d9c	1.1219974
168	0xbf65c8fa	-0.8975979
169	0x400f9d9c	2.2439947
170	0xbf65c8fa	-0.8975979
171	0x40576c6a	3.365992
172	0xbf65c8fa	-0.8975979
173	0x408f9d9c	4.4879894
174	0xbf65c8fa	-0.8975979
175	0x40b38503	5.609987
176	0xbf65c8fa	-0.8975979
177	0x40d76c6a	6.731984
178	0xbf65c8fa	-0.8975979
179	0x40fb53d1	7.8539815
180	0xbee5c8fa	-0.44879895
181	0xc0fb53d1	-7.8539815
182	0xbee5c8fa	-0.44879895
183	0xc0d76c6a	-6.731984
184	0xbee5c8fa	-0.44879895
185	0xc0b38503	-5.609987
186	0xbee5c8fa	-0.44879895
187	0xc08f9d9c	-4.4879894
188	0xbee5c8fa	-0.44879895
189	0xc0576c6a	-3.365992
190	0xbee5c8fa	-0.44879895
191	0xc00f9d9c	-2.2439947
192	0xbee5c8fa	-0.44879895
193	0xbf8f9d9c	-1.1219974
194	0xbee5c8fa	-0.44879895
195	0x00000000	0.0
196	0xbee5c8fa	-0.44879895
197	0x3f8f9d9c	1.1219974
198	0xbee5c8fa	-0.44879895
199	0x400f9d9c	2.2439947
200	0xbee5c8fa	-0.44879895
201	0x40576c6a	3.365992
202	0xbee5c8fa	-0.44879895
203	0x408f9d9c	4.4879894
204	0xbee5c8fa	-0.44879895
205	0x40b38503	5.609987
206	0xbee5c8fa	-0.44879895
207	0x40d76c6a	6.731984
208	0xbee5c8fa	-0.44879895
209	0x40fb53d1	7.8539815
210	0x00000000	0.0
211	0xc0fb53d1	-7.8539815
212	0x00000000	0.0
213	0xc0d76c6a	-6.731984
214	0x00000000	0.0
215	0xc0b38503	-5.609987
216	0x00000000	0.0
217	0xc08f9d9c	-4.4879894
218	0x00000000	0.0
219	0xc0576c6a	-3.365992
220	0x00000000	0.0
221	0xc00f9d9c	-2.2439947
222	0x00000000	0.0
223	0xbf8f9d9c	-1.1219974
224	0x00000000	0.0
225	0x00000000	0.0
226	0x00000000	0.0
227	0x3f8f9d9c	1.1219974
228	0x00000000	0.0
229	0x400f9d9c	2.2439947
230	0x00000000	0.0
231	0x40576c6a	3.365992
232	0x00000000	0.0
233	0x408f9d9c	4.4879894
234	0x00000000	0.0
235	0x40b38503	5.609987
236	0x00000000	0.0
237	0x40d76c6a	6.731984
238	0x00000000	0.0
239	0x40fb53d1	7.8539815
240	0x3ee5c8fa	0.44879895
241	0xc0fb53d1	-7.8539815
242	0x3ee5c8fa	0.44879895
243	0xc0d76c6a	-6.731984
244	0x3ee5c8fa	0.44879895
245	0xc0b38503	-5.609987
246	0x3ee5c8fa	0.44879895
247	0xc08f9d9c	-4.4879894
248	0x3ee5c8fa	0.44879895
249	0xc0576c6a	-3.365992
250	0x3ee5c8fa	0.44879895
251	0xc00f9d9c	-2.2439947
252	0x3ee5c8fa	0.44879895
253	0xbf8f9d9c	-1.1219974
254	0x3ee5c8fa	0.44879895
255	0x00000000	0.0

weight f4 [1, 225]
0	0xbc9b86c2	-0.018985156
1	0x3c6eb204	0.014568809
2	0xbbc305b0	-0.0059516057
3	0x3c525dd9	0.012839758
4	0xbcae8c5d	-0.021307165
5	0xbc64ad36	-0.013957312
6	0x3d76c1f1	0.06024355
7	0x3caad175	0.02085183
8	0xbcbdcf86	-0.023170244
9	0x3c190a20	0.009340793
10	0xbd7f8821	-0.062385682
11	0xbde01f47	-0.10943466
12	0xbe7a0b11	-0.24418284
13	0x3eb2d092	0.34924752
14	0xbd20bd9f	-0.039243337
15	0xbd3a6115	-0.04550274
16	0xbc8574d9	-0.016291069
17	0xbc1c1a48	-0.00952775
18	0x3df0e45b	0.11762305
19	0x3e39c565	0.18141706
20	0x3dbed554	0.09318033
21	0x3d3f5578	0.04671237
22	0xbef4cdaf	-0.47813174
23	0x3c38de57	0.011283479
24	0xbd387b81	-0.045039658
25	0x3d86441d	0.0655596
26	0x3b2a78f5	0.0026012037
27	0xbf09c0aa	-0.5380961
28	0xbe1b0727	-0.15139447
29	0x3d4363b1	0.047702495
30	0xbc9f1040	-0.019416928
31	0xbdba2711	-0.090894826
32	0x3d5fb57d	0.05461644
33	0x3e5a2780	0.2130413
34	0x3e99c6e0	0.30034542
35	0x3e303aea	0.17209974
36	0x3e1b95d3	0.15193872
37	0xbf409a6d	-0.75235635
38	0x3db0abfe	0.08626555
39	0x3d5d6d8c	0.05405955
40	0x3c0bccb3	0.008532691
41	0xbca8138c	-0.020517133
42	0xbf0fcbec	-0.56170535
43	0xbe98bbff	-0.2983093
44	0x3ccf341f	0.025293408
45	0x3d30c8a2	0.04316009
46	0xbd9ff376	-0.07810108
47	0x3d4f29d2	0.050576992
48	0x3e324517	0.17409168
49	0x3eeefad9	0.46675757
50	0xbc5f6330	-0.013634488
51	0x3ecbba2f	0.39790484
52	0xbf3b29a4	-0.73110414
53	0x3ea2d146	0.31800288
54	0xbd13bcce	-0.03606873
55	0x3cd39660	0.02582854
56	0xbd7635cf	-0.06010991
57	0xbee22ddf	-0.44175622
58	0xbe1e1be7	-0.15440331
59	0x3d54c1af	0.051942524
60	0xbd28defa	-0.041228272
61	0x3c5bab9a	0.013407612
62	0xbbf36ebe	-0.007428973
63	0x3d96a0b2	0.07354869
64	0x3e0be244	0.13660532
65	0xbe539c2d	-0.20665045
66	0x3f30d068	0.69068
67	0xbf2380c0	-0.6386833
68	0x3ea10aea	0.3145364
69	0xbdd3ecdc	-0.10347912
70	0x3c278100	0.010223627
71	0xbcb04645	-0.021517882
72	0xbdc6e875	-0.097123064
73	0xbd02a9dd	-0.031900275
74	0x3d705f45	0.058684606
75	0x3c4a44ad	0.012345475
76	0xbb1f32af	-0.0024291684
77	0xbd619390	-0.055072367
78	0x3dc85a19	0.0978281
79	0xbf1f42b2	-0.62211144
80	0x3e30305c	0.17205948
81	0x3ef1ca30	0.4722457
82	0xbedc82a5	-0.43068424
83	0x3e2aa205	0.16663368
84	0xbe81a5ee	-0.25321907
85	0xbe322cf8	-0.17399967
86	0xbd4a9e9d	-0.04946767
87	0xbd8e0219	-0.06933994
88	0x3c0c2121	0.00855282
89	0xbd4a4c55	-0.049389202
90	0x3d72149d	0.05910169
91	0x3cc473bd	0.02398097
92	0x3ab08098	0.0013466058
93	0xbb609dfd	-0.0034273856
94	0xbf5b5131	-0.85670763
95	0xbe2a0d62	-0.16606668
96	0xc0008762	-2.008263
97	0xbf403f87	-0.75096935
98	0xbef7e098	-0.4841354
99	0x3e1bbe04	0.15209204
100	0xbea19246	-0.3155691
101	0xbb9b7ccf	-0.004745103
102	0x3ce5e7ad	0.028064573
103	0x3c913814	0.017726935
104	0xbd30681a	-0.04306803
105	0x3c52f4d8	0.012875758
106	0xbba2b296	-0.0049651368
107	0x3d52836d	0.05139487
108	0xbcb84786	-0.022495043
109	0xbf10e0e7	-0.56593174
110	0xbe130821	-0.1435857
111	0xbf54a4ad	-0.83063775
112	0x40aabfe6	5.335925
113	0x3c3ed645	0.0116477655
114	0x3f337a2a	0.7010828
115	0xbf1e8288	-0.61917925
116	0xbd794325	-0.06085505
117	0x3d2af93b	0.04174159
118	0x3c854adf	0.016271053
119	0x3d319418	0.043354124
120	0xbc46a6a4	-0.012124691
121	0xbc911fca	-0.017715354
122	0x3cef7b85	0.029233703
123	0x3cf5fdd4	0.030028261
124	0xbe59d34e	-0.21272013
125	0xbebdd20a	-0.3707431
126	0xbea9d858	-0.3317287
127	0xbf6106bb	-0.87900895
128	0xbfe216a5	-1.766316
129	0xbf10f996	-0.5663084
130	0xbf3e454a	-0.74324477
131	0xbb910293	-0.0044253557
132	0xbd59b067	-0.053146746
133	0x3d285e47	0.041105535
134	0xbd6ee9c2	-0.058328398
135	0xbcfb8025	-0.030700753
136	0xbcf74f5a	-0.030189205
137	0xbd0b2641	-0.03397203
138	0x3d657e77	0.05602881
139	0xbdb6669b	-0.08906289
140	0xbea1ed28	-0.31626248
141	0xbe125af4	-0.14292508
142	0xbf94bb58	-1.1619673
143	0x3f1969d9	0.59927136
144	0xbf398084	-0.72461724
145	0xbf62139a	-0.8831116
146	0xbd64c36d	-0.055850435
147	0xbdb654ba	-0.08902879
148	0x3c93c2dc	0.018037252
149	0xbd4aba11	-0.049493853
150	0xbc98757a	-0.018610705
151	0xbd02fb9d	-0.03197824
152	0x3c5e33b4	0.013562132
153	0x3d64aa6d	0.055826593
154	0xbd52c451	-0.051456753
155	0xbc72b1fc	-0.014812943
156	0xbe21778f	-0.15768264
157	0xbf588cfd	-0.8459013
158	0xbf8f7b8d	-1.120958
159	0x3f4f07cd	0.8087128
160	0xbef9d4c3	-0.48795137
161	0xbb6a09b8	-0.003571136
162	0xbd52f814	-0.051506117
163	0xbd32689a	-0.043556787
164	0xbd500d51	-0.05079395
165	0x3b58da5c	0.0033089137
166	0xbd1d0946	-0.038338922
167	0xbc881990	-0.016613752
168	0xbcc6c070	-0.024261683
169	0x3d4725dc	0.04862009
170	0xbd1589aa	-0.03650824
171	0xbe69f1d9	-0.22846164
172	0xbf788565	-0.97078544
173	0x3eed92db	0.46401104
174	0x3f02a576	0.51033723
175	0x3dc3f931	0.09569014
176	0xbd3cc8b7	-0.046089854
177	0xbe4fa217	-0.20276676
178	0xbe4c5aed	-0.1995656
179	0xbc66c445	-0.01408488
180	0x3cc47346	0.023980748
181	0x3c260a00	0.01013422
182	0xbd1d23f3	-0.038364362
183	0x3c8a706e	0.016899314
184	0x3d836b1a	0.064169124
185	0x3baeb64a	0.005331789
186	0xbdf5110f	-0.11966144
187	0xbf7d08b5	-0.9884141
188	0xbf5fb078	-0.87378645
189	0x3ebce15d	0.3689069
190	0x3ea5f75d	0.32415286
191	0xbb117ab6	-0.0022198386
192	0xbe965dcd	-0.2936844
193	0xbe6c4f6d	-0.23077174
194	0x3d4eb72e	0.050467663
195	0x3d731053	0.05934174
196	0xbdcfa5f4	-0.10139075
197	0xbda46da8	-0.08028728
198	0xbc8520ee	-0.016251054
199	0xbd0ae7d8	-0.03391251
200	0x3d21c648	0.039495736
201	0xbc1d63e1	-0.0096063325
202	0xbf64d777	-0.89391273
203	0xbe0ece04	-0.13945776
204	0x3e61ac61	0.22038414
205	0x3e231fe8	0.1593014
206	0x3da09b40	0.078421116
207	0xbea177eb	-0.31536803
208	0xbe084a3e	-0.13309571
209	0xbc91c274	-0.017792918
210	0x3b80cbb2	0.0039305324
211	0xbdbce0fc	-0.092226
212	0xbd884064	-0.066529065
213	0xbd183e56	-0.037168823
214	0x3d2d8c24	0.042369977
215	0x3d3eaac4	0.046549574
216	0x3d3e7aa4	0.046503678
217	0xbbe8d62e	-0.0071056103
218	0x3b7167f8	0.0036835652
219	0x3d2847d6	0.041084133
220	0xbc04294e	-0.008066488
221	0x3c4f9b87	0.012671358
222	0xbe822b28	-0.2542355
223	0x3e784b15	0.24247392
224	0x3c7bd938	0.015371613
