Models/RBF1/model.pt (torch_old, 10071 bytes, 3 tensors)

sigmas f4 [225]
000000 35 af 80 3f e8 dc 80 3f 51 e4 7f 3f cd e1 7f 3f
       1.0053469 1.0067415 0.9995776 0.9995392
000010 a2 22 80 3f be 27 80 3f 80 00 80 3f 6a 97 7f 3f
       1.0010569 1.0012128 1.0000153 0.99840415
000020 0e 3e 80 3f 63 23 80 3f 44 b4 7f 3f 61 80 81 3f
       1.0018938 1.0010799 0.9988444 1.0117303
000030 e7 4b 76 3f 2d c9 81 3f 46 fd 7f 3f 47 00 82 3f
       0.9620957 1.0139519 0.9999584 1.0156335
000040 e3 40 80 3f 7d 72 80 3f 38 cc 7e 3f e7 9c 7e 3f
       1.0019802 1.0034939 0.99530363 0.99458164
000050 b7 46 80 3f b8 ca 7d 3f a2 f1 7e 3f e7 6d 7e 3f
       1.002158 0.9913745 0.9958745 0.9938645
000060 4c e6 7f 3f 91 85 7e 3f a5 0c 81 3f 24 77 7d 3f
       0.9996078 0.99422556 1.0081984 0.9900992
000070 de 72 82 3f 39 83 7e 3f 6b 53 7e 3f 98 a7 7e 3f
       1.0191305 0.9941898 0.99346036 0.9947448
000080 93 17 7f 3f 69 5b 7e 3f 00 eb 79 3f 55 e1 81 3f
       0.99645346 0.9935823 0.97624207 1.0146891
000090 81 e6 7e 3f b2 93 7e 3f 1c e1 7b 3f ea 0a 7d 3f
       0.9957047 0.99444115 0.98390365 0.9884478
0000a0 ac 94 7f 3f 7f dd 80 3f 96 25 81 3f 25 df 7e 3f
       0.9983623 1.0067595 1.0089595 0.9955924
0000b0 5e 16 7c 3f 21 d7 7e 3f 74 4d 80 3f 61 f0 7e 3f
       0.9847163 0.9954701 1.0023637 0.9958554
0000c0 8e de 7f 3f 93 49 79 3f b4 eb 7e 3f f0 67 7a 3f
       0.99948967 0.9737789 0.99578404 0.97814846
0000d0 70 d1 6f 3f 53 48 7a 3f 4e 27 7a 3f 85 82 7e 3f
       0.9367895 0.9776661 0.97716224 0.99417907
0000e0 46 d0 7f 3f 6b 6b 7f 3f 2e 4e 7f 3f 82 fb 7d 3f
       0.99927175 0.9977328 0.9972867 0.99211895
0000f0 aa 44 7f 3f b4 31 7f 3f fc 70 80 3f ae bf 80 3f
       0.9971415 0.99685216 1.003448 1.0058496
000100 01 6f 7f 3f d6 6e 7d 3f 99 48 62 3f 46 a9 5c 3f
       0.99778754 0.9899725 0.88392025 0.8619579
000110 46 c6 7b 3f 5b 0d 81 3f bf 1c 7d 3f f4 7e 7f 3f
       0.98349416 1.0082201 0.9887199 0.9980309
000120 d9 01 80 3f 7b c6 7f 3f 1a 8d 81 3f be 1e 80 3f
       1.0000564 0.9991223 1.0121186 1.0009382
000130 cd 09 80 3f e2 85 80 3f 7f 62 7f 3f 8d ef 7f 3f
       1.0002991 1.0040858 0.9975967 0.999749
000140 28 bf 7e 3f 74 4d 80 3f 4f 83 db 3e 39 e4 5d 3f
       0.9951043 1.0023637 0.42873618 0.86676365
000150 c7 79 7e 3f 37 3a 7f 3f df 0e 80 3f 97 e4 7f 3f
       0.9940457 0.99698204 1.0004538 0.99958175
000160 4b 43 80 3f 23 53 85 3f 65 d6 7f 3f 03 0f 80 3f
       1.0020536 1.0415996 0.99936515 1.0004581
000170 3a 0c 81 3f d4 df 80 3f 27 b6 80 3f ff 44 82 3f
       1.0081856 1.0068307 1.0055588 1.0177306
000180 ef 9b 57 3f 1f e8 e3 3e 44 14 3c 3f 8e 47 7d 3f
       0.8422231 0.44513032 0.7346842 0.9893731
000190 9b 8c 7f 3f f8 09 80 3f ec ce 7f 3f 5f 70 80 3f
       0.9982392 1.0003042 0.9992511 1.0034293
0001a0 51 5b 82 3f 33 10 80 3f 19 9a 7f 3f 1a a3 7e 3f
       1.0184118 1.0004944 0.9984451 0.99467623
0001b0 44 41 7f 3f fc 46 7f 3f a3 75 81 3f a0 86 37 3f
       0.9970896 0.9971769 1.0114025 0.71689796
0001c0 da 64 c0 3e 27 9d 22 3f 12 14 7f 3f da 9c 7f 3f
       0.37576944 0.63521045 0.9964 0.9984871
0001d0 cd 98 7f 3f 37 76 7f 3f d9 be 80 3f 60 ce 80 3f
       0.9984253 0.99789757 1.0058242 1.0062981
0001e0 02 40 80 3f 53 45 7f 3f a1 56 78 3f 3e 02 81 3f
       1.0019534 0.99715155 0.97007185 1.0078809
0001f0 56 b5 7c 3f 7c ff 7e 3f 40 d2 40 3f 2b 91 ef 3e
       0.98714197 0.9960859 0.75320816 0.46790442
000200 8d 61 36 3f a9 75 82 3f 11 b6 7f 3f 03 7d 80 3f
       0.712426 1.0192157 0.99887186 1.003815
000210 92 45 7f 3f f2 31 7e 3f e3 18 7e 3f 67 6a 80 3f
       0.9971553 0.9929496 0.99256724 1.0032471
000220 6c b8 79 3f 5b 29 82 3f fa bd 81 3f 74 f9 7d 3f
       0.9754703 1.0168871 1.0136101 0.9920876
000230 3a 71 7f 3f 2f 15 5e 3f 1d 51 c2 3e 3f 92 3a 3f
       0.99782145 0.86751074 0.3795251 0.72879404
000240 35 4e 85 3f c4 ad 80 3f a6 bf 7f 3f 6b 39 80 3f
       1.0414492 1.0053029 0.9990181 1.0017523
000250 5e e1 7e 3f 9e 77 7f 3f 5d 83 7e 3f ed 94 7b 3f
       0.99562633 0.99791896 0.99419194 0.9827412
000260 fb ad 84 3f 18 c4 80 3f 7d 5a 7f 3f 22 dd 7f 3f
       1.0365595 1.0059843 0.9974745 0.99946797
000270 53 0c 71 3f 1e c8 13 3f b1 e2 55 3f 8b f1 80 3f
       0.9415943 0.5772723 0.8354903 1.0073713
000280 78 04 83 3f f6 7b 7e 3f 96 46 80 3f 55 cd 80 3f
       1.0235739 0.994079 1.0021541 1.0062662
000290 b2 e3 7e 3f 3a be 75 3f 79 2c 81 3f 5d 5a 81 3f
       0.99566185 0.9599339 1.0091697 1.0105702
0002a0 7a b0 7e 3f 21 eb 7f 3f cd 9f 7f 3f ce fd 7f 3f
       0.9948803 0.99968153 0.9985321 0.9999665
0002b0 8e 2d 62 3f 0e 19 77 3f 62 64 7e 3f 30 07 81 3f
       0.8835076 0.96522605 0.9937192 1.0080318
0002c0 ac 11 7c 3f 4b 08 80 3f 07 ee 80 3f 1d ee 7f 3f
       0.98464465 1.0002531 1.007264 0.9997271
0002d0 0c 83 7a 3f 6d 61 81 3f 4d 96 80 3f 58 52 80 3f
       0.9785621 1.0107857 1.0045868 1.0025129
0002e0 2e 6c 80 3f db e0 7f 3f cd 3e 81 3f ca 9d 80 3f
       1.0033014 0.9995248 1.009729 1.0048153
0002f0 56 87 7f 3f 17 6d 7e 3f 05 79 80 3f bf b0 81 3f
       0.9981588 0.9938521 1.0036932 1.0132064
000300 4a f5 80 3f 0c e7 7f 3f 64 98 7f 3f 12 d0 69 3f
       1.0074856 0.99961925 0.99841905 0.91333115
000310 34 c1 7b 3f e5 64 81 3f 8b 49 80 3f 0c a4 80 3f
       0.9834168 1.0108916 1.0022444 1.0050063
000320 ed 2a 80 3f c3 60 7f 3f 20 5d 80 3f 40 27 7f 3f
       1.00131 0.9975702 1.002842 0.99669266
000330 cb 59 7f 3f 8c 39 80 3f a0 e4 7f 3f 6b 03 81 3f
       0.9974639 1.0017562 0.9995823 1.0079168
000340 22 c3 81 3f f5 e7 80 3f 29 b8 88 3f 94 4b 7e 3f
       1.0137675 1.0070788 1.0681201 0.99334073
000350 1f 87 7e 3f 0a 1f 80 3f 52 e8 7f 3f 76 d7 7f 3f
       0.9942493 1.0009472 0.9996387 0.9993814
000360 11 ee 7f 3f 94 e9 7f 3f f9 e8 7f 3f b6 98 7f 3f
       0.99972636 0.99965787 0.99964863 0.99842393
000370 f6 ca 7f 3f ba 30 81 3f 17 6c 7d 3f 1c c8 81 3f
       0.9991907 1.0092995 0.98993057 1.0139194
000380 92 68 81 3f
       1.0110037

centres f4 [225, 2]
000000 db 0f 49 c0 d1 53 fb c0 db 0f 49 c0 6a 6c d7 c0
       -3.1415927 -7.8539815 -3.1415927 -6.731984
000010 db 0f 49 c0 03 85 b3 c0 db 0f 49 c0 9c 9d 8f c0
       -3.1415927 -5.609987 -3.1415927 -4.4879894
000020 db 0f 49 c0 6a 6c 57 c0 db 0f 49 c0 9c 9d 0f c0
       -3.1415927 -3.365992 -3.1415927 -2.2439947
000030 db 0f 49 c0 9c 9d 8f bf db 0f 49 c0 00 00 00 00
       -3.1415927 -1.1219974 -3.1415927 0.0
000040 db 0f 49 c0 9c 9d 8f 3f db 0f 49 c0 9c 9d 0f 40
       -3.1415927 1.1219974 -3.1415927 2.2439947
000050 db 0f 49 c0 6a 6c 57 40 db 0f 49 c0 9c 9d 8f 40
       -3.1415927 3.365992 -3.1415927 4.4879894
000060 db 0f 49 c0 03 85 b3 40 db 0f 49 c0 6a 6c d7 40
       -3.1415927 5.609987 -3.1415927 6.731984
000070 db 0f 49 c0 d1 53 fb 40 bb 56 2c c0 d1 53 fb c0
       -3.1415927 7.8539815 -2.6927936 -7.8539815
000080 bb 56 2c c0 6a 6c d7 c0 bb 56 2c c0 03 85 b3 c0
       -2.6927936 -6.731984 -2.6927936 -5.609987
000090 bb 56 2c c0 9c 9d 8f c0 bb 56 2c c0 6a 6c 57 c0
       -2.6927936 -4.4879894 -2.6927936 -3.365992
0000a0 bb 56 2c c0 9c 9d 0f c0 bb 56 2c c0 9c 9d 8f bf
       -2.6927936 -2.2439947 -2.6927936 -1.1219974
0000b0 bb 56 2c c0 00 00 00 00 bb 56 2c c0 9c 9d 8f 3f
       -2.6927936 0.0 -2.6927936 1.1219974
0000c0 bb 56 2c c0 9c 9d 0f 40 bb 56 2c c0 6a 6c 57 40
       -2.6927936 2.2439947 -2.6927936 3.365992
0000d0 bb 56 2c c0 9c 9d 8f 40 bb 56 2c c0 03 85 b3 40
       -2.6927936 4.4879894 -2.6927936 5.609987
0000e0 bb 56 2c c0 6a 6c d7 40 bb 56 2c c0 d1 53 fb 40
       -2.6927936 6.731984 -2.6927936 7.8539815
0000f0 9c 9d 0f c0 d1 53 fb c0 9c 9d 0f c0 6a 6c d7 c0
       -2.2439947 -7.8539815 -2.2439947 -6.731984
000100 9c 9d 0f c0 03 85 b3 c0 9c 9d 0f c0 9c 9d 8f c0
       -2.2439947 -5.609987 -2.2439947 -4.4879894
000110 9c 9d 0f c0 6a 6c 57 c0 9c 9d 0f c0 9c 9d 0f c0
       -2.2439947 -3.365992 -2.2439947 -2.2439947
000120 9c 9d 0f c0 9c 9d 8f bf 9c 9d 0f c0 00 00 00 00
       -2.2439947 -1.1219974 -2.2439947 0.0
000130 9c 9d 0f c0 9c 9d 8f 3f 9c 9d 0f c0 9c 9d 0f 40
       -2.2439947 1.1219974 -2.2439947 2.2439947
000140 9c 9d 0f c0 6a 6c 57 40 9c 9d 0f c0 9c 9d 8f 40
       -2.2439947 3.365992 -2.2439947 4.4879894
000150 9c 9d 0f c0 03 85 b3 40 9c 9d 0f c0 6a 6c d7 40
       -2.2439947 5.609987 -2.2439947 6.731984
000160 9c 9d 0f c0 d1 53 fb 40 fa c8 e5 bf d1 53 fb c0
       -2.2439947 7.8539815 -1.7951958 -7.8539815
000170 fa c8 e5 bf 6a 6c d7 c0 fa c8 e5 bf 03 85 b3 c0
       -1.7951958 -6.731984 -1.7951958 -5.609987
000180 fa c8 e5 bf 9c 9d 8f c0 fa c8 e5 bf 6a 6c 57 c0
       -1.7951958 -4.4879894 -1.7951958 -3.365992
000190 fa c8 e5 bf 9c 9d 0f c0 fa c8 e5 bf 9c 9d 8f bf
       -1.7951958 -2.2439947 -1.7951958 -1.1219974
0001a0 fa c8 e5 bf 00 00 00 00 fa c8 e5 bf 9c 9d 8f 3f
       -1.7951958 0.0 -1.7951958 1.1219974
0001b0 fa c8 e5 bf 9c 9d 0f 40 fa c8 e5 bf 6a 6c 57 40
       -1.7951958 2.2439947 -1.7951958 3.365992
0001c0 fa c8 e5 bf 9c 9d 8f 40 fa c8 e5 bf 03 85 b3 40
       -1.7951958 4.4879894 -1.7951958 5.609987
0001d0 fa c8 e5 bf 6a 6c d7 40 fa c8 e5 bf d1 53 fb 40
       -1.7951958 6.731984 -1.7951958 7.8539815
0001e0 bb 56 ac bf d1 53 fb c0 bb 56 ac bf 6a 6c d7 c0
       -1.3463968 -7.8539815 -1.3463968 -6.731984
0001f0 bb 56 ac bf 03 85 b3 c0 bb 56 ac bf 9c 9d 8f c0
       -1.3463968 -5.609987 -1.3463968 -4.4879894
000200 bb 56 ac bf 6a 6c 57 c0 bb 56 ac bf 9c 9d 0f c0
       -1.3463968 -3.365992 -1.3463968 -2.2439947
000210 bb 56 ac bf 9c 9d 8f bf bb 56 ac bf 00 00 00 00
       -1.3463968 -1.1219974 -1.3463968 0.0
000220 bb 56 ac bf 9c 9d 8f 3f bb 56 ac bf 9c 9d 0f 40
       -1.3463968 1.1219974 -1.3463968 2.2439947
000230 bb 56 ac bf 6a 6c 57 40 bb 56 ac bf 9c 9d 8f 40
       -1.3463968 3.365992 -1.3463968 4.4879894
000240 bb 56 ac bf 03 85 b3 40 bb 56 ac bf 6a 6c d7 40
       -1.3463968 5.609987 -1.3463968 6.731984
000250 bb 56 ac bf d1 53 fb 40 fa c8 65 bf d1 53 fb c0
       -1.3463968 7.8539815 -0.8975979 -7.8539815
000260 fa c8 65 bf 6a 6c d7 c0 fa c8 65 bf 03 85 b3 c0
       -0.8975979 -6.731984 -0.8975979 -5.609987
000270 fa c8 65 bf 9c 9d 8f c0 fa c8 65 bf 6a 6c 57 c0
       -0.8975979 -4.4879894 -0.8975979 -3.365992
000280 fa c8 65 bf 9c 9d 0f c0 fa c8 65 bf 9c 9d 8f bf
       -0.8975979 -2.2439947 -0.8975979 -1.1219974
000290 fa c8 65 bf 00 00 00 00 fa c8 65 bf 9c 9d 8f 3f
       -0.8975979 0.0 -0.8975979 1.1219974
0002a0 fa c8 65 bf 9c 9d 0f 40 fa c8 65 bf 6a 6c 57 40
       -0.8975979 2.2439947 -0.8975979 3.365992
0002b0 fa c8 65 bf 9c 9d 8f 40 fa c8 65 bf 03 85 b3 40
       -0.8975979 4.4879894 -0.8975979 5.609987
0002c0 fa c8 65 bf 6a 6c d7 40 fa c8 65 bf d1 53 fb 40
       -0.8975979 6.731984 -0.8975979 7.8539815
0002d0 fa c8 e5 be d1 53 fb c0 fa c8 e5 be 6a 6c d7 c0
       -0.44879895 -7.8539815 -0.44879895 -6.731984
0002e0 fa c8 e5 be 03 85 b3 c0 fa c8 e5 be 9c 9d 8f c0
       -0.44879895 -5.609987 -0.44879895 -4.4879894
0002f0 fa c8 e5 be 6a 6c 57 c0 fa c8 e5 be 9c 9d 0f c0
       -0.44879895 -3.365992 -0.44879895 -2.2439947
000300 fa c8 e5 be 9c 9d 8f bf fa c8 e5 be 00 00 00 00
       -0.44879895 -1.1219974 -0.44879895 0.0
000310 fa c8 e5 be 9c 9d 8f 3f fa c8 e5 be 9c 9d 0f 40
       -0.44879895 1.1219974 -0.44879895 2.2439947
000320 fa c8 e5 be 6a 6c 57 40 fa c8 e5 be 9c 9d 8f 40
       -0.44879895 3.365992 -0.44879895 4.4879894
000330 fa c8 e5 be 03 85 b3 40 fa c8 e5 be 6a 6c d7 40
       -0.44879895 5.609987 -0.44879895 6.731984
000340 fa c8 e5 be d1 53 fb 40 00 00 00 00 d1 53 fb c0
       -0.44879895 7.8539815 0.0 -7.8539815
000350 00 00 00 00 6a 6c d7 c0 00 00 00 00 03 85 b3 c0
       0.0 -6.731984 0.0 -5.609987
000360 00 00 00 00 9c 9d 8f c0 00 00 00 00 6a 6c 57 c0
       0.0 -4.4879894 0.0 -3.365992
000370 00 00 00 00 9c 9d 0f c0 00 00 00 00 9c 9d 8f bf
       0.0 -2.2439947 0.0 -1.1219974
000380 00 00 00 00 00 00 00 00 00 00 00 00 9c 9d 8f 3f
       0.0 0.0 0.0 1.1219974
000390 00 00 00 00 9c 9d 0f 40 00 00 00 00 6a 6c 57 40
       0.0 2.2439947 0.0 3.365992
0003a0 00 00 00 00 9c 9d 8f 40 00 00 00 00 03 85 b3 40
       0.0 4.4879894 0.0 5.609987
0003b0 00 00 00 00 6a 6c d7 40 00 00 00 00 d1 53 fb 40
       0.0 6.731984 0.0 7.8539815
0003c0 fa c8 e5 3e d1 53 fb c0 fa c8 e5 3e 6a 6c d7 c0
       0.44879895 -7.8539815 0.44879895 -6.731984
0003d0 fa c8 e5 3e 03 85 b3 c0 fa c8 e5 3e 9c 9d 8f c0
       0.44879895 -5.609987 0.44879895 -4.4879894
0003e0 fa c8 e5 3e 6a 6c 57 c0 fa c8 e5 3e 9c 9d 0f c0
       0.44879895 -3.365992 0.44879895 -2.2439947
0003f0 fa c8 e5 3e 9c 9d 8f bf fa c8 e5 3e 00 00 00 00
       0.44879895 -1.1219974 0.44879895 0.0

weight f4 [1, 225]
000000 b5 68 30 3e 91 f4 d2 3d d6 2a 1d bc 59 29 79 bd
       0.17227443 0.103005536 -0.009592732 -0.060830448
000010 4c 7b 26 bd 6c 77 33 bd 81 b2 43 3d 19 59 6b bd
       -0.04064493 -0.04381506 0.047777656 -0.057458017
000020 a9 b1 43 bd a7 87 63 bd f8 eb 83 bd 94 9d b4 bd
       -0.04777685 -0.05554929 -0.06441492 -0.08819118
000030 73 6a 8e be a2 d0 c0 bd 0e 57 6a bd ed 87 7b bb
       -0.2781559 -0.094147936 -0.057211928 -0.0038380579
000040 d2 51 41 3d 74 4d da bc 19 84 87 bd e0 64 18 bd
       0.04719717 -0.02664826 -0.066169925 -0.037205577
000050 23 16 60 bc 0e f1 78 bd 77 f3 69 bc ee be bd 3c
       -0.013677153 -0.060776763 -0.014279238 0.023162331
000060 4a af d4 bd 8b b2 ce bd 91 3f 88 bc de 43 d4 bd
       -0.10384996 -0.10092648 -0.016631873 -0.10364507
000070 05 9d 02 be be b6 a7 bd ad 7b b6 bd ce 83 a9 3c
       -0.1275521 -0.08189152 -0.08910308 0.020692732
000080 31 a2 23 bc 9b 87 a5 bd 1e ee d0 bd 57 ee 24 bd
       -0.0099874 -0.08082505 -0.10201667 -0.04026636
000090 5b 92 49 3c 4c 7c 24 3d 07 07 c1 3c ea bc 97 bd
       0.01230296 0.0401576 0.023562921 -0.074090794
0000a0 a8 e4 79 bd 42 54 36 bd 9b ce 95 bd 8d 75 80 3c
       -0.06100908 -0.04451395 -0.073147975 0.015681053
0000b0 91 98 99 bd 93 95 81 bc 87 05 da bc 3d 45 24 3c
       -0.07499803 -0.015818393 -0.026613964 0.010026273
0000c0 88 39 a8 3c 80 99 af bd 0c a3 74 3c ec 57 ac 3d
       0.020535246 -0.085742 0.0149314515 0.08415207
0000d0 5f bb 7e 3d c8 0b ac bc bf 79 89 bd c1 ef c3 3c
       0.06219041 -0.021001711 -0.06712674 0.023918035
0000e0 4f f9 1a 3d 7a b7 b4 3c 84 c3 10 3d 09 8a c7 3a
       0.037835415 0.022060145 0.03534271 0.0015223633
0000f0 66 4b e7 3b 68 8c 7e 3d 50 68 b8 3d 24 1f d8 3c
       0.0070585487 0.06214562 0.09004271 0.026382037
000100 e2 9a 46 bb 93 7d f3 bc 49 c1 dc 3d e8 61 25 be
       -0.003030472 -0.029722964 0.10779054 -0.1615063
000110 a9 fa bf bd a6 b6 4f 3d 48 89 95 3d fc 62 b1 3c
       -0.093739815 0.050711296 0.07301575 0.021653645
000120 c7 e7 01 3d 3f 5b 9c 3c fd 99 ab 3d 73 65 be 3c
       0.03171518 0.019086478 0.0837898 0.023241734
000130 4a cc 41 bc 0c 2b d0 bc 7e 66 ac 3d fd 2a ea bc
       -0.011828491 -0.025411151 0.08417986 -0.028584952
000140 62 7d 10 be ec e7 57 be d4 26 ef 3c 02 54 a5 bb
       -0.1411033 -0.21084565 0.02919332 -0.005045415
000150 de db b8 3c 0c 7f 26 bc c7 a3 74 3d 42 e5 0e bd
       0.022565778 -0.010162126 0.059726503 -0.034886606
000160 0d 15 87 bd cf 45 1c 3e 2a 9e 04 bd c1 b2 ad bc
       -0.06595812 0.15261005 -0.0323774 -0.0212034
000170 ee db 1c bd 09 c4 95 ba d8 1a 59 3d 3a ab 60 be
       -0.03829568 -0.0011426221 0.053004116 -0.21940318
000180 27 7b 8b be 97 8c 57 be 4d 2a 02 3d fc 06 9a 3d
       -0.27242395 -0.21049725 0.031778622 0.075208634
000190 e5 64 0d 3c 6a 4d 89 bd 49 d4 65 3c 9b 89 8e bd
       0.008630012 -0.06704219 0.0140276635 -0.0695984
0001a0 80 27 3b 3d 8a 3b 38 3c d3 65 81 bd 2c 37 d8 bc
       0.045691967 0.011244664 -0.063182496 -0.026393496
0001b0 91 a6 d0 bc fa aa cc 3d 35 d2 b1 bd 30 87 13 be
       -0.02547005 0.09993549 -0.08682672 -0.14407039
0001c0 f0 ca d7 3e 41 c4 57 3d 4b 8b 76 bd 20 5c 0f bc
       0.42147017 0.052677397 -0.060191434 -0.008749992
0001d0 8b 9b 2b 3b 12 46 a1 3c fb ca a7 bd 29 3c a2 b9
       0.002618524 0.019686732 -0.08193012 -0.0003094387
0001e0 52 b3 3f 3d d3 89 68 3c de 29 70 3d bf 18 de 3d
       0.046801873 0.014193016 0.058633678 0.10844564
0001f0 9f 76 e8 3d 38 38 ff 3b e0 a6 f0 3d dc 0a 14 3f
       0.1135075 0.007788684 0.11750579 0.5782907
000200 b3 eb 3d 3d 79 9e c1 bd 5f 50 cc bc 12 ae a1 bd
       0.04636736 -0.094540544 -0.024940668 -0.078945294
000210 27 c4 ae 3b bc 55 04 3d fc 1d 22 bd 58 20 4c 3d
       0.005333442 0.032308325 -0.039579377 0.049835533
000220 fc e6 f7 3d 26 41 0e 3e d6 db 16 3e fc 06 1d 3d
       0.12104604 0.1389204 0.14732298 0.03833674
000230 21 fd 2b bc 41 40 85 3d 22 0b b4 bf f7 25 ac bd
       -0.010497362 0.06506396 -1.4065897 -0.08405679
000240 73 35 ce bd 4f 93 15 be 14 43 a3 bd 10 83 91 bd
       -0.100687884 -0.14606975 -0.079717785 -0.07105076
000250 a6 ca 42 bb 9d 4b b9 bc 51 65 df 3d e7 d7 a8 3d
       -0.0029722839 -0.022619063 0.109079964 0.08244305
000260 37 5d a2 3d dc b1 84 3d 15 60 f7 3c 18 7e 87 bd
       0.079279356 0.064792365 0.030197183 -0.06615847
000270 8c f5 af bd 29 d2 22 bf 89 fd e3 bd 32 ae 27 bd
       -0.08591756 -0.6360193 -0.11132342 -0.04093761
000280 57 06 cb bd 72 c9 4b bd 65 31 b4 bd f0 9f bc bd
       -0.099133186 -0.04975266 -0.08798484 -0.09210193
000290 84 10 87 3b 98 62 dc 3d 40 36 a2 3d 7a 84 b2 3d
       0.004121842 0.10760993 0.079205036 0.08716674
0002a0 dc 1d 31 3d 3e 41 dd bc 6c c6 12 b9 86 62 0d be
       0.043241367 -0.027008649 -0.00013997563 -0.13807115
0002b0 53 cf 56 be 41 4c cb bc f7 5d b0 bc f4 a6 14 bd
       -0.20977525 -0.024816634 -0.02152918 -0.03629203
0002c0 17 df 0b be b1 30 f1 3b fa 58 00 be 52 6a 18 bd
       -0.13659321 0.007360541 -0.12533942 -0.03721077
0002d0 e0 bf 2c bd 73 fc c8 3d 06 16 a8 3d 1c 21 8f bd
       -0.042175174 0.09813776 0.08207326 -0.06988737
0002e0 be 90 87 bd 09 2b 7a bc b1 0f a6 bd 7d 24 de bd
       -0.06619404 -0.015269049 -0.08108462 -0.10846803
0002f0 b6 0a 5d bd 6b f9 88 bd 11 f2 39 bd fa 2e a4 bd
       -0.053965293 -0.06688198 -0.04539687 -0.080167726
000300 bf 1a 39 bc 84 9a 66 bd 8f 28 38 bd ca f0 0e be
       -0.011297881 -0.0562997 -0.044960555 -0.13959041
000310 3b c0 a4 3c e6 90 b2 bd ef 90 8e bd 3c d0 b9 bd
       0.020111194 -0.087190434 -0.06961238 -0.09072921
000320 e3 0f ad bd 5a 10 c2 bb 76 dc fb bc a6 fe 24 3d
       -0.08450296 -0.0059223594 -0.030744772 0.040281914
000330 14 16 b9 bd 99 07 8f bd 66 8b 0d bc ee b7 db bd
       -0.09037414 -0.06983871 -0.008639192 -0.10728441
000340 36 21 01 be a4 ec e2 bd db cd 72 3e d6 52 b8 3d
       -0.12610325 -0.11080292 0.2371134 0.09000175
000350 d1 dd 35 bc 19 58 98 bd 37 c6 fe bb 31 e7 46 bc
       -0.011100248 -0.07438678 -0.007775094 -0.012140081
000360 9f ea 89 bc e5 47 01 3c 22 0b 8b 3c 8c 58 21 3d
       -0.016835509 0.007890676 0.016973082 0.039391086
000370 34 c6 24 bb 02 c0 1a be 5e 2c 00 be 40 17 d6 bd
       -0.0025142552 -0.15112308 -0.12516925 -0.10453653
000380 97 2e 10 be
       -0.14080273
