Models/Success2_v3 (best no dist)/model.pt (torch_old, 10071 bytes, 3 tensors)

sigmas f4 [225]
1.0004647 1.0038959 0.99782395 1.0050008 0.9973225 0.99931365 0.99911743 0.9988107
0.9991357 1.0096287 1.004828 1.002131 0.9976864 1.0038061 0.99685544 1.0000805
0.9982259 1.0014652 1.0023462 0.9987612 0.99861234 0.9978662 0.99841726 1.0021491
0.99783236 1.0019671 0.9973404 1.0044612 1.0015742 0.99493134 1.0001656 0.9982835
0.995043 0.9945759 0.99874514 0.99640477 1.0048031 1.0115001 1.0024006 0.99947643
0.9960902 0.99790394 1.0066826 1.0010571 0.99577904 1.0000273 0.999333 0.99834204
0.99392074 0.9996099 0.99757457 0.9980108 1.002259 0.99817216 0.9998189 1.006559
0.9960925 1.0037134 0.999336 0.99564064 0.999969 0.9995606 0.9989442 0.9996021
0.9943258 0.99120444 1.0005313 0.9297696 0.99426377 0.99951243 0.9986993 0.99987054
1.0039434 0.9965553 1.0094305 0.9999994 0.99979484 0.9988634 1.0003052 1.0003252
0.9958456 0.9138153 0.681077 0.98607385 0.9991477 0.9989236 0.9998978 1.0005211
0.99931985 1.0124539 0.99999756 0.9999439 0.9997671 0.99993026 0.99452853 0.9970733
0.88469195 0.97210705 0.96712327 0.99828255 0.9997197 0.9998935 0.99929065 0.9996887
1.0048623 0.99998754 1.0000188 0.99980414 0.99898905 1.0124803 0.9848949 0.82614386
0.91277766 0.9663084 0.99893713 1.0007963 1.001709 1.0014975 1.0014653 1.0071754
0.9999932 1.0001036 0.9996834 1.0045912 1.0069839 0.9582421 0.94898874 0.9923507
0.9678153 0.99909115 1.0019596 0.9965691 0.9997286 1.0020205 0.9936127 1.0
1.0001905 1.0033233 0.99370676 1.0016 0.9391375 1.0382272 0.89225966 0.9886009
1.0049392 1.0039982 1.001886 0.9973136 0.9963418 0.9994839 1.0000169 0.99997973
0.99757046 1.0155498 0.97878045 0.9933994 0.96784437 0.94106424 1.0299358 1.0004113
1.0024005 1.0045091 1.002413 1.0015703 1.0005192 0.9999959 0.9994273 1.0009869
1.0187345 0.96830875 1.0056568 1.0036978 1.0317869 1.0364505 0.99777097 1.0085295
1.0040547 1.0009788 1.0072802 1.0033137 0.99996454 0.9986317 1.0039835 0.9998929
0.9930554 0.9907762 1.0117275 1.0552436 0.99468476 0.99445283 0.9997119 0.9982215
1.0025656 1.0040324 0.9971134 0.99982595 1.001067 0.9984484 0.9945887 0.9966033
1.0027529 1.0162567 1.0119995 0.9956804 1.0004236 1.005767 1.0033803 1.0046798
1.0029423 1.0054221 0.99973375 0.9988912 1.006885 0.99658775 0.99737304 0.99812317
0.9991236 1.0082706 1.003007 1.0017687 0.9993671 0.9972242 1.00357 1.0039899
1.0022304
00000000: 3a0f 803f a97f 803f 6471 7f3f dea3 803f
00000010: 8750 7f3f 05d3 7f3f 29c6 7f3f 0fb2 7f3f
00000020: 5bc7 7f3f 833b 813f 349e 803f d445 803f
00000030: 6068 7f3f b87c 803f eb31 7f3f a302 803f
00000040: bc8b 7f3f 0330 803f e14c 803f d0ae 7f3f
00000050: 0fa5 7f3f 2974 7f3f 4698 7f3f 6c46 803f
00000060: f171 7f3f 7540 803f b351 7f3f 2f92 803f
00000070: 9533 803f d2b3 7e3f 6d05 803f 828f 7f3f
00000080: 23bb 7e3f 879c 7e3f c3ad 7f3f 6214 7f3f
00000090: 639d 803f d678 813f aa4e 803f b0dd 7f3f
000000a0: c4ff 7e3f a276 7f3f fada 803f a422 803f
000000b0: 60eb 7e3f e500 803f 4ad4 7f3f 5893 7f3f
000000c0: 9771 7e3f 6fe6 7f3f 0c61 7f3f a37d 7f3f
000000d0: 064a 803f 3688 7f3f 22f4 7f3f edd6 803f
000000e0: ebff 7e3f ae79 803f 7cd4 7f3f 4ee2 7e3f
000000f0: f8fd 7f3f 34e3 7f3f cfba 7f3f ece5 7f3f
00000100: 238c 7e3f 93bf 7d3f 6911 803f 6105 6e3f
00000110: 1288 7e3f 0ce0 7f3f c2aa 7f3f 84f7 7f3f
00000120: 3881 803f 401e 7f3f 0535 813f f6ff 7f3f
00000130: 8ef2 7f3f 83b5 7f3f 000a 803f a80a 803f
00000140: bdef 7e3f cdef 693f 105b 2e3f 566f 7c3f
00000150: 25c8 7f3f 75b9 7f3f 4df9 7f3f 1311 803f
00000160: 6dd3 7f3f 1798 813f d7ff 7f3f 53fc 7f3f
00000170: bdf0 7f3f 6efb 7f3f 6c99 7e3f 3240 7f3f
00000180: 2c7b 623f 02dc 783f 6495 773f 728f 7f3f
00000190: a1ed 7f3f 05f9 7f3f 83d1 7f3f 99eb 7f3f
000001a0: 549f 803f 2fff 7f3f 9e00 803f 2af3 7f3f
000001b0: bfbd 7f3f f498 813f 1222 7c3f 2a7e 533f
000001c0: ccab 693f fd5f 773f 58ba 7f3f 181a 803f
000001d0: 0038 803f 1231 803f 0430 803f 20eb 803f
000001e0: 8eff 7f3f 6503 803f 40eb 7f3f 7296 803f
000001f0: d9e4 803f 5b4f 753f edf0 723f b20a 7e3f
00000200: bec2 773f 70c4 7f3f 3640 803f 271f 7f3f
00000210: 37ee 7f3f 3542 803f 675d 7e3f 0000 803f
00000220: 3e06 803f e66c 803f 9163 7e3f 6e34 803f
00000230: 516b 703f a1e4 843f 216b 643f f314 7d3f
00000240: d9a1 803f 0383 803f cd3d 803f f24f 7f3f
00000250: 4210 7f3f 2dde 7f3f 8e00 803f acfe 7f3f
00000260: c760 7f3f 89fd 813f 5b91 7a3f 6c4f 7e3f
00000270: a6c4 773f 96e9 703f f0d4 833f 7a0d 803f
00000280: a94e 803f c193 803f 124f 803f 7533 803f
00000290: 0311 803f bbff 7f3f 78da 7f3f 5720 803f
000002a0: e465 823f 15e3 773f 5db9 803f 2b79 803f
000002b0: 9811 843f 69aa 843f eb6d 7f3f 7f17 813f
000002c0: dd84 803f 1320 803f 8fee 803f 956c 803f
000002d0: adfd 7f3f 54a6 7f3f 8882 803f fbf8 7f3f
000002e0: e138 7e3f 82a3 7d3f 4980 813f 3912 873f
000002f0: a9a3 7e3f 7694 7e3f 1eed 7f3f 728b 7f3f
00000300: 1254 803f 2284 803f d342 7f3f 98f4 7f3f
00000310: f722 803f 509a 7f3f 5d9d 7e3f 6521 7f3f
00000320: 355a 803f b314 823f 3389 813f e9e4 7e3f
00000330: e10d 803f f9bc 803f c46e 803f 5999 803f
00000340: 6a60 803f acb1 803f 8dee 7f3f 55b7 7f3f
00000350: 9ce1 803f 6020 7f3f d753 7f3f 0085 7f3f
00000360: 90c6 7f3f 030f 813f 8962 803f f539 803f
00000370: 86d6 7f3f 164a 7f3f fb74 803f be82 803f
00000380: 1649 803f

centres f4 [225, 2]
-3.1415927 -7.8539815 -3.1415927 -6.731984 -3.1415927 -5.609987 -3.1415927 -4.4879894
-3.1415927 -3.365992 -3.1415927 -2.2439947 -3.1415927 -1.1219974 -3.1415927 0.0
-3.1415927 1.1219974 -3.1415927 2.2439947 -3.1415927 3.365992 -3.1415927 4.4879894
-3.1415927 5.609987 -3.1415927 6.731984 -3.1415927 7.8539815 -2.6927936 -7.8539815
-2.6927936 -6.731984 -2.6927936 -5.609987 -2.6927936 -4.4879894 -2.6927936 -3.365992
-2.6927936 -2.2439947 -2.6927936 -1.1219974 -2.6927936 0.0 -2.6927936 1.1219974
-2.6927936 2.2439947 -2.6927936 3.365992 -2.6927936 4.4879894 -2.6927936 5.609987
-2.6927936 6.731984 -2.6927936 7.8539815 -2.2439947 -7.8539815 -2.2439947 -6.731984
-2.2439947 -5.609987 -2.2439947 -4.4879894 -2.2439947 -3.365992 -2.2439947 -2.2439947
-2.2439947 -1.1219974 -2.2439947 0.0 -2.2439947 1.1219974 -2.2439947 2.2439947
-2.2439947 3.365992 -2.2439947 4.4879894 -2.2439947 5.609987 -2.2439947 6.731984
-2.2439947 7.8539815 -1.7951958 -7.8539815 -1.7951958 -6.731984 -1.7951958 -5.609987
-1.7951958 -4.4879894 -1.7951958 -3.365992 -1.7951958 -2.2439947 -1.7951958 -1.1219974
-1.7951958 0.0 -1.7951958 1.1219974 -1.7951958 2.2439947 -1.7951958 3.365992
-1.7951958 4.4879894 -1.7951958 5.609987 -1.7951958 6.731984 -1.7951958 7.8539815
-1.3463968 -7.8539815 -1.3463968 -6.731984 -1.3463968 -5.609987 -1.3463968 -4.4879894
-1.3463968 -3.365992 -1.3463968 -2.2439947 -1.3463968 -1.1219974 -1.3463968 0.0
-1.3463968 1.1219974 -1.3463968 2.2439947 -1.3463968 3.365992 -1.3463968 4.4879894
-1.3463968 5.609987 -1.3463968 6.731984 -1.3463968 7.8539815 -0.8975979 -7.8539815
-0.8975979 -6.731984 -0.8975979 -5.609987 -0.8975979 -4.4879894 -0.8975979 -3.365992
-0.8975979 -2.2439947 -0.8975979 -1.1219974 -0.8975979 0.0 -0.8975979 1.1219974
-0.8975979 2.2439947 -0.8975979 3.365992 -0.8975979 4.4879894 -0.8975979 5.609987
-0.8975979 6.731984 -0.8975979 7.8539815 -0.44879895 -7.8539815 -0.44879895 -6.731984
-0.44879895 -5.609987 -0.44879895 -4.4879894 -0.44879895 -3.365992 -0.44879895 -2.2439947
-0.44879895 -1.1219974 -0.44879895 0.0 -0.44879895 1.1219974 -0.44879895 2.2439947
-0.44879895 3.365992 -0.44879895 4.4879894 -0.44879895 5.609987 -0.44879895 6.731984
-0.44879895 7.8539815 0.0 -7.8539815 0.0 -6.731984 0.0 -5.609987
0.0 -4.4879894 0.0 -3.365992 0.0 -2.2439947 0.0 -1.1219974
0.0 0.0 0.0 1.1219974 0.0 2.2439947 0.0 3.365992
0.0 4.4879894 0.0 5.609987 0.0 6.731984 0.0 7.8539815
0.44879895 -7.8539815 0.44879895 -6.731984 0.44879895 -5.609987 0.44879895 -4.4879894
0.44879895 -3.365992 0.44879895 -2.2439947 0.44879895 -1.1219974 0.44879895 0.0
00000000: db0f 49c0 d153 fbc0 db0f 49c0 6a6c d7c0
00000010: db0f 49c0 0385 b3c0 db0f 49c0 9c9d 8fc0
00000020: db0f 49c0 6a6c 57c0 db0f 49c0 9c9d 0fc0
00000030: db0f 49c0 9c9d 8fbf db0f 49c0 0000 0000
00000040: db0f 49c0 9c9d 8f3f db0f 49c0 9c9d 0f40
00000050: db0f 49c0 6a6c 5740 db0f 49c0 9c9d 8f40
00000060: db0f 49c0 0385 b340 db0f 49c0 6a6c d740
00000070: db0f 49c0 d153 fb40 bb56 2cc0 d153 fbc0
00000080: bb56 2cc0 6a6c d7c0 bb56 2cc0 0385 b3c0
00000090: bb56 2cc0 9c9d 8fc0 bb56 2cc0 6a6c 57c0
000000a0: bb56 2cc0 9c9d 0fc0 bb56 2cc0 9c9d 8fbf
000000b0: bb56 2cc0 0000 0000 bb56 2cc0 9c9d 8f3f
000000c0: bb56 2cc0 9c9d 0f40 bb56 2cc0 6a6c 5740
000000d0: bb56 2cc0 9c9d 8f40 bb56 2cc0 0385 b340
000000e0: bb56 2cc0 6a6c d740 bb56 2cc0 d153 fb40
000000f0: 9c9d 0fc0 d153 fbc0 9c9d 0fc0 6a6c d7c0
00000100: 9c9d 0fc0 0385 b3c0 9c9d 0fc0 9c9d 8fc0
00000110: 9c9d 0fc0 6a6c 57c0 9c9d 0fc0 9c9d 0fc0
00000120: 9c9d 0fc0 9c9d 8fbf 9c9d 0fc0 0000 0000
00000130: 9c9d 0fc0 9c9d 8f3f 9c9d 0fc0 9c9d 0f40
00000140: 9c9d 0fc0 6a6c 5740 9c9d 0fc0 9c9d 8f40
00000150: 9c9d 0fc0 0385 b340 9c9d 0fc0 6a6c d740
00000160: 9c9d 0fc0 d153 fb40 fac8 e5bf d153 fbc0
00000170: fac8 e5bf 6a6c d7c0 fac8 e5bf 0385 b3c0
00000180: fac8 e5bf 9c9d 8fc0 fac8 e5bf 6a6c 57c0
00000190: fac8 e5bf 9c9d 0fc0 fac8 e5bf 9c9d 8fbf
000001a0: fac8 e5bf 0000 0000 fac8 e5bf 9c9d 8f3f
000001b0: fac8 e5bf 9c9d 0f40 fac8 e5bf 6a6c 5740
000001c0: fac8 e5bf 9c9d 8f40 fac8 e5bf 0385 b340
000001d0: fac8 e5bf 6a6c d740 fac8 e5bf d153 fb40
000001e0: bb56 acbf d153 fbc0 bb56 acbf 6a6c d7c0
000001f0: bb56 acbf 0385 b3c0 bb56 acbf 9c9d 8fc0
00000200: bb56 acbf 6a6c 57c0 bb56 acbf 9c9d 0fc0
00000210: bb56 acbf 9c9d 8fbf bb56 acbf 0000 0000
00000220: bb56 acbf 9c9d 8f3f bb56 acbf 9c9d 0f40
00000230: bb56 acbf 6a6c 5740 bb56 acbf 9c9d 8f40
00000240: bb56 acbf 0385 b340 bb56 acbf 6a6c d740
00000250: bb56 acbf d153 fb40 fac8 65bf d153 fbc0
00000260: fac8 65bf 6a6c d7c0 fac8 65bf 0385 b3c0
00000270: fac8 65bf 9c9d 8fc0 fac8 65bf 6a6c 57c0
00000280: fac8 65bf 9c9d 0fc0 fac8 65bf 9c9d 8fbf
00000290: fac8 65bf 0000 0000 fac8 65bf 9c9d 8f3f
000002a0: fac8 65bf 9c9d 0f40 fac8 65bf 6a6c 5740
000002b0: fac8 65bf 9c9d 8f40 fac8 65bf 0385 b340
000002c0: fac8 65bf 6a6c d740 fac8 65bf d153 fb40
000002d0: fac8 e5be d153 fbc0 fac8 e5be 6a6c d7c0
000002e0: fac8 e5be 0385 b3c0 fac8 e5be 9c9d 8fc0
000002f0: fac8 e5be 6a6c 57c0 fac8 e5be 9c9d 0fc0
00000300: fac8 e5be 9c9d 8fbf fac8 e5be 0000 0000
00000310: fac8 e5be 9c9d 8f3f fac8 e5be 9c9d 0f40
00000320: fac8 e5be 6a6c 5740 fac8 e5be 9c9d 8f40
00000330: fac8 e5be 0385 b340 fac8 e5be 6a6c d740
00000340: fac8 e5be d153 fb40 0000 0000 d153 fbc0
00000350: 0000 0000 6a6c d7c0 0000 0000 0385 b3c0
00000360: 0000 0000 9c9d 8fc0 0000 0000 6a6c 57c0
00000370: 0000 0000 9c9d 0fc0 0000 0000 9c9d 8fbf
00000380: 0000 0000 0000 0000 0000 0000 9c9d 8f3f
00000390: 0000 0000 9c9d 0f40 0000 0000 6a6c 5740
000003a0: 0000 0000 9c9d 8f40 0000 0000 0385 b340
000003b0: 0000 0000 6a6c d740 0000 0000 d153 fb40
000003c0: fac8 e53e d153 fbc0 fac8 e53e 6a6c d7c0
000003d0: fac8 e53e 0385 b3c0 fac8 e53e 9c9d 8fc0
000003e0: fac8 e53e 6a6c 57c0 fac8 e53e 9c9d 0fc0
000003f0: fac8 e53e 9c9d 8fbf fac8 e53e 0000 0000

weight f4 [1, 225]
0.06700446 0.0893814 0.097888604 0.112457216 -0.0329164 -0.034739107 -0.059207883 -0.040345084
-0.044333633 -0.13375263 -0.09100913 -0.12579063 -0.0014469493 -0.09060594 -0.007999547 0.050098468
-0.023110934 0.037591394 0.05987575 0.035372358 0.01841008 -0.049119234 -0.010978501 -0.08238331
-0.03879228 -0.0633495 -0.008450976 -0.07013474 -0.06223483 -0.0016294987 -0.06579948 -0.07253455
-0.03065105 -0.017496075 0.043002907 -0.039363753 -0.048004642 -0.0838914 -0.10263592 -0.06311653
0.012086791 -0.0129420655 -0.09069937 -0.07700866 -0.045607205 -0.0036271764 0.018990545 -0.0636453
-0.048601653 0.02725223 0.0042738714 -0.045054294 -0.056041785 -0.053463228 -0.0020376605 -0.06109034
0.043476988 -0.056848504 -0.033764195 -0.0019547162 0.019075986 0.013630029 0.012025536 0.036427643
-0.026784753 0.040681817 -0.21188691 -0.17757927 0.019492863 0.012094302 0.02766501 -0.011654351
-0.06859271 0.034143347 0.09146507 -0.004444013 0.015884737 0.043653265 -0.025196102 0.008580786
0.028742522 -0.38598585 -0.13243121 0.098890305 -0.028414967 0.03642601 0.004109299 -0.015858717
0.0034711682 0.0875872 -0.014045851 0.016987557 0.03709099 0.014234279 -0.008782138 0.02349049
-0.25365216 0.20861599 0.18907559 -0.020078354 -0.0049678483 -0.04808179 0.015816165 -0.004055462
0.038572907 -0.057581533 0.0028707252 -0.029250976 -0.017609678 0.07806983 0.06839185 0.27237573
0.5916319 0.13892566 0.024404364 -0.03457944 -0.06560362 -0.045631733 -0.05224478 0.025221573
-0.038498256 0.038166415 -0.008609177 0.065693654 0.06593234 0.096831866 0.37297046 0.48908055
-0.00966815 -0.049420826 -0.06268856 0.03758913 -0.015947266 -0.058104984 -0.03820167 0.00026934777
0.027634848 0.06924348 -0.024542125 0.111330725 0.24420819 0.1358114 -0.13553926 -0.1482143
-0.072864324 -0.10388127 -0.044395763 -0.0008871157 0.021234531 0.0032041315 0.029716529 0.002671259
-0.008727376 0.10408637 0.091517314 0.08883296 -0.093867354 -0.3853915 -0.15541407 -0.012394241
-0.05215556 -0.0898619 -0.065875 -0.051316354 -0.042953957 -0.019933518 -0.027708488 0.056393433
0.12212158 0.116788484 0.046251416 -0.16323453 -0.2324117 -0.13159317 -0.044949587 -0.06933566
-0.11905074 -0.053742882 -0.10833689 -0.06879877 -0.024476783 -0.025496049 0.035571642 0.04268549
0.03523012 -0.1297918 -0.07986676 -0.1801393 -0.01311111 -0.0343304 -0.017777126 -0.019288504
-0.0814801 -0.0660634 0.00020316352 -0.03443882 0.06171135 0.0025926342 0.06854873 -0.03696479
-0.09470257 -0.12288208 -0.06837118 -0.02349769 -0.08082454 -0.09667528 -0.08906049 -0.115492165
-0.046725933 -0.08360343 -0.031686448 0.022992192 0.09940807 0.033870224 -0.05348134 -0.027316056
-0.04322627 -0.09498995 -0.09929776 -0.064582214 -0.01654159 0.020974468 -0.087907255 -0.06703938
-0.04756658
00000000: a239 893d 980d b73d d279 c83d f84f e63d
00000010: 59d3 06bd 984a 0ebd f783 72bd e340 25bd
00000020: 2f97 35bd 73f6 08be ff62 babd 42cf 00be
00000030: 90a7 bdba 9b8f b9bd 8810 03bc 0d34 4d3d
00000040: 2453 bdbc 6ff9 193d 4640 753d 9be2 103d
00000050: bcd0 963c 4031 49bd 2cdf 33bc 95b8 a8bd
00000060: a7e4 1ebd 62bd 81bd f675 0abc cda2 8fbd
00000070: f3e9 7ebd e794 d5ba e1c1 86bd ff8c 94bd
00000080: e917 fbbc ee53 8fbc d123 303d e33b 21bd
00000090: 84a0 44bd 41cf abbd c832 d2bd 3d43 81bd
000000a0: ad07 463c f50a 54bc 97c0 b9bd b7b6 9dbd
000000b0: 9fce 3abd ecb5 6dbb 0f92 9b3c 7858 82bd
000000c0: 8712 47bd 1240 df3c d50b 8c3b da8a 38bd
000000d0: 128c 65bd 42fc 5abd 458a 05bb dd39 7abd
000000e0: ed14 323d fad9 68bd 534c 0abd b21a 00bb
000000f0: 3e45 9c3c 7c50 5f3c c106 453c 2735 153d
00000100: b36b dbbc faa1 263d e2f8 58be 57d7 35be
00000110: 7faf 9f3c 2e27 463c bba1 e23c e4f1 3ebc
00000120: 567a 8cbd e5d9 0b3d 0a52 bb3d 159f 91bb
00000130: b520 823c c4cd 323d 0e68 cebc 6d96 0c3c
00000140: 7075 eb3c f09f c5be 0c9c 07be 0087 ca3d
00000150: 81c6 e8bc 7133 153d 4ca7 863b 24ea 81bc
00000160: 8a7c 633b eb60 b33d 9220 66bc 7d29 8b3c
00000170: b9ec 173d e536 693c f5e2 0fbc 216f c03c
00000180: b2de 81be 6e9f 553e 089d 413e 5c7b a4bc
00000190: 55c9 a2bb 69f1 44bd e790 813c aee3 84bb
000001a0: a0fe 1d3d 9dda 6bbd c722 3c3b be9f efbc
000001b0: 2c42 90bc 13e3 9f3d 0711 8c3d d574 8b3e
000001c0: 3075 173f 8742 0e3e a9eb c73c 2ca3 0dbd
000001d0: 315b 86bd 57e8 3abd 9ffe 55bd 799d ce3c
000001e0: 59b0 1dbd 6354 1c3d 810d 0dbc 658a 863d
000001f0: 8907 873d c94f c63d fcf5 be3e c468 fa3e
00000200: 2967 1ebc 7e6d 4abd dc62 80bd 0ff7 193d
00000210: d7a3 82bc 7eff 6dbd 5b79 1cbd 3f37 8d39
00000220: 7a62 e23c 87cf 8d3d 910c c9bc 5d01 e43d
00000230: b611 7a3e 2512 0b3e ceca 0abe 7dc5 17be
00000240: e439 95bd b4bf d4bd 55d8 35bd 548d 68ba
00000250: 0af4 ad3c 68fc 513b 1470 f33c 4a10 2f3b
00000260: 45fd 0ebc 3c2b d53d 6e6d bb3d 0eee b53d
00000270: 873d c0bd 0952 c5be de24 1fbe 3711 4bbc
00000280: 12a1 55bd 8409 b8bd 79e9 86bd 1931 52bd
00000290: 7df0 2fbd 9e4b a3bc e9fc e2bc cdfc 663d
000002a0: e11a fa3d cd2e ef3d 2072 3d3d f426 27be
000002b0: 55fd 6dbe 5cc0 06be 0f1d 38bd dbff 8dbd
000002c0: e0d0 f3bd 7f21 5cbd bbdf ddbd 5fe6 8cbd
000002d0: 8983 c8bc 17dd d0bc 92b3 113d fbd6 2e3d
000002e0: 754d 103d 24e8 04be 2f91 a3bd 7076 38be
000002f0: fbcf 56bc 099e 0cbd 56a1 91bc ed02 9ebc
00000300: 0adf a6bd 3f4c 87bd 4b08 5539 b80f 0dbd
00000310: 0ac5 7c3d 2fe9 293b 4763 8c3d 6468 17bd
00000320: 6cf3 c1bd 9aa9 fbbd 3006 8cbd 3a7e c0bc
00000330: 5687 a5bd b0fd c5bd 5965 b6bd 2887 ecbd
00000340: b163 3fbd 4638 abbd a6c9 01bd 1f5a bc3c
00000350: 7596 cb3d 81bb 0a3d 400f 5bbd ecc5 dfbc
00000360: 070e 31bd 178a c2bd a05c cbbd ae43 84bd
00000370: 3b82 87bc a6d2 ab3c b808 b4bd f14b 89bd
00000380: 2dd5 42bd
