Models/Testkladd/model.pt (torch_old, 10071 bytes, 3 tensors)

sigmas f4 [225]
00000000: 0ef5 7e3f 538d 7f3f c374 7f3f b9c5 803f
00000010: b060 803f 8f42 803f 329a 7e3f 7b64 803f
00000020: 4e42 7f3f 4528 803f f40e 7f3f 5734 803f
00000030: d678 803f 172d 803f 52b6 7f3f f47e 803f
00000040: e81b 803f 22f8 7f3f 2585 7e3f d2ee 7e3f
00000050: 2cc3 7e3f c588 7e3f 296e 803f f491 803f
00000060: 5409 803f b26c 7f3f ad0e 803f 1608 813f
00000070: 629f 7f3f 8a5a 803f 269d 7f3f 64c8 7f3f
00000080: 6598 803f 631e 813f f76e 7e3f 2021 813f
00000090: 0ab6 813f c75b 7f3f efa6 803f 4a93 7f3f
000000a0: f0af 803f 9cce 7f3f 2ff9 803f fa97 7f3f
000000b0: 7305 7f3f 24af 813f e0bc 803f 7cb9 803f
000000c0: 945c 803f 3c80 813f c320 803f 70d9 813f
000000d0: 5112 7f3f ecb1 7f3f 5e19 803f 576c 803f
000000e0: 87c9 7f3f ea23 803f 0915 803f ed47 7f3f
000000f0: 7f87 7f3f df3b 803f c775 803f dd07 803f
00000100: 8683 7f3f bbf0 7f3f abd1 7e3f 9b05 7f3f
00000110: d27e 7f3f 6a05 803f 5221 803f 5dcb 7f3f
00000120: 3c88 7f3f 307c 803f f606 803f 2e4d 7f3f
00000130: 25f9 7f3f 7606 803f 1f9d 7f3f 7d1c 813f
00000140: ead0 7f3f 60df 7d3f f388 813f 3c3c 803f
00000150: f93b 803f bf01 803f 1ade 7f3f 8cc9 7f3f
00000160: 2113 803f 88f3 7f3f 54f2 7f3f 8e02 803f
00000170: 477d 7f3f 1c60 803f 0c2e 803f 5c00 803f
00000180: 9ad8 7e3f 18df 743f 7728 7f3f f8d6 7f3f
00000190: fe23 803f 6040 803f a10e 803f 5c00 803f
000001a0: 2dfe 7f3f d4c4 7f3f c9d6 7f3f 78da 7f3f
000001b0: 6029 803f ba05 803f 2dda 7f3f 5fe2 7f3f
000001c0: 01c1 663f 771a 7f3f 87d1 7f3f 070e 803f
000001d0: 418e 803f cc38 803f 07f1 7f3f f7ff 7f3f
000001e0: f1f7 7e3f 60d6 7f3f 9c07 803f d3b6 7f3f
000001f0: b69c 7f3f 61a1 7f3f cfec 7f3f 6aa0 7f3f
00000200: b143 813f 2de4 7f3f 260f 803f f2cb 803f
00000210: 0564 803f e70a 803f 3202 803f fb09 803f
00000220: b2ec 7f3f 55ef 7f3f 74d0 7f3f 5b01 803f
00000230: 1de3 7f3f 5133 803f 0dfe 803f 7ad2 7f3f
00000240: 0e60 803f 805a 803f 7329 813f fd1c 813f
00000250: c251 803f 7fe4 7f3f 20e8 813f c304 803f
00000260: a0f7 7f3f b20e 803f a3f6 7f3f 8a8f 7f3f
00000270: c001 803f 2a2c 803f 52ac 803f b460 803f
00000280: 7a49 803f 9c61 803f f985 803f 5d14 813f
00000290: 2217 803f d78e 803f 041d 803f 0914 803f
000002a0: 3d70 7f3f 4890 7f3f 3dcf 803f 7411 7f3f
000002b0: 095e 813f bdc7 803f 5679 803f 480f 803f
000002c0: 96c7 7f3f 3bbf 803f 3538 813f 344e 803f
000002d0: 0fb2 803f a596 7f3f bbc3 7f3f 3161 803f
000002e0: 623e 7f3f 6d4d 803f 6b3a 7f3f 5d0a 813f
000002f0: fbab 803f dcf1 7f3f f451 803f 2912 813f
00000300: eddc 7f3f 5265 803f 0d12 803f 4f3a 803f
00000310: 742e 7f3f 50d3 7f3f 6204 803f 5814 803f
00000320: c0e3 7f3f 1d1f 813f f1ff 7f3f 6404 7f3f
00000330: f32b 803f c4f5 7f3f aa71 813f 7a5a 803f
00000340: 761e 803f 8485 803f 66a6 7f3f dfdc 7f3f
00000350: e311 803f 6c38 803f 867f 7f3f 3972 7f3f
00000360: 4b82 803f 3276 7e3f d1ab 7f3f ce2f 803f
00000370: 54d1 7f3f a29f 803f 7c53 813f f718 803f
00000380: fc7b 7f3f
0.99592674 0.9982502 0.9978754 1.006034 1.0029507 1.0020312 0.99454033 1.0030664
0.9971055 1.0012289 0.9963219 1.0015973 1.0036876 1.001376 0.99887574 1.0038743
1.0008516 0.99987996 0.9942191 0.9958316 0.9951656 0.99427444 1.0033618 1.0044541
1.0002847 0.9977523 1.0004479 1.0080593 0.99852574 1.002763 0.99849164 0.99915147
1.0046507 1.0087398 0.9938807 1.0088234 1.0133679 0.99749416 1.0050944 0.9983412
1.0053692 0.99924636 1.0076045 0.9984127 0.9961769 1.0131574 1.005764 1.0056605
1.0028253 1.0117259 1.0009998 1.0144482 0.99637324 0.9988086 1.0007741 1.0033063
0.9991688 1.001096 1.000642 0.99719125 0.99816126 1.0018271 1.0035943 1.00024
0.99810064 0.999767 0.9953868 0.9961793 0.9980289 1.0001652 1.0010169 0.9991968
0.9981725 1.0037899 1.0002124 0.9972714 0.9998954 1.0001972 0.9984912 1.0086819
0.9992815 0.9916897 1.0119919 1.0018382 1.0018302 1.0000533 0.99948275 0.9991691
1.0005838 0.99980974 0.9997914 1.000078 0.99800533 1.002933 1.0014052 1.000011
0.9954926 0.95652914 0.9967112 0.9993739 1.0010984 1.0019646 1.0004464 1.000011
0.99997216 0.9990971 0.9993711 0.9994273 1.0012627 1.0001748 0.99942285 0.9995479
0.9013825 0.9964976 0.9992909 1.0004281 1.0043412 1.0017333 0.99977154 0.99999946
0.9959708 0.99936485 1.0002322 0.9988834 0.99848497 0.9985562 0.99970716 0.9985415
1.0098783 0.99957544 1.0004623 1.0062239 1.0030524 1.0003327 1.000067 1.0003046
0.99970543 0.99974567 0.9992745 1.0000414 0.9995592 1.001566 1.007753 0.99930537
1.0029314 1.0027618 1.0090774 1.0086972 1.002495 0.9995803 1.0148964 1.0001453
0.9998722 1.0004485 0.9998571 0.998284 1.0000534 1.0013478 1.0052588 1.0029511
1.0022423 1.0029788 1.0040885 1.0084339 1.000706 1.0043591 1.0008855 1.0006114
0.9978064 0.9982953 1.0063244 0.99636006 1.0106822 1.0060955 1.0037029 1.0004663
0.9991392 1.0058359 1.0095278 1.0023866 1.0054339 0.9983924 0.99908036 1.002966
0.99704564 1.0023628 0.99698514 1.0081288 1.0052484 0.99978423 1.002501 1.0083667
0.9994648 1.003092 1.0005509 1.0017794 0.99680257 0.9993181 1.0001338 1.0006208
0.99956894 1.008762 0.9999991 0.99616075 1.0013412 0.99984384 1.0112813 1.0027611
1.0009296 1.0040746 0.9986328 0.999464 1.0005459 1.0017219 0.9980396 0.99783665
1.0039762 0.993991 0.99871546 1.0014589 0.99928784 1.0048716 1.0103602 1.0007619
0.9979856

centres f4 [225, 2]
00000000: db0f 49c0 d153 fbc0 db0f 49c0 6a6c d7c0
00000010: db0f 49c0 0385 b3c0 db0f 49c0 9c9d 8fc0
00000020: db0f 49c0 6a6c 57c0 db0f 49c0 9c9d 0fc0
00000030: db0f 49c0 9c9d 8fbf db0f 49c0 0000 0000
00000040: db0f 49c0 9c9d 8f3f db0f 49c0 9c9d 0f40
00000050: db0f 49c0 6a6c 5740 db0f 49c0 9c9d 8f40
00000060: db0f 49c0 0385 b340 db0f 49c0 6a6c d740
00000070: db0f 49c0 d153 fb40 bb56 2cc0 d153 fbc0
00000080: bb56 2cc0 6a6c d7c0 bb56 2cc0 0385 b3c0
00000090: bb56 2cc0 9c9d 8fc0 bb56 2cc0 6a6c 57c0
000000a0: bb56 2cc0 9c9d 0fc0 bb56 2cc0 9c9d 8fbf
000000b0: bb56 2cc0 0000 0000 bb56 2cc0 9c9d 8f3f
000000c0: bb56 2cc0 9c9d 0f40 bb56 2cc0 6a6c 5740
000000d0: bb56 2cc0 9c9d 8f40 bb56 2cc0 0385 b340
000000e0: bb56 2cc0 6a6c d740 bb56 2cc0 d153 fb40
000000f0: 9c9d 0fc0 d153 fbc0 9c9d 0fc0 6a6c d7c0
00000100: 9c9d 0fc0 0385 b3c0 9c9d 0fc0 9c9d 8fc0
00000110: 9c9d 0fc0 6a6c 57c0 9c9d 0fc0 9c9d 0fc0
00000120: 9c9d 0fc0 9c9d 8fbf 9c9d 0fc0 0000 0000
00000130: 9c9d 0fc0 9c9d 8f3f 9c9d 0fc0 9c9d 0f40
00000140: 9c9d 0fc0 6a6c 5740 9c9d 0fc0 9c9d 8f40
00000150: 9c9d 0fc0 0385 b340 9c9d 0fc0 6a6c d740
00000160: 9c9d 0fc0 d153 fb40 fac8 e5bf d153 fbc0
00000170: fac8 e5bf 6a6c d7c0 fac8 e5bf 0385 b3c0
00000180: fac8 e5bf 9c9d 8fc0 fac8 e5bf 6a6c 57c0
00000190: fac8 e5bf 9c9d 0fc0 fac8 e5bf 9c9d 8fbf
000001a0: fac8 e5bf 0000 0000 fac8 e5bf 9c9d 8f3f
000001b0: fac8 e5bf 9c9d 0f40 fac8 e5bf 6a6c 5740
000001c0: fac8 e5bf 9c9d 8f40 fac8 e5bf 0385 b340
000001d0: fac8 e5bf 6a6c d740 fac8 e5bf d153 fb40
000001e0: bb56 acbf d153 fbc0 bb56 acbf 6a6c d7c0
000001f0: bb56 acbf 0385 b3c0 bb56 acbf 9c9d 8fc0
00000200: bb56 acbf 6a6c 57c0 bb56 acbf 9c9d 0fc0
00000210: bb56 acbf 9c9d 8fbf bb56 acbf 0000 0000
00000220: bb56 acbf 9c9d 8f3f bb56 acbf 9c9d 0f40
00000230: bb56 acbf 6a6c 5740 bb56 acbf 9c9d 8f40
00000240: bb56 acbf 0385 b340 bb56 acbf 6a6c d740
00000250: bb56 acbf d153 fb40 fac8 65bf d153 fbc0
00000260: fac8 65bf 6a6c d7c0 fac8 65bf 0385 b3c0
00000270: fac8 65bf 9c9d 8fc0 fac8 65bf 6a6c 57c0
00000280: fac8 65bf 9c9d 0fc0 fac8 65bf 9c9d 8fbf
00000290: fac8 65bf 0000 0000 fac8 65bf 9c9d 8f3f
000002a0: fac8 65bf 9c9d 0f40 fac8 65bf 6a6c 5740
000002b0: fac8 65bf 9c9d 8f40 fac8 65bf 0385 b340
000002c0: fac8 65bf 6a6c d740 fac8 65bf d153 fb40
000002d0: fac8 e5be d153 fbc0 fac8 e5be 6a6c d7c0
000002e0: fac8 e5be 0385 b3c0 fac8 e5be 9c9d 8fc0
000002f0: fac8 e5be 6a6c 57c0 fac8 e5be 9c9d 0fc0
00000300: fac8 e5be 9c9d 8fbf fac8 e5be 0000 0000
00000310: fac8 e5be 9c9d 8f3f fac8 e5be 9c9d 0f40
00000320: fac8 e5be 6a6c 5740 fac8 e5be 9c9d 8f40
00000330: fac8 e5be 0385 b340 fac8 e5be 6a6c d740
00000340: fac8 e5be d153 fb40 0000 0000 d153 fbc0
00000350: 0000 0000 6a6c d7c0 0000 0000 0385 b3c0
00000360: 0000 0000 9c9d 8fc0 0000 0000 6a6c 57c0
00000370: 0000 0000 9c9d 0fc0 0000 0000 9c9d 8fbf
00000380: 0000 0000 0000 0000 0000 0000 9c9d 8f3f
00000390: 0000 0000 9c9d 0f40 0000 0000 6a6c 5740
000003a0: 0000 0000 9c9d 8f40 0000 0000 0385 b340
000003b0: 0000 0000 6a6c d740 0000 0000 d153 fb40
000003c0: fac8 e53e d153 fbc0 fac8 e53e 6a6c d7c0
000003d0: fac8 e53e 0385 b3c0 fac8 e53e 9c9d 8fc0
000003e0: fac8 e53e 6a6c 57c0 fac8 e53e 9c9d 0fc0
000003f0: fac8 e53e 9c9d 8fbf fac8 e53e 0000 0000
-3.1415927 -7.8539815 -3.1415927 -6.731984 -3.1415927 -5.609987 -3.1415927 -4.4879894
-3.1415927 -3.365992 -3.1415927 -2.2439947 -3.1415927 -1.1219974 -3.1415927 0.0
-3.1415927 1.1219974 -3.1415927 2.2439947 -3.1415927 3.365992 -3.1415927 4.4879894
-3.1415927 5.609987 -3.1415927 6.731984 -3.1415927 7.8539815 -2.6927936 -7.8539815
-2.6927936 -6.731984 -2.6927936 -5.609987 -2.6927936 -4.4879894 -2.6927936 -3.365992
-2.6927936 -2.2439947 -2.6927936 -1.1219974 -2.6927936 0.0 -2.6927936 1.1219974
-2.6927936 2.2439947 -2.6927936 3.365992 -2.6927936 4.4879894 -2.6927936 5.609987
-2.6927936 6.731984 -2.6927936 7.8539815 -2.2439947 -7.8539815 -2.2439947 -6.731984
-2.2439947 -5.609987 -2.2439947 -4.4879894 -2.2439947 -3.365992 -2.2439947 -2.2439947
-2.2439947 -1.1219974 -2.2439947 0.0 -2.2439947 1.1219974 -2.2439947 2.2439947
-2.2439947 3.365992 -2.2439947 4.4879894 -2.2439947 5.609987 -2.2439947 6.731984
-2.2439947 7.8539815 -1.7951958 -7.8539815 -1.7951958 -6.731984 -1.7951958 -5.609987
-1.7951958 -4.4879894 -1.7951958 -3.365992 -1.7951958 -2.2439947 -1.7951958 -1.1219974
-1.7951958 0.0 -1.7951958 1.1219974 -1.7951958 2.2439947 -1.7951958 3.365992
-1.7951958 4.4879894 -1.7951958 5.609987 -1.7951958 6.731984 -1.7951958 7.8539815
-1.3463968 -7.8539815 -1.3463968 -6.731984 -1.3463968 -5.609987 -1.3463968 -4.4879894
-1.3463968 -3.365992 -1.3463968 -2.2439947 -1.3463968 -1.1219974 -1.3463968 0.0
-1.3463968 1.1219974 -1.3463968 2.2439947 -1.3463968 3.365992 -1.3463968 4.4879894
-1.3463968 5.609987 -1.3463968 6.731984 -1.3463968 7.8539815 -0.8975979 -7.8539815
-0.8975979 -6.731984 -0.8975979 -5.609987 -0.8975979 -4.4879894 -0.8975979 -3.365992
-0.8975979 -2.2439947 -0.8975979 -1.1219974 -0.8975979 0.0 -0.8975979 1.1219974
-0.8975979 2.2439947 -0.8975979 3.365992 -0.8975979 4.4879894 -0.8975979 5.609987
-0.8975979 6.731984 -0.8975979 7.8539815 -0.44879895 -7.8539815 -0.44879895 -6.731984
-0.44879895 -5.609987 -0.44879895 -4.4879894 -0.44879895 -3.365992 -0.44879895 -2.2439947
-0.44879895 -1.1219974 -0.44879895 0.0 -0.44879895 1.1219974 -0.44879895 2.2439947
-0.44879895 3.365992 -0.44879895 4.4879894 -0.44879895 5.609987 -0.44879895 6.731984
-0.44879895 7.8539815 0.0 -7.8539815 0.0 -6.731984 0.0 -5.609987
0.0 -4.4879894 0.0 -3.365992 0.0 -2.2439947 0.0 -1.1219974
0.0 0.0 0.0 1.1219974 0.0 2.2439947 0.0 3.365992
0.0 4.4879894 0.0 5.609987 0.0 6.731984 0.0 7.8539815
0.44879895 -7.8539815 0.44879895 -6.731984 0.44879895 -5.609987 0.44879895 -4.4879894
0.44879895 -3.365992 0.44879895 -2.2439947 0.44879895 -1.1219974 0.44879895 0.0

weight f4 [1, 225]
00000000: 51b9 ecbb 2abb 96bc d902 e5bb b7e8 87bd
00000010: d90c e3bd a2da bcbd b279 03bd ec8d 82bd
00000020: eac4 bfbc 9c12 93bd 0b55 95bd 7fc3 74bd
00000030: 122d 6fbd 3558 1dbe 2e08 50bc ac92 57bd
00000040: e583 97bd 60c0 38bd 6ea5 093d c998 c8bb
00000050: ff0b bbba 3faa 37bc 8c80 8cbd 3c00 b8bd
00000060: 7d96 93bd 784c b8bc 44f2 36bd 8967 bdbd
00000070: e3cf bfbd 9e83 70bd dcaf dabc af92 eabc
00000080: 7a32 c6bd 0400 fbbd 7fe2 e23a 6eb5 bebd
00000090: 727f b5bd 520c 50bd 61ec 81bd 5e95 e43c
000000a0: 86ad 4fbd fd22 8fbc 02c3 9fbd 29a3 16bd
000000b0: 7dc4 ba3c 5602 d2bd 5f3a a4bd 3598 b3bd
000000c0: 5712 a5bd fa99 0cbe 6815 35bc 475c a2bd
000000d0: c16e 99bd d4ec c8bb 9004 1bbd 8192 d1bc
000000e0: d0d4 99bc d6ab b0bc ef7d fbbc b5ab 0b3d
000000f0: 0e1a 983b 9ab8 bbbc e231 84bd 9075 23bd
00000100: a257 06bd 9afb 4bbc f623 c23c d2bd 8ebd
00000110: 0937 ecbb 3238 2b3d 0dc9 a7bc b924 5fbc
00000120: 3545 953c e321 81bd 84a0 3bbc 410a 4d3d
00000130: e616 783c 5d4e 18bd 6a0f 80bc 96af 0dbe
00000140: d381 a23a a0bf 88bd b1f8 b83d 66b7 813d
00000150: c73e 893d 3997 093d 15a0 e3bb 83d8 f33b
00000160: 7743 edbc d206 a83c e2fa 4cbd c7a5 0abd
00000170: e8c4 4a3c beec 4fbd d4d5 33bd f307 d6bd
00000180: da4e 753c 4cd4 773e e9f4 4e3d 6bab d53c
00000190: f544 e5bc 181e 6cbd 7bf0 e9bc 00c0 7ebc
000001a0: 9b23 023d 4268 a4bc ae33 3c3d 1f36 d5bc
000001b0: 4696 20bd 7891 99bc 784b e1ba b5e7 a73d
000001c0: bb42 9d3e bf1a 2b3d 016a 86bd 2798 0fbd
000001d0: 008e 80bd b1ef 28bd 32da 3f3d 5f29 ae3c
000001e0: e90f 3abd 7329 313c 97f3 0d3d 2984 8d3c
000001f0: 7344 7e3d 4820 cd3d eec3 813d e28c 303e
00000200: 3c0a 593d 5465 64bc fa3f 7dbd 48f7 abbd
00000210: 3da1 39bd 61fd 83bc 8bc1 11bd 19c1 08bb
00000220: 465c 9a3d e35d 783d a3f7 8f3c 97b1 fd3c
00000230: 8966 bbbb 00bf f73c 7cea de3c e850 583c
00000240: 19bf 01bd c1e4 e3bd b31e 09be d849 bcbd
00000250: f75a 3cbd 1115 533d 1fe9 df3d c8d9 143b
00000260: 39db d9bc 8126 0ebd 972d 0d3d a878 4e3d
00000270: 023c a93c 9835 36bd 91f1 39bd 1098 68bc
00000280: fd71 96bd 3ce0 c2bd f560 9ebd 64bc b8bd
00000290: 3fe3 04bd 4d9b 873d 682b 7bbc 4ccc 6abc
000002a0: ce77 c23c 7191 f13c 9798 ddbc f4df dabb
000002b0: b1e9 c9bc d00a 4fbc d895 77bd 80d3 0bbd
000002c0: 4feb 35bd 65c2 ebbd ea21 d6bd 441f 67bd
000002d0: c632 c23d ee8c 343d fe9a de3c d82c 93bd
000002e0: ff1c 0a3c 3e6b f2bc 2873 f1bc 6eda 6bbd
000002f0: a7b0 acbd a3d5 05bd 2ed8 66bd a1a3 a3bd
00000300: 1d04 98bd ff00 bbbd b5d5 98bc 5ebe 813d
00000310: b9c1 94bd 2846 43bc 308f 00bd 8e24 ccbd
00000320: e499 8abd 56a0 01be 3e31 82bd 4a13 b1bc
00000330: f802 84bd 325c 1abd 6ffa a9bd 70a3 b8bd
00000340: 3b09 c9bd 8708 8ebd d29a bf3c 367d d1bd
00000350: 6873 12bd 9f1b 5abd 6cec 74bd 5227 fbbc
00000360: 9e9e b1bd 24d1 e4bb abdc 4cbd e788 4abd
00000370: 3d57 16bd 1e10 65bd bb35 f1bd 4a77 b8bd
00000380: 6016 6c3c
-0.00722424 -0.018399794 -0.006988865 -0.06636184 -0.11086435 -0.092213884 -0.03209848 -0.06374726
-0.023409326 -0.07181284 -0.07291611 -0.059756752 -0.05839259 -0.1536568 -0.012697263 -0.05263011
-0.07398204 -0.045105338 0.03360503 -0.006121729 -0.0014270543 -0.011210023 -0.06860456 -0.0898442
-0.07206438 -0.0224974 -0.044664636 -0.092482634 -0.09365823 -0.05871927 -0.026695184 -0.028634397
-0.096775964 -0.12255862 0.0017309933 -0.09311949 -0.08862199 -0.050793 -0.06343914 0.027903255
-0.050702594 -0.017472738 -0.07800867 -0.036776695 0.022798771 -0.10254352 -0.08018946 -0.087692656
-0.08060139 -0.13730612 -0.011052467 -0.07927757 -0.07491828 -0.0061317477 -0.037846148 -0.025582554
-0.018778235 -0.021566313 -0.030699698 0.0340993 0.004641778 -0.022915173 -0.06454827 -0.03990704
-0.032798417 -0.012450123 0.023698788 -0.06969799 -0.007208709 0.04180164 -0.02048161 -0.013619595
0.018221477 -0.063052915 -0.011451844 0.050058607 0.015142178 -0.037184108 -0.01563235 -0.13836512
0.001239831 -0.066771746 0.09031809 0.063338086 0.06701427 0.033591483 -0.0069465735 0.0074415817
-0.028962834 0.020511065 -0.050043948 -0.033849504 0.012376048 -0.050762884 -0.043905094 -0.10450735
0.014972413 0.24202079 0.050526533 0.026082715 -0.027986983 -0.057645887 -0.028557053 -0.015548706
0.031772237 -0.020069245 0.045947723 -0.026026784 -0.039205812 -0.018746123 -0.0017188629 0.081984915
0.30714974 0.041773554 -0.065631874 -0.035057213 -0.06277084 -0.041244213 0.046838947 0.021259962
-0.04542533 0.010813105 0.034656134 0.017274933 0.062076997 0.10015923 0.06336199 0.17241243
0.052988276 -0.013940174 -0.06182859 -0.083967745 -0.045319784 -0.016112031 -0.035584968 -0.0020867048
0.07537131 0.060636412 0.017574137 0.03096847 -0.0057190103 0.030242443 0.02721142 0.013202883
-0.031676386 -0.11127616 -0.13390617 -0.09193772 -0.04598519 0.051533762 0.10933136 0.0022712816
-0.026593791 -0.03470469 0.034467306 0.050408036 0.020658497 -0.044484705 -0.04539639 -0.014196411
-0.0734596 -0.095154256 -0.07733337 -0.09020308 -0.03244328 0.06621418 -0.015330173 -0.014330935
0.023738768 0.029488297 -0.0270503 -0.0066795293 -0.024647566 -0.012636855 -0.060445637 -0.03413725
-0.04441386 -0.11511687 -0.10455687 -0.0564263 0.094823405 0.044079714 0.027173515 -0.07186288
0.008429765 -0.029592153 -0.029473856 -0.057581358 -0.08432131 -0.032674443 -0.05635851 -0.07990194
-0.074226595 -0.09131049 -0.018656591 0.06335138 -0.07263512 -0.011918582 -0.031386554 -0.0996791
-0.067676336 -0.1265882 -0.063570485 -0.021615643 -0.06445879 -0.03768558 -0.082997195 -0.09015548
-0.09816214 -0.0693522 0.023389254 -0.1022896 -0.03575459 -0.053248998 -0.059795782 -0.030658398
-0.08672832 -0.0069829393 -0.050015133 -0.049446966 -0.03670429 -0.055923574 -0.117778264 -0.090071276
0.0144096315
