Models/Success2/model.pt (torch_old, 9898 bytes, 3 tensors)

sigmas f4 [225]
00000000: 8ea6 803f 4a6c 823f 970c 733f e427 a93f
00000010: 774b 4740 23f1 923f a5f4 893f f20f 7a3f
00000020: 4684 b23f 27e7 e23f f536 0a40 b0a8 a53f
00000030: 9b78 ba3f b255 993f ae88 803f a250 803f
00000040: fb11 823f ed52 7f3f 1728 803f 92f4 823f
00000050: baab 803f f9ff 7f3f 1666 823f 166e 803f
00000060: d8af 803f 369f 853f f999 8a3f aa2a 7b3f
00000070: e8d7 843f 0021 813f ca5b 803f 5005 813f
00000080: 6676 803f e94d 823f 4121 813f 5673 803f
00000090: 8769 7d3f 2f28 803f cefd 7d3f 1189 7f3f
000000a0: 9850 803f 1f63 843f eef9 873f c6e1 833f
000000b0: 4282 7f3f e327 803f 4a97 7e3f f922 7f3f
000000c0: 94aa 813f d84a 803f 596f 803f 37a4 833f
000000d0: b525 6a3f 6a65 793f c45a 7f3f b42d 803f
000000e0: 3525 813f 0c3c 803f 6411 833f c9b2 803f
000000f0: 20b4 7f3f f017 803f f372 803f a804 803f
00000100: 522e 813f 946f 813f 291b 863f 1c33 343f
00000110: 49ce 6b3f e17b 7e3f a3bb 7f3f 7fd3 793f
00000120: 2969 803f 7277 803f 234d 7f3f 4b17 803f
00000130: 912b 813f f039 7f3f 917b 7f3f 9888 803f
00000140: b261 883f 4175 673f f05f c13e 8a34 4c3f
00000150: ac0c 753f 545b 803f a701 7c3f 4a6d 7d3f
00000160: ddfc 7f3f b6b5 7f3f 9130 803f 5607 803f
00000170: 4302 803f 52b4 7f3f 0882 813f 0cd0 833f
00000180: 4505 353f a2bc 343e df8f 1d3f e637 5c3f
00000190: 5546 7e3f 9c43 813f 1752 7f3f c25f 7f3f
000001a0: 36ac 7f3f b909 803f 3b09 803f c142 7f3f
000001b0: aa18 7f3f 45e6 7d3f b11a 783f bbb3 083f
000001c0: ab0d 2c3f 99a8 153f eb7e 823f 8e1d 7d3f
000001d0: ec14 803f 34fe 7f3f 4f0b 803f 5ee3 7f3f
000001e0: 9ffa 7f3f f6c1 7f3f d132 7f3f 236e 7d3f
000001f0: d76e 7c3f b374 753f 2bcf 3f3f 8431 4d3c
00000200: ef40 153f 64e5 8e3f f5a3 7e3f 25c5 813f
00000210: 3231 803f b538 7f3f ce1e 803f 2bf7 7f3f
00000220: 4493 7f3f 9a0a 7f3f 452d 7d3f 5ec1 7d3f
00000230: 6870 7f3f 2645 803f b951 443e be77 363f
00000240: 9470 863f 3721 7b3f 893c 7f3f 26e3 803f
00000250: 164e 803f e115 803f 1f04 803f 8e3a 7f3f
00000260: 0929 7d3f ad09 7c3f 9ea6 7b3f ce38 843f
00000270: 921e 733f 6d22 cd3e f878 613f 661b 7b3f
00000280: ea6a 7e3f 7a3c 7f3f 9103 803f 3e12 7f3f
00000290: 6297 803f 8b8f 7f3f fc71 7f3f 642b 843f
000002a0: 6c68 7f3f 5de1 7e3f 1e41 7f3f 0d41 713f
000002b0: 2e04 363f a141 7c3f bd47 813f 2d9b 7f3f
000002c0: b673 773f d988 7f3f 537f 7f3f a5a8 7f3f
000002d0: 7719 803f 4e30 833f 0f0a 8c3f 97b5 833f
000002e0: 2237 803f 6c07 813f 9d2a 803f c764 773f
000002f0: d0e2 7f3f 87cb 7f3f b1e8 803f ef6c 803f
00000300: 2da4 803f f33b 7f3f 995b 813f 3812 7f3f
00000310: 9d0e 793f 5734 873f 8623 863f c95f 7f3f
00000320: 1181 873f f867 873f 5ec5 873f 6b57 833f
00000330: 62d0 803f befa 7f3f 1f4c 883f 12b7 813f
00000340: c455 7a3f fb6a 853f 5fc0 7f3f 9b7c 8b3f
00000350: 11af 993f 334e d73f aee4 aa3f e0b5 dd3f
00000360: ac63 c03f c9d5 b43f 153c 9f3f 1887 963f
00000370: 9fb8 8e3f 2872 883f 3277 783f d063 a63f
00000380: 83f2 853f
1.0050828 1.0189297 0.94941086 1.3215299 3.113981 1.1479839 1.0777785 0.9768058
1.3946617 1.7726792 2.1596043 1.2942104 1.4568056 1.1979277 1.0041711 1.0024607
1.0161737 0.9973591 1.0012234 1.0230887 1.0052407 0.9999996 1.0187404 1.0033596
1.0053663 1.0439212 1.0828239 0.98111975 1.0378389 1.0088196 1.0028012 1.0079746
1.0036132 1.0180026 1.0088273 1.0035198 0.98989147 1.0012263 0.992154 0.9981852
1.0024595 1.0342749 1.0623147 1.0303276 0.9980813 1.0012172 0.994496 0.9966274
1.0130181 1.002284 1.0033981 1.0284489 0.91463786 0.9742037 0.9974787 1.0013947
1.008948 1.0018325 1.0239682 1.0054561 0.99884224 1.0007305 1.003508 1.0001421
1.0092261 1.0112176 1.0477039 0.70390487 0.9211164 0.99407774 0.99895686 0.9758834
1.0032092 1.0036452 0.99727076 1.0007108 1.009142 0.9969778 0.9979792 1.0041685
1.0654814 0.9041329 0.37768507 0.7976767 0.9572246 1.0027871 0.9844002 0.98994887
0.99995214 0.99886644 1.0014821 1.0002239 1.000069 0.9988452 1.0117807 1.0297866
0.70711166 0.17650083 0.61547655 0.86022794 0.9932607 1.0098758 0.99734634 0.9975549
0.9987215 1.0002967 1.0002817 0.99711233 0.9964701 0.9917949 0.9691573 0.53399247
0.67208356 0.58460385 1.0194982 0.9887322 1.0006385 0.9999726 1.0003451 0.9995631
0.9999179 0.99905336 0.99686915 0.9899618 0.9860663 0.95881194 0.7492549 0.0125240125
0.58302206 1.1163754 0.9946893 1.0138289 1.0015013 0.99695903 1.0009401 0.99986523
0.99834085 0.9962555 0.988972 0.9912318 0.99780893 1.0021102 0.191718 0.7127646
1.0503106 0.98097557 0.99701744 1.006932 1.002383 1.0006677 1.0001258 0.9969872
0.9889074 0.98452264 0.9830111 1.0329835 0.9496852 0.40065327 0.8807521 0.9808868
0.9938189 0.99701655 1.0001088 0.9963721 1.0046198 0.99828404 0.997833 1.0325742
0.9976871 0.9956263 0.99708736 0.94239885 0.7110013 0.9853764 1.0100018 0.99846154
0.96660936 0.9981819 0.99803656 0.99866706 1.0007771 1.0249116 1.094057 1.0289792
1.0016825 1.008039 1.0013005 0.9663815 0.99955463 0.99919933 1.0071012 1.0033244
1.0050102 0.9970085 1.0106078 0.99637175 0.97287923 1.0562848 1.0479591 0.9975553
1.0586263 1.0578604 1.0607107 1.0261053 1.0063593 0.9999198 1.064823 1.0133994
0.9778712 1.0423273 0.9990291 1.0897402 1.2006551 1.682074 1.3351038 1.7321129
1.5030417 1.4127742 1.244021 1.1759977 1.1150092 1.0659838 0.9705688 1.299921
1.0464634

centres f4 [225, 2]
00000000: db0f 49c0 d153 fbc0 db0f 49c0 6a6c d7c0
00000010: db0f 49c0 0385 b3c0 db0f 49c0 9c9d 8fc0
00000020: db0f 49c0 6a6c 57c0 db0f 49c0 9c9d 0fc0
00000030: db0f 49c0 9c9d 8fbf db0f 49c0 0000 0000
00000040: db0f 49c0 9c9d 8f3f db0f 49c0 9c9d 0f40
00000050: db0f 49c0 6a6c 5740 db0f 49c0 9c9d 8f40
00000060: db0f 49c0 0385 b340 db0f 49c0 6a6c d740
00000070: db0f 49c0 d153 fb40 bb56 2cc0 d153 fbc0
00000080: bb56 2cc0 6a6c d7c0 bb56 2cc0 0385 b3c0
00000090: bb56 2cc0 9c9d 8fc0 bb56 2cc0 6a6c 57c0
000000a0: bb56 2cc0 9c9d 0fc0 bb56 2cc0 9c9d 8fbf
000000b0: bb56 2cc0 0000 0000 bb56 2cc0 9c9d 8f3f
000000c0: bb56 2cc0 9c9d 0f40 bb56 2cc0 6a6c 5740
000000d0: bb56 2cc0 9c9d 8f40 bb56 2cc0 0385 b340
000000e0: bb56 2cc0 6a6c d740 bb56 2cc0 d153 fb40
000000f0: 9c9d 0fc0 d153 fbc0 9c9d 0fc0 6a6c d7c0
00000100: 9c9d 0fc0 0385 b3c0 9c9d 0fc0 9c9d 8fc0
00000110: 9c9d 0fc0 6a6c 57c0 9c9d 0fc0 9c9d 0fc0
00000120: 9c9d 0fc0 9c9d 8fbf 9c9d 0fc0 0000 0000
00000130: 9c9d 0fc0 9c9d 8f3f 9c9d 0fc0 9c9d 0f40
00000140: 9c9d 0fc0 6a6c 5740 9c9d 0fc0 9c9d 8f40
00000150: 9c9d 0fc0 0385 b340 9c9d 0fc0 6a6c d740
00000160: 9c9d 0fc0 d153 fb40 fac8 e5bf d153 fbc0
00000170: fac8 e5bf 6a6c d7c0 fac8 e5bf 0385 b3c0
00000180: fac8 e5bf 9c9d 8fc0 fac8 e5bf 6a6c 57c0
00000190: fac8 e5bf 9c9d 0fc0 fac8 e5bf 9c9d 8fbf
000001a0: fac8 e5bf 0000 0000 fac8 e5bf 9c9d 8f3f
000001b0: fac8 e5bf 9c9d 0f40 fac8 e5bf 6a6c 5740
000001c0: fac8 e5bf 9c9d 8f40 fac8 e5bf 0385 b340
000001d0: fac8 e5bf 6a6c d740 fac8 e5bf d153 fb40
000001e0: bb56 acbf d153 fbc0 bb56 acbf 6a6c d7c0
000001f0: bb56 acbf 0385 b3c0 bb56 acbf 9c9d 8fc0
00000200: bb56 acbf 6a6c 57c0 bb56 acbf 9c9d 0fc0
00000210: bb56 acbf 9c9d 8fbf bb56 acbf 0000 0000
00000220: bb56 acbf 9c9d 8f3f bb56 acbf 9c9d 0f40
00000230: bb56 acbf 6a6c 5740 bb56 acbf 9c9d 8f40
00000240: bb56 acbf 0385 b340 bb56 acbf 6a6c d740
00000250: bb56 acbf d153 fb40 fac8 65bf d153 fbc0
00000260: fac8 65bf 6a6c d7c0 fac8 65bf 0385 b3c0
00000270: fac8 65bf 9c9d 8fc0 fac8 65bf 6a6c 57c0
00000280: fac8 65bf 9c9d 0fc0 fac8 65bf 9c9d 8fbf
00000290: fac8 65bf 0000 0000 fac8 65bf 9c9d 8f3f
000002a0: fac8 65bf 9c9d 0f40 fac8 65bf 6a6c 5740
000002b0: fac8 65bf 9c9d 8f40 fac8 65bf 0385 b340
000002c0: fac8 65bf 6a6c d740 fac8 65bf d153 fb40
000002d0: fac8 e5be d153 fbc0 fac8 e5be 6a6c d7c0
000002e0: fac8 e5be 0385 b3c0 fac8 e5be 9c9d 8fc0
000002f0: fac8 e5be 6a6c 57c0 fac8 e5be 9c9d 0fc0
00000300: fac8 e5be 9c9d 8fbf fac8 e5be 0000 0000
00000310: fac8 e5be 9c9d 8f3f fac8 e5be 9c9d 0f40
00000320: fac8 e5be 6a6c 5740 fac8 e5be 9c9d 8f40
00000330: fac8 e5be 0385 b340 fac8 e5be 6a6c d740
00000340: fac8 e5be d153 fb40 0000 0000 d153 fbc0
00000350: 0000 0000 6a6c d7c0 0000 0000 0385 b3c0
00000360: 0000 0000 9c9d 8fc0 0000 0000 6a6c 57c0
00000370: 0000 0000 9c9d 0fc0 0000 0000 9c9d 8fbf
00000380: 0000 0000 0000 0000 0000 0000 9c9d 8f3f
00000390: 0000 0000 9c9d 0f40 0000 0000 6a6c 5740
000003a0: 0000 0000 9c9d 8f40 0000 0000 0385 b340
000003b0: 0000 0000 6a6c d740 0000 0000 d153 fb40
000003c0: fac8 e53e d153 fbc0 fac8 e53e 6a6c d7c0
000003d0: fac8 e53e 0385 b3c0 fac8 e53e 9c9d 8fc0
000003e0: fac8 e53e 6a6c 57c0 fac8 e53e 9c9d 0fc0
000003f0: fac8 e53e 9c9d 8fbf fac8 e53e 0000 0000
-3.1415927 -7.8539815 -3.1415927 -6.731984 -3.1415927 -5.609987 -3.1415927 -4.4879894
-3.1415927 -3.365992 -3.1415927 -2.2439947 -3.1415927 -1.1219974 -3.1415927 0.0
-3.1415927 1.1219974 -3.1415927 2.2439947 -3.1415927 3.365992 -3.1415927 4.4879894
-3.1415927 5.609987 -3.1415927 6.731984 -3.1415927 7.8539815 -2.6927936 -7.8539815
-2.6927936 -6.731984 -2.6927936 -5.609987 -2.6927936 -4.4879894 -2.6927936 -3.365992
-2.6927936 -2.2439947 -2.6927936 -1.1219974 -2.6927936 0.0 -2.6927936 1.1219974
-2.6927936 2.2439947 -2.6927936 3.365992 -2.6927936 4.4879894 -2.6927936 5.609987
-2.6927936 6.731984 -2.6927936 7.8539815 -2.2439947 -7.8539815 -2.2439947 -6.731984
-2.2439947 -5.609987 -2.2439947 -4.4879894 -2.2439947 -3.365992 -2.2439947 -2.2439947
-2.2439947 -1.1219974 -2.2439947 0.0 -2.2439947 1.1219974 -2.2439947 2.2439947
-2.2439947 3.365992 -2.2439947 4.4879894 -2.2439947 5.609987 -2.2439947 6.731984
-2.2439947 7.8539815 -1.7951958 -7.8539815 -1.7951958 -6.731984 -1.7951958 -5.609987
-1.7951958 -4.4879894 -1.7951958 -3.365992 -1.7951958 -2.2439947 -1.7951958 -1.1219974
-1.7951958 0.0 -1.7951958 1.1219974 -1.7951958 2.2439947 -1.7951958 3.365992
-1.7951958 4.4879894 -1.7951958 5.609987 -1.7951958 6.731984 -1.7951958 7.8539815
-1.3463968 -7.8539815 -1.3463968 -6.731984 -1.3463968 -5.609987 -1.3463968 -4.4879894
-1.3463968 -3.365992 -1.3463968 -2.2439947 -1.3463968 -1.1219974 -1.3463968 0.0
-1.3463968 1.1219974 -1.3463968 2.2439947 -1.3463968 3.365992 -1.3463968 4.4879894
-1.3463968 5.609987 -1.3463968 6.731984 -1.3463968 7.8539815 -0.8975979 -7.8539815
-0.8975979 -6.731984 -0.8975979 -5.609987 -0.8975979 -4.4879894 -0.8975979 -3.365992
-0.8975979 -2.2439947 -0.8975979 -1.1219974 -0.8975979 0.0 -0.8975979 1.1219974
-0.8975979 2.2439947 -0.8975979 3.365992 -0.8975979 4.4879894 -0.8975979 5.609987
-0.8975979 6.731984 -0.8975979 7.8539815 -0.44879895 -7.8539815 -0.44879895 -6.731984
-0.44879895 -5.609987 -0.44879895 -4.4879894 -0.44879895 -3.365992 -0.44879895 -2.2439947
-0.44879895 -1.1219974 -0.44879895 0.0 -0.44879895 1.1219974 -0.44879895 2.2439947
-0.44879895 3.365992 -0.44879895 4.4879894 -0.44879895 5.609987 -0.44879895 6.731984
-0.44879895 7.8539815 0.0 -7.8539815 0.0 -6.731984 0.0 -5.609987
0.0 -4.4879894 0.0 -3.365992 0.0 -2.2439947 0.0 -1.1219974
0.0 0.0 0.0 1.1219974 0.0 2.2439947 0.0 3.365992
0.0 4.4879894 0.0 5.609987 0.0 6.731984 0.0 7.8539815
0.44879895 -7.8539815 0.44879895 -6.731984 0.44879895 -5.609987 0.44879895 -4.4879894
0.44879895 -3.365992 0.44879895 -2.2439947 0.44879895 -1.1219974 0.44879895 0.0

weight f4 [1, 225]
00000000: 456e d0bc b36d 19bb e015 7dbd aa85 48be
00000010: 106c e53e 22f6 e1bd 62fe c43d 30d0 e5bd
00000020: e9b9 39bf 716c 27bf e243 c8be a6c7 6abe
00000030: ba4a bbbe f453 a8bd 046d 9abd 8229 a0bd
00000040: 3a19 6bbd dc61 b6bc 98f4 3abd 3ab8 93bd
00000050: 101d f8bc e68b aabd b37a d6bd 9209 1fbd
00000060: 6e69 ab3c 9b51 e93d 31e7 013d b2f4 893e
00000070: 487c 5d3d 46ce e8bd 0460 8cbd e057 afbd
00000080: 4264 aabd c067 90bd c78e bdbd 0a20 24bd
00000090: 28e0 743b 3f3d 9abc b3f9 3cbd eb1e f2bc
000000a0: 8820 6bbd 4cf8 4ebd df54 aa3d 1800 223d
000000b0: bb5e 663b 748f 7fbd c56d 56bd f8d1 6ebd
000000c0: 6ad7 8bbd 5011 6cbd 1a7e 3cbd 7507 15be
000000d0: 2023 043d ebce c83c c0d5 f6bc f0e3 57bd
000000e0: 7a76 a13d 95e0 8ebd cca5 8dbc ba16 b0bd
000000f0: b9e2 2abc 574b 81bd 9988 dcbd 9565 8abd
00000100: 43fa 4cbd de0f 89bd 308d f3be 2aee 2c3c
00000110: 3547 e63d 5c46 e43c 5b1f ce3c d53e 7b3d
00000120: 1a07 473d 5e21 79bd 04fb 1f3d f446 cbbc
00000130: 1cb2 9abd b3ed 81bd a67a dcbd 8b06 2cbd
00000140: 0c99 55be c31f 2bbf 3fb1 1e3e 3ee4 613e
00000150: 24e9 383c c3cb ac3d c04a 76bc 221a a43d
00000160: 46dd b5bc 66c5 c93c a87a 7dbd 2ac5 e6bb
00000170: 5149 47bd cdd3 ccbd 02b8 d5bd 5a18 ffbd
00000180: 9b52 2bbf abc4 1f3e 49b8 bd3d 78d4 df3d
00000190: 87ef d9bc 758a d43c 3f1e 333d cbff 5d3d
000001a0: 480f 623d fab0 55bd baaa abbc 2a4f 12bc
000001b0: 9467 48bd 04f6 f8bc 9c51 8abc c1aa 85be
000001c0: 3100 273e e731 a5be b720 2fbe 61da 623c
000001d0: 1771 3abc d25b a93c 5c59 0ebd 1a33 7f3c
000001e0: db96 d3bc d73e 02bd 42c3 253c 1324 92bc
000001f0: 91de 713d e4ea 873d c104 a93e 225d bd3e
00000200: d492 e8be bd4d bbbe 8eec 8bbb 99fa 6fbd
00000210: 579b 113d dbfa e33c 4702 11bd ebd6 2f3d
00000220: 621c d63c 690d 283d 970b e43c 53c0 5cbc
00000230: 03f7 9d3c 3d58 013f 1829 afbf 18d5 abbe
00000240: 423e 2ebe 5c41 2bbe 73c4 b2bc f6a3 8ebd
00000250: ed4a 42bd 52a5 22bd fee9 2dbc 6815 a73c
00000260: 4dac 253d 5a5a 1b3d a56d 9e3d 5063 723d
00000270: 3225 353e 7f67 1bbf 0a48 f7bd eeb0 43bc
00000280: f182 2dbe 00be 63be 90af 96bd 3061 1ebc
00000290: ff16 a7bd 086f d43c eb0a 8fbd adb1 383b
000002a0: 8037 89bd fb22 27bd 8e4b 99bd 040c 8ebc
000002b0: 6a53 60be 5fde 91bd 1321 8bbc 128f 80bd
000002c0: be85 1dbe 8e37 e1bd 8ee3 66bd 2f2c 8fbb
000002d0: be12 20bd 9027 5d3d 6727 0d3c 8cdf bdbb
000002e0: c5f5 eabc 4526 81bd 50c5 adbd fd21 09be
000002f0: d04f 62bc 6197 45bc f954 64bc caeb 583b
00000300: f9a8 aabd 3b9e dabd 7c02 05bd 0fce 013c
00000310: eff4 b43d 58da 103e 3f07 1f3e 23f2 633d
00000320: 49be 0fbe 7791 27be 5304 21be 85e2 bdbd
00000330: 139d 3abd 7083 253c 3896 f3bc 2ed6 a5bd
00000340: 6a61 c8bd 9200 4bbe f58c 40bd 173d 1fbe
00000350: b42d 27be e74a cdbe a5ae 63be 32d8 1fbf
00000360: 5aad 05bf 84f5 00bf 8e6d a5be 9ff2 79be
00000370: e050 3fbe 87f5 26be 72f4 1dbe 3b32 9d3e
00000380: 4d43 afbb
-0.025443206 -0.0023411333 -0.06178844 -0.19582239 0.44809008 -0.11033274 0.09618832 -0.11221349
-0.725493 -0.65399843 -0.3911429 -0.22927722 -0.3658045 -0.08219138 -0.07540324 -0.07820417
-0.057397105 -0.02226346 -0.04564342 -0.07212873 -0.030287296 -0.08327465 -0.10472622 -0.038827486
0.020924296 0.11392518 0.031714622 0.269445 0.054073602 -0.113674685 -0.06854251 -0.08561683
-0.08319904 -0.07051039 -0.09255748 -0.040069617 0.0037365053 -0.018828033 -0.04613657 -0.029555758
-0.05740407 -0.050529763 0.08316969 0.03955087 0.0035151679 -0.062392667 -0.052350778 -0.05830571
-0.06828196 -0.057633698 -0.046018697 -0.14553626 0.03226006 0.024512729 -0.03013122 -0.052707613
0.07883926 -0.069764294 -0.017290972 -0.08598085 -0.010430031 -0.06313198 -0.107682414 -0.067576565
-0.050043356 -0.066924796 -0.47568655 0.01055483 0.112440504 0.027865581 0.025161436 0.06133922
0.048590757 -0.060822837 0.039057747 -0.024814107 -0.07553503 -0.06344166 -0.10765581 -0.041998427
-0.20859164 -0.6684534 0.15497302 0.22059724 0.011286054 0.08437302 -0.01503247 0.08012797
-0.022200238 0.02463026 -0.061884552 -0.0070425468 -0.048653904 -0.10001335 -0.10435487 -0.124558166
-0.6692292 0.15602367 0.09263665 0.10929197 -0.026603473 0.025944928 0.043730017 0.05419902
0.055190355 -0.05217073 -0.020955432 -0.008930007 -0.048926905 -0.030390747 -0.016884618 -0.26106837
0.16308667 -0.32264635 -0.17102323 0.013846011 -0.011379502 0.020673666 -0.03475319 0.015576148
-0.02582877 -0.03179821 0.010117354 -0.017839467 0.059050146 0.06636599 0.3301144 0.36985117
-0.4542452 -0.36582747 -0.004270143 -0.058588598 0.035548534 0.027829578 -0.035402562 0.04292957
0.02613658 0.041028414 0.027837558 -0.013473588 0.019282823 0.50525266 -1.3684416 -0.33561015
-0.17015937 -0.16724151 -0.02182219 -0.06964867 -0.047434736 -0.039708443 -0.01061487 0.02039595
0.040447522 0.037927963 0.07735757 0.059176743 0.1768997 -0.607048 -0.12074287 -0.011944039
-0.16944481 -0.22240448 -0.07357705 -0.009666726 -0.08158683 0.02593185 -0.06984504 0.0028182075
-0.06700039 -0.040804844 -0.07485114 -0.017339714 -0.2190682 -0.07122492 -0.016983544 -0.062772885
-0.1538305 -0.10996924 -0.056369357 -0.0043692808 -0.039080374 0.053992808 0.008615351 -0.005794471
-0.028681645 -0.063061275 -0.084849 -0.13391872 -0.013812974 -0.012060017 -0.013936275 0.0033099526
-0.0833301 -0.10674711 -0.032473072 0.007922663 0.0883578 0.14145792 0.15530108 0.05565084
-0.14037432 -0.16364084 -0.15724306 -0.09271721 -0.045559954 0.010102138 -0.029734716 -0.08097492
-0.09784205 -0.19824436 -0.047009427 -0.15550648 -0.16326028 -0.40096208 -0.2223459 -0.6243926
-0.5221764 -0.5037463 -0.32310146 -0.24408959 -0.18683195 -0.16304599 -0.1542528 0.30702385
-0.005348599
