Models/Success4_v3/model.pt (torch_old, 10071 bytes, 3 tensors)

sigmas f4 [225]
0.9998075 1.0019203 1.0034086 1.0003871 0.99626064 1.0045334 1.0001007 1.0064882
1.0013328 0.99844205 1.0012383 0.99773234 0.9970907 0.9978736 1.0009952 0.99887633
0.99896073 1.0012313 0.9975793 1.0050149 0.99712116 1.0087321 0.9988867 1.0259973
0.99975544 1.0002018 0.99995697 0.99783915 0.9981202 0.99949235 0.99894226 0.9993203
1.0030602 1.000039 0.99697536 1.0040115 1.0267525 1.0400077 1.0379144 0.99940616
1.0015413 0.9979549 0.99948525 0.9996577 1.0010865 0.9996238 1.0002905 0.99903667
1.002036 1.0096118 0.9985477 1.0127345 1.0528127 1.0228926 1.0145245 0.9965685
0.9997785 1.0005051 0.99922913 0.99863404 1.0005568 0.998999 1.0018146 1.0019485
0.9986544 1.0 1.0515077 0.9826111 0.98140293 0.99526584 1.0139732 1.0006685
0.9986613 0.9996824 1.0003648 1.0004963 1.0003184 1.0014868 0.9974213 0.9992764
0.9997651 1.0103964 0.9495074 1.0510689 0.985544 1.0096964 1.0025218 1.0036577
0.99994606 0.99906564 0.99986255 1.0003575 1.0005462 0.99873877 0.9992641 1.0013696
0.9880377 0.9809119 0.9789793 0.9996371 1.0106556 0.997866 0.9986138 1.0005293
0.9997184 1.000142 0.9996868 0.9996525 0.9993759 1.0028676 1.0015899 1.0040101
0.6960277 0.9774795 1.0033618 0.9959472 0.99993265 1.000202 1.0009499 1.0000365
1.0001342 1.0000626 0.9996224 0.9993892 1.0098786 1.0148753 0.99812627 0.99458754
1.0149785 1.0070115 0.99961156 1.0010324 0.99989444 1.0003109 0.9999151 0.9997359
0.99978536 1.0032903 1.0015478 1.0054778 1.017705 1.0034122 0.8595623 0.96864724
1.0004389 0.9980121 1.0051824 0.99929154 0.9988581 0.99975735 1.0001181 0.9999204
1.0039228 1.0027319 1.000111 1.006174 1.0027095 0.9508149 1.0412846 1.0039973
1.0078745 1.0021633 0.9986849 0.99906063 0.9999331 0.99995184 0.9999321 0.9997605
1.0019866 1.0013599 0.99692327 0.99861914 1.0162649 1.0495006 1.0152419 1.0090151
1.0025395 1.0012769 1.0027019 1.000647 1.0000311 0.99984044 1.0008085 0.9979105
0.9997908 0.994464 1.0102319 1.0160394 1.0095885 1.0008409 1.002748 0.99994874
0.9997772 1.0005231 1.0002114 1.000139 1.000752 0.9982347 1.0014313 0.99816066
0.9964621 0.9961673 1.003641 1.0141139 0.9998922 1.00555 1.0021397 0.9984557
1.0017705 1.0001223 0.99995804 0.99979866 0.99960047 0.9996397 1.0010617 1.0025432
1.0099498 0.995737 0.9957389 1.004196 0.99581283 1.0025036 1.0033908 1.0002059
1.000567
00000000: 62f3 7f3f ed3e 803f b16f 803f af0c 803f
00000010: f00a 7f3f 8d94 803f 4d03 803f 9bd4 803f
00000020: ac2b 803f e699 7f3f 9428 803f 636b 7f3f
00000030: 5641 7f3f a574 7f3f 9c20 803f 5cb6 7f3f
00000040: e4bb 7f3f 5928 803f 5b61 7f3f 54a4 803f
00000050: 5543 7f3f 221e 813f 0ab7 7f3f e153 833f
00000060: f9ef 7f3f 9d06 803f 2efd 7f3f 6372 7f3f
00000070: ce84 7f3f bbde 7f3f aeba 7f3f 75d3 7f3f
00000080: 4764 803f 4701 803f c739 7f3f 7383 803f
00000090: a06c 833f f91e 853f 61da 843f 15d9 7f3f
000000a0: 8132 803f f979 7f3f 44de 7f3f 91e9 7f3f
000000b0: 9a23 803f 58e7 7f3f 8509 803f dec0 7f3f
000000c0: b742 803f f63a 813f d2a0 7f3f 49a1 813f
000000d0: 91c2 863f 25ee 823f f0db 813f 1d1f 7f3f
000000e0: 7cf1 7f3f 8d10 803f 7bcd 7f3f 7ba6 7f3f
000000f0: 3f12 803f 66be 7f3f 763b 803f d93f 803f
00000100: d1a7 7f3f 0000 803f ce97 863f 678c 7b3f
00000110: 393d 7b3f bec9 7e3f e0c9 813f e815 803f
00000120: 44a8 7f3f 30eb 7f3f f40b 803f 4310 803f
00000130: 6f0a 803f b830 803f 0157 7f3f 94d0 7f3f
00000140: 9bf0 7f3f ab54 813f eb12 733f 6d89 863f
00000150: 9d4c 7c3f bb3d 813f a252 803f db77 803f
00000160: 77fc 7f3f c4c2 7f3f fef6 7f3f b70b 803f
00000170: e611 803f 58ad 7f3f c6cf 7f3f e12c 803f
00000180: 0af0 7c3f 0b1d 7b3f 639e 7a3f 38e8 7f3f
00000190: 2a5d 813f 2574 7f3f 27a5 7f3f 5811 803f
000001a0: 8ced 7f3f a704 803f 79eb 7f3f 3ae9 7f3f
000001b0: 19d7 7f3f f75d 803f 1934 803f 6783 803f
000001c0: df2e 323f 193c 7a3f 296e 803f 65f6 7e3f
000001d0: 96fb 7f3f 9e06 803f 201f 803f 3201 803f
000001e0: 6604 803f 0d02 803f 41e7 7f3f f8d7 7f3f
000001f0: b443 813f 6fe7 813f 3485 7f3f 4a9d 7e3f
00000200: d1ea 813f c1e5 803f 8be6 7f3f d421 803f
00000210: 15f9 7f3f 300a 803f 70fa 7f3f b1ee 7f3f
00000220: eff1 7f3f d16b 803f b832 803f 7fb3 803f
00000230: 2844 823f d06f 803f 460c 5c3f 44f9 773f
00000240: 620e 803f b97d 7f3f d1a9 803f 92d1 7f3f
00000250: 2ab5 7f3f 19f0 7f3f df03 803f c9fa 7f3f
00000260: 8b80 803f 8559 803f a303 803f 4fca 803f
00000270: c958 803f 9b68 733f d048 853f fc82 803f
00000280: 0802 813f e346 803f d0a9 7f3f 70c2 7f3f
00000290: 9efb 7f3f d8fc 7f3f 8dfb 7f3f 4ef0 7f3f
000002a0: 1941 803f 902c 803f 5d36 7f3f 81a5 7f3f
000002b0: f814 823f 0956 863f 72f3 813f 6827 813f
000002c0: 3753 803f d729 803f 8958 803f 3315 803f
000002d0: 0501 803f 8bf5 7f3f 7e1a 803f 1077 7f3f
000002e0: 4af2 7f3f 3195 7e3f 474f 813f 940d 823f
000002f0: 323a 813f 8e1b 803f 0c5a 803f a4fc 7f3f
00000300: 66f1 7f3f 2411 803f ed06 803f 8e04 803f
00000310: a418 803f 4f8c 7f3f e72e 803f 7587 7f3f
00000320: 2418 7f3f d204 7f3f 4f77 803f 7cce 813f
00000330: eff8 7f3f ddb5 803f 1d46 803f cb9a 7f3f
00000340: 043a 803f 0204 803f 40fd 7f3f cef2 7f3f
00000350: d1e5 7f3f 63e8 7f3f ca22 803f 5653 803f
00000360: 0946 813f 9fe8 7e3f bfe8 7e3f 7f89 803f
00000370: 97ed 7e3f 0a52 803f 1c6f 803f bf06 803f
00000380: 9412 803f

centres f4 [225, 2]
-3.1415927 -7.8539815 -3.1415927 -6.731984 -3.1415927 -5.609987 -3.1415927 -4.4879894
-3.1415927 -3.365992 -3.1415927 -2.2439947 -3.1415927 -1.1219974 -3.1415927 0.0
-3.1415927 1.1219974 -3.1415927 2.2439947 -3.1415927 3.365992 -3.1415927 4.4879894
-3.1415927 5.609987 -3.1415927 6.731984 -3.1415927 7.8539815 -2.6927936 -7.8539815
-2.6927936 -6.731984 -2.6927936 -5.609987 -2.6927936 -4.4879894 -2.6927936 -3.365992
-2.6927936 -2.2439947 -2.6927936 -1.1219974 -2.6927936 0.0 -2.6927936 1.1219974
-2.6927936 2.2439947 -2.6927936 3.365992 -2.6927936 4.4879894 -2.6927936 5.609987
-2.6927936 6.731984 -2.6927936 7.8539815 -2.2439947 -7.8539815 -2.2439947 -6.731984
-2.2439947 -5.609987 -2.2439947 -4.4879894 -2.2439947 -3.365992 -2.2439947 -2.2439947
-2.2439947 -1.1219974 -2.2439947 0.0 -2.2439947 1.1219974 -2.2439947 2.2439947
-2.2439947 3.365992 -2.2439947 4.4879894 -2.2439947 5.609987 -2.2439947 6.731984
-2.2439947 7.8539815 -1.7951958 -7.8539815 -1.7951958 -6.731984 -1.7951958 -5.609987
-1.7951958 -4.4879894 -1.7951958 -3.365992 -1.7951958 -2.2439947 -1.7951958 -1.1219974
-1.7951958 0.0 -1.7951958 1.1219974 -1.7951958 2.2439947 -1.7951958 3.365992
-1.7951958 4.4879894 -1.7951958 5.609987 -1.7951958 6.731984 -1.7951958 7.8539815
-1.3463968 -7.8539815 -1.3463968 -6.731984 -1.3463968 -5.609987 -1.3463968 -4.4879894
-1.3463968 -3.365992 -1.3463968 -2.2439947 -1.3463968 -1.1219974 -1.3463968 0.0
-1.3463968 1.1219974 -1.3463968 2.2439947 -1.3463968 3.365992 -1.3463968 4.4879894
-1.3463968 5.609987 -1.3463968 6.731984 -1.3463968 7.8539815 -0.8975979 -7.8539815
-0.8975979 -6.731984 -0.8975979 -5.609987 -0.8975979 -4.4879894 -0.8975979 -3.365992
-0.8975979 -2.2439947 -0.8975979 -1.1219974 -0.8975979 0.0 -0.8975979 1.1219974
-0.8975979 2.2439947 -0.8975979 3.365992 -0.8975979 4.4879894 -0.8975979 5.609987
-0.8975979 6.731984 -0.8975979 7.8539815 -0.44879895 -7.8539815 -0.44879895 -6.731984
-0.44879895 -5.609987 -0.44879895 -4.4879894 -0.44879895 -3.365992 -0.44879895 -2.2439947
-0.44879895 -1.1219974 -0.44879895 0.0 -0.44879895 1.1219974 -0.44879895 2.2439947
-0.44879895 3.365992 -0.44879895 4.4879894 -0.44879895 5.609987 -0.44879895 6.731984
-0.44879895 7.8539815 0.0 -7.8539815 0.0 -6.731984 0.0 -5.609987
0.0 -4.4879894 0.0 -3.365992 0.0 -2.2439947 0.0 -1.1219974
0.0 0.0 0.0 1.1219974 0.0 2.2439947 0.0 3.365992
0.0 4.4879894 0.0 5.609987 0.0 6.731984 0.0 7.8539815
0.44879895 -7.8539815 0.44879895 -6.731984 0.44879895 -5.609987 0.44879895 -4.4879894
0.44879895 -3.365992 0.44879895 -2.2439947 0.44879895 -1.1219974 0.44879895 0.0
00000000: db0f 49c0 d153 fbc0 db0f 49c0 6a6c d7c0
00000010: db0f 49c0 0385 b3c0 db0f 49c0 9c9d 8fc0
00000020: db0f 49c0 6a6c 57c0 db0f 49c0 9c9d 0fc0
00000030: db0f 49c0 9c9d 8fbf db0f 49c0 0000 0000
00000040: db0f 49c0 9c9d 8f3f db0f 49c0 9c9d 0f40
00000050: db0f 49c0 6a6c 5740 db0f 49c0 9c9d 8f40
00000060: db0f 49c0 0385 b340 db0f 49c0 6a6c d740
00000070: db0f 49c0 d153 fb40 bb56 2cc0 d153 fbc0
00000080: bb56 2cc0 6a6c d7c0 bb56 2cc0 0385 b3c0
00000090: bb56 2cc0 9c9d 8fc0 bb56 2cc0 6a6c 57c0
000000a0: bb56 2cc0 9c9d 0fc0 bb56 2cc0 9c9d 8fbf
000000b0: bb56 2cc0 0000 0000 bb56 2cc0 9c9d 8f3f
000000c0: bb56 2cc0 9c9d 0f40 bb56 2cc0 6a6c 5740
000000d0: bb56 2cc0 9c9d 8f40 bb56 2cc0 0385 b340
000000e0: bb56 2cc0 6a6c d740 bb56 2cc0 d153 fb40
000000f0: 9c9d 0fc0 d153 fbc0 9c9d 0fc0 6a6c d7c0
00000100: 9c9d 0fc0 0385 b3c0 9c9d 0fc0 9c9d 8fc0
00000110: 9c9d 0fc0 6a6c 57c0 9c9d 0fc0 9c9d 0fc0
00000120: 9c9d 0fc0 9c9d 8fbf 9c9d 0fc0 0000 0000
00000130: 9c9d 0fc0 9c9d 8f3f 9c9d 0fc0 9c9d 0f40
00000140: 9c9d 0fc0 6a6c 5740 9c9d 0fc0 9c9d 8f40
00000150: 9c9d 0fc0 0385 b340 9c9d 0fc0 6a6c d740
00000160: 9c9d 0fc0 d153 fb40 fac8 e5bf d153 fbc0
00000170: fac8 e5bf 6a6c d7c0 fac8 e5bf 0385 b3c0
00000180: fac8 e5bf 9c9d 8fc0 fac8 e5bf 6a6c 57c0
00000190: fac8 e5bf 9c9d 0fc0 fac8 e5bf 9c9d 8fbf
000001a0: fac8 e5bf 0000 0000 fac8 e5bf 9c9d 8f3f
000001b0: fac8 e5bf 9c9d 0f40 fac8 e5bf 6a6c 5740
000001c0: fac8 e5bf 9c9d 8f40 fac8 e5bf 0385 b340
000001d0: fac8 e5bf 6a6c d740 fac8 e5bf d153 fb40
000001e0: bb56 acbf d153 fbc0 bb56 acbf 6a6c d7c0
000001f0: bb56 acbf 0385 b3c0 bb56 acbf 9c9d 8fc0
00000200: bb56 acbf 6a6c 57c0 bb56 acbf 9c9d 0fc0
00000210: bb56 acbf 9c9d 8fbf bb56 acbf 0000 0000
00000220: bb56 acbf 9c9d 8f3f bb56 acbf 9c9d 0f40
00000230: bb56 acbf 6a6c 5740 bb56 acbf 9c9d 8f40
00000240: bb56 acbf 0385 b340 bb56 acbf 6a6c d740
00000250: bb56 acbf d153 fb40 fac8 65bf d153 fbc0
00000260: fac8 65bf 6a6c d7c0 fac8 65bf 0385 b3c0
00000270: fac8 65bf 9c9d 8fc0 fac8 65bf 6a6c 57c0
00000280: fac8 65bf 9c9d 0fc0 fac8 65bf 9c9d 8fbf
00000290: fac8 65bf 0000 0000 fac8 65bf 9c9d 8f3f
000002a0: fac8 65bf 9c9d 0f40 fac8 65bf 6a6c 5740
000002b0: fac8 65bf 9c9d 8f40 fac8 65bf 0385 b340
000002c0: fac8 65bf 6a6c d740 fac8 65bf d153 fb40
000002d0: fac8 e5be d153 fbc0 fac8 e5be 6a6c d7c0
000002e0: fac8 e5be 0385 b3c0 fac8 e5be 9c9d 8fc0
000002f0: fac8 e5be 6a6c 57c0 fac8 e5be 9c9d 0fc0
00000300: fac8 e5be 9c9d 8fbf fac8 e5be 0000 0000
00000310: fac8 e5be 9c9d 8f3f fac8 e5be 9c9d 0f40
00000320: fac8 e5be 6a6c 5740 fac8 e5be 9c9d 8f40
00000330: fac8 e5be 0385 b340 fac8 e5be 6a6c d740
00000340: fac8 e5be d153 fb40 0000 0000 d153 fbc0
00000350: 0000 0000 6a6c d7c0 0000 0000 0385 b3c0
00000360: 0000 0000 9c9d 8fc0 0000 0000 6a6c 57c0
00000370: 0000 0000 9c9d 0fc0 0000 0000 9c9d 8fbf
00000380: 0000 0000 0000 0000 0000 0000 9c9d 8f3f
00000390: 0000 0000 9c9d 0f40 0000 0000 6a6c 5740
000003a0: 0000 0000 9c9d 8f40 0000 0000 0385 b340
000003b0: 0000 0000 6a6c d740 0000 0000 d153 fb40
000003c0: fac8 e53e d153 fbc0 fac8 e53e 6a6c d7c0
000003d0: fac8 e53e 0385 b3c0 fac8 e53e 9c9d 8fc0
000003e0: fac8 e53e 6a6c 57c0 fac8 e53e 9c9d 0fc0
000003f0: fac8 e53e 9c9d 8fbf fac8 e53e 0000 0000

weight f4 [1, 225]
-0.010769326 -0.05686376 -0.053583957 -0.009467863 0.017705524 -0.10811974 -0.025986811 -0.0630923
-0.046649814 -0.03404783 -0.041423015 -0.03113056 -0.060237296 -0.03641751 -0.03129064 0.02099421
0.009515606 0.0052133854 0.025125166 -0.08190588 -0.026690362 -0.10377165 -0.02475699 -0.1649294
-0.0677633 -0.0771024 0.034631435 0.027237834 -0.049629044 0.0048462646 0.017068118 -0.014307806
-0.05802681 -0.01962685 -0.0061781546 -0.1054992 -0.1520068 -0.15809353 -0.1755732 -0.015882757
0.028802818 0.0016454812 0.11016968 -0.063501395 -0.03839517 -0.004874322 -0.041862 -0.008734243
-0.059323788 -0.105831616 -0.010516134 -0.0634058 -0.26394224 -0.20327568 -0.04985423 -0.0051498273
0.078055575 0.026055962 0.04424392 0.041535713 -0.025076607 0.007980734 -0.05787679 -0.062243365
-0.010591087 0.031775765 -0.20036203 -0.29054338 -0.257878 0.0660001 0.09380994 0.04952644
-0.005417005 -0.07725327 -0.018490603 -0.021455292 -0.018626653 -0.051888466 0.011472916 -0.041415565
-0.031680547 -0.16865674 -0.1831083 0.03350255 0.11187201 0.10322309 0.054747257 0.07479996
-0.0032883056 0.05543576 0.012095419 -0.016813247 -0.03807572 0.019199954 -0.028516991 0.05260395
-0.09739771 0.2597279 0.29498935 0.08550695 0.13896737 -0.03999824 -0.06547528 -0.05155739
0.022963705 -0.046084724 0.029815665 -0.049544353 -0.04183795 0.04689791 0.030193552 0.16552149
0.5923796 0.23902577 0.025894722 -0.030121656 0.038297605 -0.011987911 -0.0548743 -0.008512655
-0.037238996 -0.051982272 -0.009259489 -0.005946799 0.118561536 0.11427348 0.2269164 0.14906421
0.021505954 -0.06627473 0.015181658 -0.050085366 -0.0043241186 -0.012684285 0.0074587613 0.0446284
-0.059724644 0.06753944 0.028236462 0.08658625 0.15366317 0.19566032 -0.22389634 -0.21929824
0.007996124 -0.032492273 -0.07011835 -0.007979965 0.024479982 0.036964957 -0.024343483 -0.014202757
0.07693067 0.055557113 0.024445975 0.04454073 -0.012194649 -0.31509754 -0.22824216 -0.007571759
-0.09735598 -0.017432526 -0.026403394 0.009803346 0.0034360446 0.044906754 0.009518103 -0.008247725
0.06506477 0.04548 -0.06999529 -0.04416897 -0.1515568 -0.16738036 -0.119636275 -0.07249805
-0.036017142 -0.11769203 -0.09302222 -0.034136552 0.0047443295 0.0025074543 0.06521768 -0.018308047
0.0026582282 -0.027856428 -0.14594772 -0.103877015 -0.079698995 -0.08393934 -0.033827968 -0.02309747
-0.023346428 -0.04059995 -0.012648234 0.03535782 -0.056588948 -0.045134448 0.048843097 0.008139123
-0.058739316 -0.018796416 -0.056840617 -0.15554176 -0.095647186 -0.07562332 -0.087766916 0.029579958
-0.070821345 -0.010644808 -0.00021707008 0.0047867666 0.014223392 -0.0063907853 -0.056239113 -0.09988499
-0.10923129 0.02203458 -0.004218657 -0.1138503 0.023768235 -0.07693803 -0.03374513 -2.6481262e-05
-0.060774967
00000000: d471 30bc f9e9 68bd da7a 5bbd 181f 1bbc
00000010: 2d0b 913c e26d ddbd 4be2 d4bc 8936 81bd
00000020: e013 3fbd bd75 0bbd 2eab 29bd 8405 ffbc
00000030: 62bb 76bd 872a 15bd 9d2a 00bd 0dfc ab3c
00000040: 58e7 1b3c 0cd5 aa3b 4bd3 cd3c 45be a7bd
00000050: bfa5 dabc 3b86 d4bd 2ccf cabc 41e3 28be
00000060: 7cc7 8abd dde7 9dbd b1d9 0d3d e121 df3c
00000070: d347 4bbd 6acd 9e3b 70d2 8b3c 4a6b 6abc
00000080: 85ad 6dbd 7dc8 a0bc 1e72 cabb f70f d8bd
00000090: aca7 1bbe 45e3 21be 76c9 33be 8e1c 82bc
000000a0: e3f3 eb3c 30ad d73a a4a0 e13d 050d 82bd
000000b0: 4144 1dbd c7b8 9fbb 7d77 2bbd 121a 0fbc
000000c0: 80fd 72bd 3fbe d8bd dd4b 2cbc e6da 81bd
000000d0: 7023 87be 8027 50be f333 4cbd e2bf a8bb
000000e0: 9adb 9f3d 5073 d53c 1d39 353d 5a21 2a3d
000000f0: 756d cdbc a0c1 023c 3710 6dbd e6f2 7ebd
00000100: 3d86 2dbc 4e27 023d b42b 4dbe 1ac2 94be
00000110: 9608 84be 0f2b 873d 6d1f c03d 3ddc 4a3d
00000120: 2281 b1bb f636 9ebd 9b79 97bc 02c3 afbc
00000130: ec96 98bc 0089 54bd e6f8 3b3c 5ea3 29bd
00000140: 76c3 01bd 5ab4 2cbe be80 3bbe f839 093d
00000150: 271d e53d a166 d33d a93e 603d b930 993d
00000160: 9d80 57bb 9c10 633d dd2b 463c efbb 89bc
00000170: 49f5 1bbd 3949 9d3c 779c e9bc 3d77 573d
00000180: 7378 c7bd 0efb 843e d808 973e 451e af3d
00000190: 764d 0e3e 32d5 23bd e717 86bd d72d 53bd
000001a0: 611e bc3c 56c3 3cbd fb3f f43c 05ef 4abd
000001b0: 455e 2bbd 0618 403d 7858 f73c 777e 293e
000001c0: 31a6 173f 2cc3 743e 2b21 d43c b1c1 f6bc
000001d0: f3dd 1c3d f168 44bc e0c3 60bd aa78 0bbc
000001e0: eb87 18bd 5deb 54bd 1db5 17bc 5edd c2bb
000001f0: 64d0 f23d 3708 ea3d c65c 683e 4aa4 183e
00000200: 412d b03c 0cbb 87bd 7dbc 783c 5026 4dbd
00000210: 56b1 8dbb bfd1 4fbc a068 f43b 45cc 363d
00000220: d4a1 74bd 1e52 8a3d 2750 e73c 2254 b13d
00000230: e159 1d3e 2e5b 483e 1545 65be b88f 60be
00000240: 2d02 033c 9e16 05bd 369a 8fbd 66be 02bc
00000250: 3e8a c83c 9168 173d fc6b c7bc aeb2 68bc
00000260: d48d 9d3d db8f 633d ed42 c83c 5770 363d
00000270: 11cc 47bc 7754 a1be 50b8 69be 851c f8bb
00000280: 9262 c7bd a8ce 8ebc ee4b d8bc 379e 203c
00000290: 432f 613b 25f0 373d d1f1 1b3c 7721 07bc
000002a0: ae40 853d 3d49 3a3d b159 8fbd 86ea 34bd
000002b0: b531 1bbe c265 2bbe dd03 f5bd dc79 94bd
000002c0: b686 13bd 8508 f1bd 6f82 bebd c5d2 0bbd
000002d0: 5276 9b3b 1a54 243b d990 853d c2fa 95bc
000002e0: ab35 2e3b 2a33 e4bc 5273 15be 79bd d4bd
000002f0: 3a39 a3bd 64e8 abbd 328f 0abd e836 bdbc
00000300: 0241 bfbc 224c 26bd 8a3a 4fbc 5dd3 103d
00000310: d0c9 67bd e6de 38bd b30f 483d f559 053c
00000320: a398 70bd f1fa 99bc b5d1 68bd 5746 1fbe
00000330: ace2 c3bd 66e0 9abd 24bf b3bd ab51 f23c
00000340: c80a 91bd 9067 2ebc 4e9d 63b9 4fda 9c3b
00000350: 3b09 693c cb69 d1bb fc5a 66bd 8090 ccbd
00000360: a8b4 dfbd dd81 b43c a93c 8abb 592a e9bd
00000370: 9ab5 c23c b091 9dbd 5538 0abd 1424 deb7
00000380: 2cef 78bd
