Models/Success4_v2/model.pt (torch_old, 10071 bytes, 3 tensors)

sigmas f4 [225]
000000 42 0b 80 3f 67 e4 7f 3f cb 59 80 3f 84 3b 80 3f
       1.0003436 0.9995789 1.0027403 1.0018163
000010 a1 db 7f 3f f2 2e 7f 3f aa 4b 81 3f 3e 72 81 3f
       0.999445 0.9968101 1.0101216 1.0112989
000020 29 b7 80 3f f7 f3 7f 3f 12 50 80 3f f9 0c 80 3f
       1.0055896 0.99981636 1.0024436 1.0003959
000030 e9 e4 7f 3f b6 b4 7f 3f ad 14 80 3f f9 e7 7f 3f
       0.99958664 0.9988512 1.000631 0.9996334
000040 d2 d5 7f 3f f5 f5 7f 3f 58 c4 7f 3f 5d 55 80 3f
       0.9993564 0.99984676 0.9990897 1.0026051
000050 54 6a 7f 3f fa 3b 80 3f f9 06 7f 3f bf 91 80 3f
       0.9977162 1.0018303 0.99620014 1.0044478
000060 b2 47 7f 3f 85 57 7f 3f df db 7f 3f bd ec 7f 3f
       0.99718773 0.9974292 0.9994487 0.9997061
000070 1d 08 80 3f 41 e1 7f 3f 31 1c 80 3f ea 03 80 3f
       1.0002476 0.99953085 1.0008603 1.0001194
000080 6d b7 80 3f cd 74 80 3f 6d 29 7f 3f ee 62 81 3f
       1.0055977 1.0035645 0.99672586 1.0108316
000090 37 00 80 3f 29 41 7f 3f 60 55 80 3f b3 2e 80 3f
       1.0000066 0.997088 1.0026054 1.0014251
0000a0 b9 df 7f 3f 49 ca 7f 3f ec f1 7f 3f 70 f9 7f 3f
       0.9995075 0.9991804 0.9997852 0.99989986
0000b0 50 0b 80 3f 09 14 80 3f d7 8a 7f 3f 96 96 80 3f
       1.0003452 1.0006114 0.9982123 1.0045955
0000c0 4a bb 80 3f 77 6d 81 3f 27 6f 82 3f 62 29 80 3f
       1.0057156 1.0111531 1.0190171 1.0012629
0000d0 f6 d7 80 3f e9 fb 7f 3f 9b 1e 80 3f 91 11 80 3f
       1.0065906 0.9999376 1.000934 1.0005361
0000e0 ca fd 7f 3f 56 40 80 3f f7 0e 80 3f c0 f6 7f 3f
       0.99996626 1.0019634 1.0004567 0.99985886
0000f0 51 0b 80 3f 3c 0b 80 3f f4 63 80 3f 22 a0 80 3f
       1.0003453 1.0003428 1.0030503 1.0048869
000100 fa 17 80 3f 33 c0 7f 3f 45 c5 80 3f 64 f6 7f 3f
       1.0007317 0.9990265 1.0060202 0.9998534
000110 15 b3 7f 3f 6d de 7f 3f ef 09 80 3f 3b 10 80 3f
       0.9988263 0.9994877 1.0003031 1.0004953
000120 c5 19 80 3f 27 dd 7f 3f 0c fb 7f 3f ed 13 80 3f
       1.0007864 0.99946827 0.9999244 1.0006081
000130 f0 b2 7f 3f 9b b6 7f 3f 17 0b 7f 3f ee 35 80 3f
       0.9988241 0.9988801 0.99626297 1.0016458
000140 0b a1 7f 3f 0c 72 7d 3f a9 01 80 3f 5b 5b 7e 3f
       0.9985511 0.99002147 1.0000507 0.9935815
000150 d5 20 80 3f 6b 50 80 3f 16 2e 80 3f 99 00 80 3f
       1.001002 1.0024542 1.0014064 1.0000182
000160 ba df 7f 3f 22 03 80 3f 76 09 80 3f 0a c2 7f 3f
       0.99950755 1.0000956 1.0002887 0.99905455
000170 7e 1a 80 3f 1c 7f 80 3f 0a 4c 7f 3f 16 a4 7f 3f
       1.0008085 1.0038791 0.997254 0.9985975
000180 b2 ed 80 3f 32 1a 80 3f 65 01 80 3f 8c db 80 3f
       1.0072539 1.0007994 1.0000426 1.0067
000190 3a ac 7f 3f b6 fb 7f 3f 28 f8 7f 3f de 26 80 3f
       0.9987217 0.99993455 0.9998803 1.0011861
0001a0 e7 18 80 3f 77 0e 80 3f f6 40 80 3f 60 d4 7f 3f
       1.00076 1.0004414 1.0019825 0.99933434
0001b0 0c 28 80 3f 56 07 80 3f 1d e9 7f 3f a4 ba 80 3f
       1.0012221 1.0002239 0.9996508 1.0056958
0001c0 64 d3 75 3f 02 fc 82 3f 8a 79 80 3f 20 56 80 3f
       0.9602568 1.0233157 1.0037091 1.0026283
0001d0 6c f6 7f 3f f7 08 80 3f d8 23 80 3f 3d 06 80 3f
       0.99985385 1.0002736 1.0010939 1.0001904
0001e0 d1 e0 7f 3f 49 cf 7f 3f 8e e7 7f 3f 94 08 80 3f
       0.9995242 0.9992567 0.999627 1.0002618
0001f0 a1 0d 80 3f 7a 2c 80 3f 5d 76 80 3f 90 fb 80 3f
       1.0004159 1.0013573 1.0036122 1.0076771
000200 09 23 7e 3f 43 60 80 3f f5 fe 7f 3f f0 17 80 3f
       0.9927221 1.0029377 0.9999841 1.0007305
000210 ca 07 80 3f 17 3c 80 3f 36 2e 80 3f a8 de 7f 3f
       1.0002377 1.0018338 1.0014102 0.9994912
000220 c9 ef 7f 3f 1c e8 7f 3f 9c 20 80 3f 26 1a 80 3f
       0.9997526 0.99963546 1.0009952 1.000798
000230 4e 20 80 3f a8 ae 80 3f b2 02 80 3f 89 a1 7d 3f
       1.0009859 1.0053301 1.0000823 0.9907461
000240 02 c3 7f 3f ee 4b 80 3f e4 e2 7f 3f ff 7d 80 3f
       0.99906933 1.0023172 0.9995558 1.0038451
000250 ad 24 80 3f ac 05 80 3f 21 bc 7f 3f ca cc 7f 3f
       1.0011193 1.0001731 0.99896437 0.9992186
000260 1c fa 7f 3f e6 44 80 3f 88 1a 80 3f 61 12 80 3f
       0.9999101 1.0021026 1.0008097 1.0005609
000270 7d 4f 7f 3f 9f 0f 7e 3f ba 38 80 3f 1d cd 7f 3f
       0.99730664 0.99242586 1.0017312 0.99922353
000280 a4 fc 7f 3f 27 80 80 3f e0 80 7f 3f b8 62 80 3f
       0.99994874 1.0039109 0.9980602 1.0030127
000290 9b 96 7f 3f 17 ef 7f 3f 5f 11 80 3f 40 09 80 3f
       0.9983918 0.999742 1.0005301 1.0002823
0002a0 61 38 80 3f 40 07 80 3f 62 bf 7f 3f d1 97 7f 3f
       1.0017205 1.0002213 0.999014 0.9984103
0002b0 2e fd 7f 3f ef 6f 81 3f 8e 60 7f 3f d2 e5 80 3f
       0.99995697 1.0112284 0.99756706 1.0070136
0002c0 44 e1 7f 3f a8 97 80 3f c3 2b 80 3f ec a5 7f 3f
       0.99953103 1.0046282 1.0013355 0.9986255
0002d0 d7 18 80 3f 68 b7 7f 3f 4c 91 7f 3f 2a 0a 80 3f
       1.000758 0.9988923 0.9983108 1.0003102
0002e0 8e 16 80 3f 7e 84 80 3f 6d 44 81 3f b4 59 80 3f
       1.0006883 1.0040433 1.0099007 1.0027375
0002f0 6a 90 81 3f f2 91 80 3f 1e 37 80 3f 53 50 80 3f
       1.0122197 1.0044539 1.001682 1.0024513
000300 f3 0f 80 3f e9 a1 7f 3f 57 26 80 3f dc cd 7f 3f
       1.0004867 0.9985643 1.00117 0.9992349
000310 e8 1a 80 3f ed c6 7f 3f ec ce 7f 3f 9f a9 7f 3f
       1.0008211 0.9991291 0.9992511 0.99868196
000320 25 2c 80 3f c0 17 81 3f 2c 53 80 3f 7b 08 81 3f
       1.0013472 1.0085373 1.0025382 1.0080713
000330 b2 67 80 3f 98 91 80 3f 4e 00 80 3f fb 36 80 3f
       1.0031645 1.0044432 1.0000093 1.0016779
000340 73 50 80 3f 26 df 7f 3f 3c d9 7f 3f 32 10 80 3f
       1.0024551 0.9994987 0.9994085 1.0004942
000350 2c e8 7f 3f d6 c0 7f 3f af 76 80 3f 27 01 80 3f
       0.9996364 0.9990362 1.0036219 1.0000352
000360 5a 2d 81 3f 37 2d 7f 3f 41 45 80 3f db bc 80 3f
       1.0091965 0.9967837 1.0021135 1.0057634
000370 4c 95 80 3f dc ea 7f 3f 0c cf 7f 3f e0 6c 80 3f
       1.0045562 0.9996774 0.99925303 1.0033226
000380 0d 1a 80 3f
       1.000795

centres f4 [225, 2]
000000 db 0f 49 c0 d1 53 fb c0 db 0f 49 c0 6a 6c d7 c0
       -3.1415927 -7.8539815 -3.1415927 -6.731984
000010 db 0f 49 c0 03 85 b3 c0 db 0f 49 c0 9c 9d 8f c0
       -3.1415927 -5.609987 -3.1415927 -4.4879894
000020 db 0f 49 c0 6a 6c 57 c0 db 0f 49 c0 9c 9d 0f c0
       -3.1415927 -3.365992 -3.1415927 -2.2439947
000030 db 0f 49 c0 9c 9d 8f bf db 0f 49 c0 00 00 00 00
       -3.1415927 -1.1219974 -3.1415927 0.0
000040 db 0f 49 c0 9c 9d 8f 3f db 0f 49 c0 9c 9d 0f 40
       -3.1415927 1.1219974 -3.1415927 2.2439947
000050 db 0f 49 c0 6a 6c 57 40 db 0f 49 c0 9c 9d 8f 40
       -3.1415927 3.365992 -3.1415927 4.4879894
000060 db 0f 49 c0 03 85 b3 40 db 0f 49 c0 6a 6c d7 40
       -3.1415927 5.609987 -3.1415927 6.731984
000070 db 0f 49 c0 d1 53 fb 40 bb 56 2c c0 d1 53 fb c0
       -3.1415927 7.8539815 -2.6927936 -7.8539815
000080 bb 56 2c c0 6a 6c d7 c0 bb 56 2c c0 03 85 b3 c0
       -2.6927936 -6.731984 -2.6927936 -5.609987
000090 bb 56 2c c0 9c 9d 8f c0 bb 56 2c c0 6a 6c 57 c0
       -2.6927936 -4.4879894 -2.6927936 -3.365992
0000a0 bb 56 2c c0 9c 9d 0f c0 bb 56 2c c0 9c 9d 8f bf
       -2.6927936 -2.2439947 -2.6927936 -1.1219974
0000b0 bb 56 2c c0 00 00 00 00 bb 56 2c c0 9c 9d 8f 3f
       -2.6927936 0.0 -2.6927936 1.1219974
0000c0 bb 56 2c c0 9c 9d 0f 40 bb 56 2c c0 6a 6c 57 40
       -2.6927936 2.2439947 -2.6927936 3.365992
0000d0 bb 56 2c c0 9c 9d 8f 40 bb 56 2c c0 03 85 b3 40
       -2.6927936 4.4879894 -2.6927936 5.609987
0000e0 bb 56 2c c0 6a 6c d7 40 bb 56 2c c0 d1 53 fb 40
       -2.6927936 6.731984 -2.6927936 7.8539815
0000f0 9c 9d 0f c0 d1 53 fb c0 9c 9d 0f c0 6a 6c d7 c0
       -2.2439947 -7.8539815 -2.2439947 -6.731984
000100 9c 9d 0f c0 03 85 b3 c0 9c 9d 0f c0 9c 9d 8f c0
       -2.2439947 -5.609987 -2.2439947 -4.4879894
000110 9c 9d 0f c0 6a 6c 57 c0 9c 9d 0f c0 9c 9d 0f c0
       -2.2439947 -3.365992 -2.2439947 -2.2439947
000120 9c 9d 0f c0 9c 9d 8f bf 9c 9d 0f c0 00 00 00 00
       -2.2439947 -1.1219974 -2.2439947 0.0
000130 9c 9d 0f c0 9c 9d 8f 3f 9c 9d 0f c0 9c 9d 0f 40
       -2.2439947 1.1219974 -2.2439947 2.2439947
000140 9c 9d 0f c0 6a 6c 57 40 9c 9d 0f c0 9c 9d 8f 40
       -2.2439947 3.365992 -2.2439947 4.4879894
000150 9c 9d 0f c0 03 85 b3 40 9c 9d 0f c0 6a 6c d7 40
       -2.2439947 5.609987 -2.2439947 6.731984
000160 9c 9d 0f c0 d1 53 fb 40 fa c8 e5 bf d1 53 fb c0
       -2.2439947 7.8539815 -1.7951958 -7.8539815
000170 fa c8 e5 bf 6a 6c d7 c0 fa c8 e5 bf 03 85 b3 c0
       -1.7951958 -6.731984 -1.7951958 -5.609987
000180 fa c8 e5 bf 9c 9d 8f c0 fa c8 e5 bf 6a 6c 57 c0
       -1.7951958 -4.4879894 -1.7951958 -3.365992
000190 fa c8 e5 bf 9c 9d 0f c0 fa c8 e5 bf 9c 9d 8f bf
       -1.7951958 -2.2439947 -1.7951958 -1.1219974
0001a0 fa c8 e5 bf 00 00 00 00 fa c8 e5 bf 9c 9d 8f 3f
       -1.7951958 0.0 -1.7951958 1.1219974
0001b0 fa c8 e5 bf 9c 9d 0f 40 fa c8 e5 bf 6a 6c 57 40
       -1.7951958 2.2439947 -1.7951958 3.365992
0001c0 fa c8 e5 bf 9c 9d 8f 40 fa c8 e5 bf 03 85 b3 40
       -1.7951958 4.4879894 -1.7951958 5.609987
0001d0 fa c8 e5 bf 6a 6c d7 40 fa c8 e5 bf d1 53 fb 40
       -1.7951958 6.731984 -1.7951958 7.8539815
0001e0 bb 56 ac bf d1 53 fb c0 bb 56 ac bf 6a 6c d7 c0
       -1.3463968 -7.8539815 -1.3463968 -6.731984
0001f0 bb 56 ac bf 03 85 b3 c0 bb 56 ac bf 9c 9d 8f c0
       -1.3463968 -5.609987 -1.3463968 -4.4879894
000200 bb 56 ac bf 6a 6c 57 c0 bb 56 ac bf 9c 9d 0f c0
       -1.3463968 -3.365992 -1.3463968 -2.2439947
000210 bb 56 ac bf 9c 9d 8f bf bb 56 ac bf 00 00 00 00
       -1.3463968 -1.1219974 -1.3463968 0.0
000220 bb 56 ac bf 9c 9d 8f 3f bb 56 ac bf 9c 9d 0f 40
       -1.3463968 1.1219974 -1.3463968 2.2439947
000230 bb 56 ac bf 6a 6c 57 40 bb 56 ac bf 9c 9d 8f 40
       -1.3463968 3.365992 -1.3463968 4.4879894
000240 bb 56 ac bf 03 85 b3 40 bb 56 ac bf 6a 6c d7 40
       -1.3463968 5.609987 -1.3463968 6.731984
000250 bb 56 ac bf d1 53 fb 40 fa c8 65 bf d1 53 fb c0
       -1.3463968 7.8539815 -0.8975979 -7.8539815
000260 fa c8 65 bf 6a 6c d7 c0 fa c8 65 bf 03 85 b3 c0
       -0.8975979 -6.731984 -0.8975979 -5.609987
000270 fa c8 65 bf 9c 9d 8f c0 fa c8 65 bf 6a 6c 57 c0
       -0.8975979 -4.4879894 -0.8975979 -3.365992
000280 fa c8 65 bf 9c 9d 0f c0 fa c8 65 bf 9c 9d 8f bf
       -0.8975979 -2.2439947 -0.8975979 -1.1219974
000290 fa c8 65 bf 00 00 00 00 fa c8 65 bf 9c 9d 8f 3f
       -0.8975979 0.0 -0.8975979 1.1219974
0002a0 fa c8 65 bf 9c 9d 0f 40 fa c8 65 bf 6a 6c 57 40
       -0.8975979 2.2439947 -0.8975979 3.365992
0002b0 fa c8 65 bf 9c 9d 8f 40 fa c8 65 bf 03 85 b3 40
       -0.8975979 4.4879894 -0.8975979 5.609987
0002c0 fa c8 65 bf 6a 6c d7 40 fa c8 65 bf d1 53 fb 40
       -0.8975979 6.731984 -0.8975979 7.8539815
0002d0 fa c8 e5 be d1 53 fb c0 fa c8 e5 be 6a 6c d7 c0
       -0.44879895 -7.8539815 -0.44879895 -6.731984
0002e0 fa c8 e5 be 03 85 b3 c0 fa c8 e5 be 9c 9d 8f c0
       -0.44879895 -5.609987 -0.44879895 -4.4879894
0002f0 fa c8 e5 be 6a 6c 57 c0 fa c8 e5 be 9c 9d 0f c0
       -0.44879895 -3.365992 -0.44879895 -2.2439947
000300 fa c8 e5 be 9c 9d 8f bf fa c8 e5 be 00 00 00 00
       -0.44879895 -1.1219974 -0.44879895 0.0
000310 fa c8 e5 be 9c 9d 8f 3f fa c8 e5 be 9c 9d 0f 40
       -0.44879895 1.1219974 -0.44879895 2.2439947
000320 fa c8 e5 be 6a 6c 57 40 fa c8 e5 be 9c 9d 8f 40
       -0.44879895 3.365992 -0.44879895 4.4879894
000330 fa c8 e5 be 03 85 b3 40 fa c8 e5 be 6a 6c d7 40
       -0.44879895 5.609987 -0.44879895 6.731984
000340 fa c8 e5 be d1 53 fb 40 00 00 00 00 d1 53 fb c0
       -0.44879895 7.8539815 0.0 -7.8539815
000350 00 00 00 00 6a 6c d7 c0 00 00 00 00 03 85 b3 c0
       0.0 -6.731984 0.0 -5.609987
000360 00 00 00 00 9c 9d 8f c0 00 00 00 00 6a 6c 57 c0
       0.0 -4.4879894 0.0 -3.365992
000370 00 00 00 00 9c 9d 0f c0 00 00 00 00 9c 9d 8f bf
       0.0 -2.2439947 0.0 -1.1219974
000380 00 00 00 00 00 00 00 00 00 00 00 00 9c 9d 8f 3f
       0.0 0.0 0.0 1.1219974
000390 00 00 00 00 9c 9d 0f 40 00 00 00 00 6a 6c 57 40
       0.0 2.2439947 0.0 3.365992
0003a0 00 00 00 00 9c 9d 8f 40 00 00 00 00 03 85 b3 40
       0.0 4.4879894 0.0 5.609987
0003b0 00 00 00 00 6a 6c d7 40 00 00 00 00 d1 53 fb 40
       0.0 6.731984 0.0 7.8539815
0003c0 fa c8 e5 3e d1 53 fb c0 fa c8 e5 3e 6a 6c d7 c0
       0.44879895 -7.8539815 0.44879895 -6.731984
0003d0 fa c8 e5 3e 03 85 b3 c0 fa c8 e5 3e 9c 9d 8f c0
       0.44879895 -5.609987 0.44879895 -4.4879894
0003e0 fa c8 e5 3e 6a 6c 57 c0 fa c8 e5 3e 9c 9d 0f c0
       0.44879895 -3.365992 0.44879895 -2.2439947
0003f0 fa c8 e5 3e 9c 9d 8f bf fa c8 e5 3e 00 00 00 00
       0.44879895 -1.1219974 0.44879895 0.0

weight f4 [1, 225]
000000 b1 14 24 bd c6 2c 13 3c a2 e3 86 bd e4 a2 32 bd
       -0.040058795 0.008982843 -0.06586386 -0.043612376
000010 a9 85 f9 bb 90 bb 26 bc bb 2c 0b be cc ee da bd
       -0.0076148105 -0.010176554 -0.13591282 -0.10690078
000020 04 93 bf bd fa c9 32 bd ad 87 79 bd 8f 5c 66 bd
       -0.09354213 -0.04364965 -0.060920406 -0.056240615
000030 3a 5a ec bc 5b 2d 61 3d 4b 5e 87 bd af e1 0b 3d
       -0.028851617 0.054974895 -0.06609782 0.034150776
000040 53 be 27 3c 9a 6e 8a bc ad f2 0e bc 4e a0 31 bd
       0.010238248 -0.016898442 -0.008724851 -0.04336577
000050 0f dc 20 bd 5a b6 a1 bd 39 dd 1b bc fc b2 c3 bd
       -0.039272364 -0.07896109 -0.009513193 -0.09555623
000060 ce e5 9c bc 65 89 44 3d 11 92 85 bb 3b fb b3 3c
       -0.019152548 0.047982592 -0.0040762504 0.021970382
000070 01 0c b2 bc 32 79 0c 3d fb db 94 bd 2b 24 83 bc
       -0.02173424 0.03429527 -0.072685204 -0.016008457
000080 81 a8 c4 bd 2f dc 8a bd 26 3d 65 3b 66 42 de bd
       -0.09602452 -0.06780278 0.0034979074 -0.10852508
000090 fd 6f a7 bd 14 f4 15 bd b7 c6 d1 bd fd cc 9f bd
       -0.08175657 -0.036609724 -0.1024298 -0.0780277
0000a0 21 6a c8 3c 9a e6 2f bd b9 7a 1f 3d d6 93 8e bb
       0.024464669 -0.04294453 0.038935397 -0.0043511195
0000b0 ae 5e 20 bd 29 91 4a bd f1 41 3f 3d de 88 97 bd
       -0.039152794 -0.04945484 0.046693746 -0.07399152
0000c0 79 14 be bd 84 72 f7 bd 61 f4 ff bd 71 96 ba bd
       -0.092812486 -0.12082389 -0.124977835 -0.09110726
0000d0 f7 b5 b6 bd ad a5 82 bd f3 05 81 bd 61 cf 1b 3d
       -0.08921426 -0.063792564 -0.06299963 0.03803957
0000e0 34 54 f2 bc 93 15 3b bd 4a 96 3d bd 41 90 93 3b
       -0.029581167 -0.04567487 -0.046285905 0.0045032804
0000f0 20 91 f2 bc 96 0d b5 bc 79 50 65 bd da 4a 9f bd
       -0.029610217 -0.022101205 -0.055984948 -0.07777949
000100 66 5f 21 bd d4 21 8e bc f3 99 cc bd bb 91 03 3d
       -0.03939762 -0.017350115 -0.09990301 0.0321214
000110 f3 2a 69 bb 27 b1 d2 bc e1 51 ea 3c 9e 8e de 3b
       -0.0035578578 -0.025719238 0.028603496 0.0067919036
000120 ad 63 24 bd 18 3c 02 3d a1 5f d5 b9 0b 2a 59 bd
       -0.04013412 0.03179559 -0.00040697775 -0.05301861
000130 93 d5 37 3d aa 11 e3 3b 2f 5d a9 3c 96 3a 76 bd
       0.044881415 0.006929596 0.020674316 -0.060114466
000140 53 28 f9 bc 17 45 c2 bd ab 0b 25 3d 69 49 8e bc
       -0.030414736 -0.09485834 0.04029433 -0.017368989
000150 6f c3 cb 3c 3f 66 95 3d 84 56 43 3d 24 2a 5f bb
       0.024873463 0.072948925 0.04768993 -0.0034052217
000160 a5 6d d7 3c 53 7d 2f bc 38 f2 f6 bc 01 81 04 3d
       0.0262974 -0.010711032 -0.030144796 0.03234959
000170 0f 0b 18 bd 03 0b 98 bd 14 7f 01 3c fa 65 a2 bd
       -0.03711992 -0.07423975 0.007903833 -0.07929607
000180 0b 12 80 3d c0 b0 63 3e 52 0a 86 3d b7 e5 a9 3d
       0.062534414 0.22235394 0.06544937 0.08295768
000190 8f 3a ba bc 08 93 3e bb 1b 07 6a 3d fa f2 85 bd
       -0.022733001 -0.0029079337 0.057135683 -0.06540485
0001a0 51 b4 3a bd 43 7d 54 bd 01 22 98 bd bd cb ad 3c
       -0.04558212 -0.05187727 -0.07428361 0.021215314
0001b0 50 f6 8f bd 02 22 b8 bc 0b db 6c 3c b6 f3 9a 3d
       -0.07029402 -0.022477154 0.014456521 0.075660154
0001c0 b6 a9 c0 3e cb 39 23 3e a1 a0 ee 3c 52 ae 91 3d
       0.3762948 0.15940015 0.029129328 0.07113327
0001d0 ae 14 15 bd 92 bd 1d bd 22 f9 25 bd 66 b1 48 bc
       -0.036396675 -0.038510866 -0.040520795 -0.012249326
0001e0 80 6e 43 3d 8b d8 b7 3c a1 35 08 3d 35 54 dd 3c
       0.047712803 0.022442123 0.03325427 0.027017692
0001f0 81 b2 6d 3a 69 66 5b 3d 0f 2c 9e 3d 51 d8 7d 3e
       0.00090674317 0.053564463 0.07723247 0.2478955
000200 01 c0 dc bc 6f ab 79 3d 74 23 43 bd a3 80 0a bd
       -0.026947023 0.060954507 -0.047641233 -0.033814084
000210 7f 72 c9 bc c5 b3 58 bd f9 10 8b bd b0 fb 14 3d
       -0.024590729 -0.052905817 -0.06790347 0.03637284
000220 03 ba 8d 3b 3e dd dc bc c3 03 8d 3d d7 22 96 3d
       0.004325153 -0.026960965 0.06885483 0.07330864
000230 94 73 22 3d ee b2 c3 3c ee d5 7e 3d ba aa a7 bd
       0.039661005 0.023889031 0.062215738 -0.081868604
000240 39 7e 62 bd bf da a2 bd 44 c7 0a bc 09 55 bc bd
       -0.055296157 -0.07951879 -0.00847036 -0.09195907
000250 8a d4 16 bd 8e de 1e bc 1c a5 74 3d 31 12 05 3d
       -0.036823787 -0.009696616 0.059727773 0.03248805
000260 0c d3 87 3b 5d 70 10 bd c1 f5 a2 3d 08 a9 7a bb
       0.004145032 -0.035263408 0.0795703 -0.0038247723
000270 6f ae 76 bc 6a 74 65 bd 76 7f 5b bd 97 93 0f bc
       -0.015056237 -0.056019224 -0.053588353 -0.0087632155
000280 bc 9b cd bc dd d3 86 bd 78 3a 35 3b f7 86 ae bd
       -0.025098674 -0.065833785 0.0027653258 -0.08521836
000290 aa cb 43 3d b7 c8 38 3c 3b 63 3f bd 6e 58 7d 3b
       0.04780165 0.011278323 -0.046725493 0.0038657445
0002a0 b7 0d b8 bb 41 cf 32 ba 34 80 0e bb 63 53 17 bd
       -0.0056168693 -0.00068210444 -0.0021743895 -0.03694476
0002b0 f4 84 5f bd d1 2c 09 be 0c 3e 8e bb 54 7f e2 bd
       -0.054570153 -0.13396002 -0.0043408927 -0.11059442
0002c0 49 e4 ad bc 4b 31 9c bd 2e cf 3b bd 2a c8 27 3d
       -0.021227019 -0.076265894 -0.04585188 0.040962376
0002d0 be fd 64 bd 83 7e 01 3d 8b 10 44 3d f0 a8 85 bd
       -0.05590605 0.03161479 0.04786734 -0.06526363
0002e0 60 9e 16 bd 67 f4 cf bd 2a 6a 13 be 3b f2 b5 bd
       -0.036772132 -0.10154038 -0.14395967 -0.088840924
0002f0 dd 33 22 be ba 6c 96 bd 66 29 17 bd 00 f2 75 bd
       -0.15840097 -0.07344957 -0.036904715 -0.060045242
000300 2e 10 fa bc d2 6e d0 3b 49 13 86 bd bf 37 4c 3d
       -0.030525293 0.006360867 -0.06546647 0.04985785
000310 59 5d 46 bd 85 aa 11 3c 56 ba c6 bc 1a ee 16 3c
       -0.048428867 0.008890753 -0.024258774 0.009212041
000320 64 07 aa bd 1f 09 03 be 8c 60 7c bd 03 39 0a be
       -0.08302191 -0.12796448 -0.06161551 -0.1349831
000330 f3 79 9d bd 47 9d 80 bd f4 23 d4 bc d1 fa 4b bd
       -0.076892756 -0.06279998 -0.02589605 -0.049799744
000340 7c fa 5e bd 30 f8 a4 3b a1 25 2c 3d 9d 8b f5 bc
       -0.0544381 0.005034469 0.042028073 -0.0299738
000350 dd dd a4 bc b7 95 32 3c 9a 0a 9a bd 7b 58 41 bd
       -0.020125324 0.010899953 -0.07521553 -0.047203522
000360 11 c8 f7 bd 09 70 9f 3b f3 a9 64 bd ba 2d e9 bd
       -0.120987065 0.0048656506 -0.05582614 -0.11385675
000370 73 51 98 bd ef d9 62 bc 2b 3d a3 ba d7 d1 9c bd
       -0.0743741 -0.013845905 -0.0012454143 -0.07657211
000380 93 69 25 bd
       -0.040383887
