Models/Success3/model.pt (torch_old, 9925 bytes, 3 tensors)

sigmas f4 [225]
00000000: 0000 803f 62ff 7f3f 74fb 7f3f f72e 803f
00000010: f6ec 7f3f 5cc8 803f 5225 833f 69ee 7e3f
00000020: a8b7 803f ef2d 7f3f 2818 7f3f 66b3 803f
00000030: 5a4d 7f3f d8ba 7f3f 5606 803f bd00 803f
00000040: d9fc 7f3f d6f3 7f3f 4fc9 7f3f 94f2 7f3f
00000050: 7a0b 813f f719 813f 44fc 813f 1d94 7f3f
00000060: 9d19 813f 5853 813f 3f1c 803f 46eb 7f3f
00000070: ee23 803f 8d00 803f 8600 803f b2eb 7f3f
00000080: 8000 803f af12 803f 19fc 7f3f 1a2f 813f
00000090: 83f0 803f 305d 813f e642 7e3f 93fb 7f3f
000000a0: a6a5 813f 2204 803f 6278 803f 8225 803f
000000b0: e920 803f faf3 7f3f 4cec 7f3f 900f 803f
000000c0: bb1e 803f 66e6 7f3f a048 7f3f ed0d 803f
000000d0: 38d4 7e3f a932 7e3f fa99 7f3f e4b8 803f
000000e0: c52e 803f 945f 803f d356 7f3f 2e4c 803f
000000f0: b407 803f c93e 803f e003 803f 5e0d 803f
00000100: 37fe 7f3f be06 803f c47e 7f3f 731d 843f
00000110: 9f3c 823f 9330 813f a984 7f3f 25ae 803f
00000120: 150a 813f 3712 803f b767 803f 5e08 803f
00000130: 93bd 7f3f d9c0 7f3f 4006 803f b4bd 7f3f
00000140: 0e8c 803f 385b 7f3f 0551 863f 8dd8 843f
00000150: c9ab 803f 15a9 803f dc2f 7f3f 61ed 803f
00000160: 7c85 7f3f 3faf 7f3f 15dc 7f3f 81e0 7f3f
00000170: 9c80 7f3f 0426 803f 5624 803f 1f21 803f
00000180: 1e2e 823f 8cbc 833f 1872 803f 0d89 803f
00000190: 94f6 7e3f 0364 803f a532 803f eb22 813f
000001a0: 3a64 803f 2b11 803f 129c 7f3f 2478 7f3f
000001b0: 6aa0 7f3f 5040 803f 1814 803f 1b66 843f
000001c0: 9938 843f d1f4 843f 28b8 803f 1f74 803f
000001d0: 40f5 803f 3533 7f3f 3695 803f c32f 803f
000001e0: 9418 803f ba84 803f 9347 803f 947a 803f
000001f0: d56d 7f3f 2136 803f 3903 823f c244 863f
00000200: 4727 7f3f 695d 803f 3b59 803f c9a8 803f
00000210: 7787 803f 8adb 7f3f 0006 803f 4fd4 7f3f
00000220: e22a 803f 751f 803f f850 803f ec50 803f
00000230: ac99 803f 941b 7f3f 5a20 843f e741 823f
00000240: a839 7f3f fd4a 7f3f fe96 803f 1b24 813f
00000250: 9aca 7f3f d83a 803f a615 803f 42ec 7f3f
00000260: 4f5d 803f 5e16 803f ee97 803f 243a 803f
00000270: a246 7f3f 1ec0 803f e329 813f 9921 803f
00000280: dd8f 803f c75b 803f eabd 803f a339 7f3f
00000290: 5133 803f 2ae4 7f3f 5de7 7f3f 0008 803f
000002a0: f1a6 7f3f 225c 803f 0b33 813f 765f 803f
000002b0: a45c 803f 27e3 7f3f ac39 803f 3229 803f
000002c0: 0535 803f cd67 803f b776 7f3f 8ce6 7f3f
000002d0: 440a 803f b3b2 7f3f cd86 7f3f 8a2b 803f
000002e0: 15ca 7f3f af72 803f 437d 7c3f ffb8 7f3f
000002f0: 8a6e 7f3f 6ff3 7f3f 0e0d 803f 5da5 7f3f
00000300: 5650 7f3f 00c4 7f3f cf08 803f 6901 803f
00000310: 49c7 7f3f 260b 803f 0f2f 803f 1910 803f
00000320: eb52 803f 4fa1 813f 2136 873f 4242 7e3f
00000330: 8b09 803f e373 803f 34c4 7f3f 269c 7f3f
00000340: 67a6 7f3f 8002 803f a5ff 7f3f bef5 7f3f
00000350: a501 803f 6ebf 7f3f 32f2 7f3f 11a5 7f3f
00000360: 5354 813f ce2b 6d3f 283a 803f 587c 803f
00000370: 1feb 7f3f 2a39 803f c16b 803f 4cf9 7f3f
00000380: 2801 803f
1.0 0.9999906 0.9999306 1.0014333 0.9997095 1.0061145 1.0245764 0.99582535
1.0056047 0.99679464 0.99646235 1.0054748 0.99727404 0.99894476 1.0001934 1.0000225
0.9999519 0.9998144 0.9991655 0.9997952 1.0081627 1.0086049 1.015511 0.9983538
1.0085942 1.010356 1.000862 0.99968374 1.0010965 1.0000168 1.000016 0.9996902
1.0000153 1.0005702 0.99994045 1.0092499 1.0073398 1.0106564 0.9932083 0.99993247
1.0128677 1.0001261 1.0036738 1.0011446 1.0010043 0.99981654 0.99969935 1.0004749
1.0009378 0.99960935 0.9972019 1.000425 0.9954257 0.9929605 0.99844325 1.0056424
1.0014273 1.0029168 0.9974186 1.0023248 1.0002351 1.001916 1.0001183 1.0004079
0.99997276 1.0002058 0.99802804 1.0321487 1.017475 1.0092949 0.998118 1.0053145
1.0081202 1.0005559 1.0031651 1.0002553 0.9989864 0.9990364 1.0001907 0.9989884
1.0042741 0.99748564 1.0493475 1.0378586 1.0052425 1.00516 0.996824 1.0072442
0.99813056 0.9987678 0.99945194 0.9995194 0.9980562 1.0011601 1.0011089 1.0010108
1.0170324 1.0291915 1.0034819 1.0041825 0.99595 1.0030521 1.0015455 1.0088781
1.0030587 1.0005239 0.9984752 0.99792695 0.9985415 1.0019627 1.0006132 1.034366
1.0329772 1.0387212 1.00562 1.0035437 1.0074844 0.9968751 1.0045536 1.0014576
1.0007501 1.0040505 1.0021843 1.0037408 0.99776965 1.0016519 1.0157233 1.0489733
0.9966931 1.0028507 1.0027231 1.0051509 1.004134 0.99944365 1.0001831 0.9993333
1.0013087 1.00096 1.002471 1.0024695 1.0046897 0.99651456 1.0322373 1.0176362
0.9969735 0.997238 1.0046079 1.0089144 0.9991852 1.0017958 1.0006607 0.99969876
1.0028476 1.0006826 1.0046365 1.0017743 0.9971715 1.005863 1.0090908 1.0010253
1.0043904 1.0028008 1.0057957 0.9969732 1.001566 0.99957526 0.9996241 1.0002441
0.9986411 1.0028117 1.0093702 1.0029132 1.0028272 0.9995598 1.00176 1.0012572
1.001618 1.0031677 0.9979052 0.9996116 1.0003133 0.9988205 0.99815065 1.0013287
0.9991773 1.0034999 0.98628634 0.99891657 0.99778044 0.99980825 1.0003984 0.998617
0.9973196 0.9990845 1.0002688 1.000043 0.9991346 1.0003402 1.0014361 1.0004913
1.0025305 1.0127352 1.0563394 0.9931985 1.0002912 1.0035366 0.9990876 0.9984764
0.99863285 1.0000763 0.9999946 0.9998435 1.0000502 0.99901474 0.99978936 0.99861246
1.0103859 0.92644966 1.0017748 1.0037947 0.9996814 1.0017445 1.0032884 0.9998977
1.0000353

centres f4 [225, 2]
00000000: 0000 0000 d153 fbc0 0000 0000 6a6c d7c0
00000010: 0000 0000 0385 b3c0 0000 0000 9c9d 8fc0
00000020: 0000 0000 6a6c 57c0 0000 0000 9c9d 0fc0
00000030: 0000 0000 9c9d 8fbf 0000 0000 0000 0000
00000040: 0000 0000 9c9d 8f3f 0000 0000 9c9d 0f40
00000050: 0000 0000 6a6c 5740 0000 0000 9c9d 8f40
00000060: 0000 0000 0385 b340 0000 0000 6a6c d740
00000070: 0000 0000 d153 fb40 fac8 e53e d153 fbc0
00000080: fac8 e53e 6a6c d7c0 fac8 e53e 0385 b3c0
00000090: fac8 e53e 9c9d 8fc0 fac8 e53e 6a6c 57c0
000000a0: fac8 e53e 9c9d 0fc0 fac8 e53e 9c9d 8fbf
000000b0: fac8 e53e 0000 0000 fac8 e53e 9c9d 8f3f
000000c0: fac8 e53e 9c9d 0f40 fac8 e53e 6a6c 5740
000000d0: fac8 e53e 9c9d 8f40 fac8 e53e 0385 b340
000000e0: fac8 e53e 6a6c d740 fac8 e53e d153 fb40
000000f0: fac8 653f d153 fbc0 fac8 653f 6a6c d7c0
00000100: fac8 653f 0385 b3c0 fac8 653f 9c9d 8fc0
00000110: fac8 653f 6a6c 57c0 fac8 653f 9c9d 0fc0
00000120: fac8 653f 9c9d 8fbf fac8 653f 0000 0000
00000130: fac8 653f 9c9d 8f3f fac8 653f 9c9d 0f40
00000140: fac8 653f 6a6c 5740 fac8 653f 9c9d 8f40
00000150: fac8 653f 0385 b340 fac8 653f 6a6c d740
00000160: fac8 653f d153 fb40 bb56 ac3f d153 fbc0
00000170: bb56 ac3f 6a6c d7c0 bb56 ac3f 0385 b3c0
00000180: bb56 ac3f 9c9d 8fc0 bb56 ac3f 6a6c 57c0
00000190: bb56 ac3f 9c9d 0fc0 bb56 ac3f 9c9d 8fbf
000001a0: bb56 ac3f 0000 0000 bb56 ac3f 9c9d 8f3f
000001b0: bb56 ac3f 9c9d 0f40 bb56 ac3f 6a6c 5740
000001c0: bb56 ac3f 9c9d 8f40 bb56 ac3f 0385 b340
000001d0: bb56 ac3f 6a6c d740 bb56 ac3f d153 fb40
000001e0: fac8 e53f d153 fbc0 fac8 e53f 6a6c d7c0
000001f0: fac8 e53f 0385 b3c0 fac8 e53f 9c9d 8fc0
00000200: fac8 e53f 6a6c 57c0 fac8 e53f 9c9d 0fc0
00000210: fac8 e53f 9c9d 8fbf fac8 e53f 0000 0000
00000220: fac8 e53f 9c9d 8f3f fac8 e53f 9c9d 0f40
00000230: fac8 e53f 6a6c 5740 fac8 e53f 9c9d 8f40
00000240: fac8 e53f 0385 b340 fac8 e53f 6a6c d740
00000250: fac8 e53f d153 fb40 9c9d 0f40 d153 fbc0
00000260: 9c9d 0f40 6a6c d7c0 9c9d 0f40 0385 b3c0
00000270: 9c9d 0f40 9c9d 8fc0 9c9d 0f40 6a6c 57c0
00000280: 9c9d 0f40 9c9d 0fc0 9c9d 0f40 9c9d 8fbf
00000290: 9c9d 0f40 0000 0000 9c9d 0f40 9c9d 8f3f
000002a0: 9c9d 0f40 9c9d 0f40 9c9d 0f40 6a6c 5740
000002b0: 9c9d 0f40 9c9d 8f40 9c9d 0f40 0385 b340
000002c0: 9c9d 0f40 6a6c d740 9c9d 0f40 d153 fb40
000002d0: bb56 2c40 d153 fbc0 bb56 2c40 6a6c d7c0
000002e0: bb56 2c40 0385 b3c0 bb56 2c40 9c9d 8fc0
000002f0: bb56 2c40 6a6c 57c0 bb56 2c40 9c9d 0fc0
00000300: bb56 2c40 9c9d 8fbf bb56 2c40 0000 0000
00000310: bb56 2c40 9c9d 8f3f bb56 2c40 9c9d 0f40
00000320: bb56 2c40 6a6c 5740 bb56 2c40 9c9d 8f40
00000330: bb56 2c40 0385 b340 bb56 2c40 6a6c d740
00000340: bb56 2c40 d153 fb40 db0f 4940 d153 fbc0
00000350: db0f 4940 6a6c d7c0 db0f 4940 0385 b3c0
00000360: db0f 4940 9c9d 8fc0 db0f 4940 6a6c 57c0
00000370: db0f 4940 9c9d 0fc0 db0f 4940 9c9d 8fbf
00000380: db0f 4940 0000 0000 db0f 4940 9c9d 8f3f
00000390: db0f 4940 9c9d 0f40 db0f 4940 6a6c 5740
000003a0: db0f 4940 9c9d 8f40 db0f 4940 0385 b340
000003b0: db0f 4940 6a6c d740 db0f 4940 d153 fb40
000003c0: fac8 6540 d153 fbc0 fac8 6540 6a6c d7c0
000003d0: fac8 6540 0385 b3c0 fac8 6540 9c9d 8fc0
000003e0: fac8 6540 6a6c 57c0 fac8 6540 9c9d 0fc0
000003f0: fac8 6540 9c9d 8fbf fac8 6540 0000 0000
0.0 -7.8539815 0.0 -6.731984 0.0 -5.609987 0.0 -4.4879894
0.0 -3.365992 0.0 -2.2439947 0.0 -1.1219974 0.0 0.0
0.0 1.1219974 0.0 2.2439947 0.0 3.365992 0.0 4.4879894
0.0 5.609987 0.0 6.731984 0.0 7.8539815 0.44879895 -7.8539815
0.44879895 -6.731984 0.44879895 -5.609987 0.44879895 -4.4879894 0.44879895 -3.365992
0.44879895 -2.2439947 0.44879895 -1.1219974 0.44879895 0.0 0.44879895 1.1219974
0.44879895 2.2439947 0.44879895 3.365992 0.44879895 4.4879894 0.44879895 5.609987
0.44879895 6.731984 0.44879895 7.8539815 0.8975979 -7.8539815 0.8975979 -6.731984
0.8975979 -5.609987 0.8975979 -4.4879894 0.8975979 -3.365992 0.8975979 -2.2439947
0.8975979 -1.1219974 0.8975979 0.0 0.8975979 1.1219974 0.8975979 2.2439947
0.8975979 3.365992 0.8975979 4.4879894 0.8975979 5.609987 0.8975979 6.731984
0.8975979 7.8539815 1.3463968 -7.8539815 1.3463968 -6.731984 1.3463968 -5.609987
1.3463968 -4.4879894 1.3463968 -3.365992 1.3463968 -2.2439947 1.3463968 -1.1219974
1.3463968 0.0 1.3463968 1.1219974 1.3463968 2.2439947 1.3463968 3.365992
1.3463968 4.4879894 1.3463968 5.609987 1.3463968 6.731984 1.3463968 7.8539815
1.7951958 -7.8539815 1.7951958 -6.731984 1.7951958 -5.609987 1.7951958 -4.4879894
1.7951958 -3.365992 1.7951958 -2.2439947 1.7951958 -1.1219974 1.7951958 0.0
1.7951958 1.1219974 1.7951958 2.2439947 1.7951958 3.365992 1.7951958 4.4879894
1.7951958 5.609987 1.7951958 6.731984 1.7951958 7.8539815 2.2439947 -7.8539815
2.2439947 -6.731984 2.2439947 -5.609987 2.2439947 -4.4879894 2.2439947 -3.365992
2.2439947 -2.2439947 2.2439947 -1.1219974 2.2439947 0.0 2.2439947 1.1219974
2.2439947 2.2439947 2.2439947 3.365992 2.2439947 4.4879894 2.2439947 5.609987
2.2439947 6.731984 2.2439947 7.8539815 2.6927936 -7.8539815 2.6927936 -6.731984
2.6927936 -5.609987 2.6927936 -4.4879894 2.6927936 -3.365992 2.6927936 -2.2439947
2.6927936 -1.1219974 2.6927936 0.0 2.6927936 1.1219974 2.6927936 2.2439947
2.6927936 3.365992 2.6927936 4.4879894 2.6927936 5.609987 2.6927936 6.731984
2.6927936 7.8539815 3.1415927 -7.8539815 3.1415927 -6.731984 3.1415927 -5.609987
3.1415927 -4.4879894 3.1415927 -3.365992 3.1415927 -2.2439947 3.1415927 -1.1219974
3.1415927 0.0 3.1415927 1.1219974 3.1415927 2.2439947 3.1415927 3.365992
3.1415927 4.4879894 3.1415927 5.609987 3.1415927 6.731984 3.1415927 7.8539815
3.5903916 -7.8539815 3.5903916 -6.731984 3.5903916 -5.609987 3.5903916 -4.4879894
3.5903916 -3.365992 3.5903916 -2.2439947 3.5903916 -1.1219974 3.5903916 0.0

weight f4 [1, 225]
00000000: e18d edba e906 e73c b230 9bbc 57b8 513d
00000010: 7496 ac3b 5810 b53d 1773 1c3e c12e 8a3e
00000020: b963 a83d 9b9d 4d3c c6e1 d03c 2532 c3bd
00000030: 8ebf 033d 4ad1 133d 2fca 66bd 13a5 76bd
00000040: 51de d63c ef0e 0abd dbd6 73bc 1ba6 553c
00000050: 42ee ea3d 95b2 c63d ea5a 923e 5b62 eb3c
00000060: ef5d 05be e7eb d2bd 8912 e3bc c00f 48bc
00000070: 1865 e9bc 2358 1cbb 83ad 24bc 59cf 373d
00000080: 5c9b 013c 9c5c e13c 2c01 e63c 0e20 c63d
00000090: efcd a73d 2bee d33d 813f 3abd 252b 3dbd
000000a0: c16f 03be a433 07bd bf13 66bd 65f1 ebbc
000000b0: 7b5f 4bbd fcd1 0f3d a0f2 803c a847 80bd
000000c0: 46d2 723d abcf 86bb 124b 81bd df0b 83bc
000000d0: 4fb9 fb3c d695 50bc 14d9 0bbd b5db bdbd
000000e0: e204 79bd 3e45 4bbd ae5a 8d3c 71ee 91bd
000000f0: adf3 aabc 98a4 8bbd d7c4 17bc cbca 8d3d
00000100: 44f5 473b 6cb2 e63c 6811 b7bc ec96 56be
00000110: 87f6 ebbd a003 c1bd 4589 17bd 9cb8 dabd
00000120: 9755 b6bd 9790 efbc fd72 9cbd 0f9b 75bc
00000130: 4368 853c 2c63 d43c e4a2 b1bc 3424 573d
00000140: 850c bdbd 88fd 45bd da10 9bbe 74d8 2cbe
00000150: 242a 80bd bd9b 90bd 8e2b 4fbd d2f3 babd
00000160: 691d b7bb 2298 733c e0e1 8c3c 8af6 95bb
00000170: b30b fc3c 5406 84bd a692 4bbd 0165 03bd
00000180: 1f7c fcbd 5b16 bcbe a692 b9bd 5bcc 79bd
00000190: 7c27 933a 0814 b1bd 8457 6bbd 63a3 f9bd
000001a0: ab79 8bbd f660 b5bc 210f 4f3c 79ab 4b3c
000001b0: f750 7d3c 486d 80bd 2e2b fdbc c9aa 32be
000001c0: a6df d6be 0e96 43be 32c2 aabd 1591 49bd
000001d0: b852 dabd 4732 82bc 61cf a0bd b096 18bd
000001e0: e1c1 efbc d31c e2bd e793 3cbd 0e0a a0bd
000001f0: 9d1e ad3c 34cc 38bd 9017 dbbd 7591 8cbe
00000200: 4a64 43bd 044a 7fbd 1d38 62bd bd1b 96bd
00000210: 2579 61bd 0baa 8bbc 480c 32bc a26c a13c
00000220: 77d5 3cbd 5593 02bd 4f12 57bd 5177 5cbd
00000230: 6403 9cbd e577 19bd 0591 11be 725d cabd
00000240: 1b57 853c 7c90 a23c a01d 6abd c4b0 d0bd
00000250: 682b 0cbc 7e82 51bd cd37 03bd 34de b7bb
00000260: d139 9cbd 4cfa f5bc 468a 9cbd 3ccd 04bd
00000270: a947 1fbd c364 88bd ddf5 3bbd 2170 3ebd
00000280: a7a4 a1bd b3cc 20bd eaa5 c2bd e230 043d
00000290: 7b37 82bd d8e5 f33c 8241 163b ff95 a3bc
000002a0: a357 e43c 52ba 73bd 9007 97bd c3a7 86bd
000002b0: 1436 1bbe 9a9a 77bb acd2 1cbd 741d f5bc
000002c0: e03d 1bbd a768 91bd 3027 ec3c 2433 e03c
000002d0: b18b 4abd d6a2 1f3d 146b 133d 5ccc 74bd
000002e0: b482 473d 4f6f 6bbd 6b47 44be d211 9fbd
000002f0: 79c5 2ebd 8093 0f3b 72c3 babc 6a27 463b
00000300: a7c5 d03c 6418 993c 92cf 3abd 35f5 abbc
00000310: c6c3 7b3d 7db8 70bc 85f7 70bd 5527 09bd
00000320: d6f2 abbc 9dff c23c 97a6 823e 7fde 79bc
00000330: 4191 02bc 5bc2 c8bd 9e4b 703b 9789 683c
00000340: 00f8 773d e4bf 1abd fcaa 3f3c 96ce 043d
00000350: bab7 93bb d47f 593d e067 403d ea3b 333c
00000360: d9de d13d ac76 fd3e e7ff 893d 1c46 86bd
00000370: d1cc 12bc ce80 50bd 0e35 9cbd c3bc 263c
00000380: 1b34 87bd
-0.0018123948 0.028201537 -0.018944118 0.05120119 0.005266959 0.08841008 0.15278278 0.26988795
0.082221456 0.012549783 0.025498282 -0.09531049 0.032165103 0.036088265 -0.05634516 -0.06021602
0.026229056 -0.033705648 -0.0148827685 0.013040091 0.11471225 0.097020306 0.28584987 0.028733423
-0.13024114 -0.10298901 -0.0277188 -0.012210786 -0.028490588 -0.0023856245 -0.010051134 0.044875477
0.007910576 0.02750998 0.02807673 0.09674083 0.081935756 0.10348161 -0.04547072 -0.046183724
-0.128356 -0.033008233 -0.056171175 -0.02880163 -0.049651604 0.035112366 0.015740693 -0.06263667
0.059282564 -0.0041141114 -0.06313147 -0.015996872 0.03072801 -0.012731036 -0.03414257 -0.092704214
-0.060795672 -0.04962658 0.017255154 -0.07125557 -0.020868147 -0.06818503 -0.009263239 0.06923445
0.003051118 0.02816125 -0.022347167 -0.2095601 -0.11521631 -0.094245195 -0.036996145 -0.10679743
-0.08903044 -0.02924375 -0.0763912 -0.014990582 0.016285067 0.025926195 -0.021684118 0.05252476
-0.092309035 -0.04833749 -0.30286294 -0.16879445 -0.06258038 -0.07060955 -0.050578646 -0.09128536
-0.0055882228 0.014867814 0.01719755 -0.004576509 0.030767297 -0.064465195 -0.0497004 -0.032078747
-0.12328362 -0.36735806 -0.09061174 -0.060985904 0.0011226977 -0.08646399 -0.05745651 -0.12189367
-0.06810316 -0.022140961 0.012637884 0.012431019 0.015461198 -0.06270844 -0.030904379 -0.17447962
-0.41967505 -0.1910021 -0.08337821 -0.049210627 -0.106603086 -0.015893115 -0.078520544 -0.03725308
-0.029267253 -0.11040654 -0.04603949 -0.07814418 0.021132762 -0.04511662 -0.106978536 -0.27454725
-0.047703065 -0.062326446 -0.055229295 -0.073295094 -0.055047173 -0.017048856 -0.010867186 0.01970512
-0.046102013 -0.031878788 -0.052507695 -0.053824726 -0.07617834 -0.037467856 -0.14215477 -0.098811045
0.016276887 0.019844286 -0.05715716 -0.10189965 -0.008555271 -0.051149838 -0.032035638 -0.0056112055
-0.07628215 -0.030026577 -0.07643561 -0.03242229 -0.0388867 -0.06659844 -0.04588877 -0.046493653
-0.07892733 -0.039257716 -0.09504302 0.03227318 -0.06358238 0.029772684 0.002292723 -0.019968985
0.02787382 -0.05950386 -0.07374489 -0.06574967 -0.15157348 -0.0037781359 -0.03828685 -0.02992127
-0.037900805 -0.07100039 0.02882728 0.027368136 -0.049449626 0.03897365 0.03599079 -0.059765205
0.048708633 -0.0574792 -0.19167869 -0.07767071 -0.042668793 0.0021907985 -0.022798274 0.0030235895
0.025484873 0.018688388 -0.04560811 -0.020990947 0.061466 -0.014692423 -0.058829803 -0.033484776
-0.020989817 0.023803527 0.25517723 -0.015250801 -0.007969202 -0.09802695 0.0036666165 0.01419296
0.060539246 -0.037780657 0.011698481 0.03242358 -0.004507986 0.053100422 0.046974063 0.010939578
0.10247583 0.49504602 0.067382626 -0.06556341 -0.008959965 -0.050904088 -0.07627307 0.01017684
-0.06601735
