Models/Success3_v2/model.pt (torch_old, 10071 bytes, 3 tensors)

sigmas f4 [225]
0	0x3f8005fb	1.0001825
1	0x3f7ffacc	0.9999206
2	0x3f801539	1.0006477
3	0x3f801d15	1.0008875
4	0x3f812d08	1.0091867
5	0x3f8041af	1.0020045
6	0x3f819b5e	1.0125539
7	0x3f7fbe23	0.998995
8	0x3f826657	1.0187482
9	0x3f7fddaf	0.9994764
10	0x3f8078c9	1.0036861
11	0x3f800755	1.0002238
12	0x3f80005f	1.0000113
13	0x3f800781	1.000229
14	0x3f80148e	1.0006273
15	0x3f7ff238	0.9997897
16	0x3f7fdd3c	0.9994695
17	0x3f8009e3	1.0003017
18	0x3f806a8c	1.0032516
19	0x3f81a385	1.0128027
20	0x3f815bb7	1.0106114
21	0x3f81a4e6	1.0128448
22	0x3f80278a	1.0012066
23	0x3f81e055	1.0146586
24	0x3f8037a7	1.0016984
25	0x3f80737d	1.0035244
26	0x3f7fe8b8	0.99964476
27	0x3f80163c	1.0006785
28	0x3f7fe88c	0.99964213
29	0x3f8000a5	1.0000197
30	0x3f8002ce	1.0000856
31	0x3f7ff251	0.9997912
32	0x3f800e4b	1.0004362
33	0x3f7fe79a	0.9996277
34	0x3f80102a	1.0004933
35	0x3f813238	1.009345
36	0x3f826aa5	1.0188795
37	0x3f826d69	1.0189639
38	0x3f81f3a4	1.0152478
39	0x3f7f6603	0.9976503
40	0x3f80576a	1.0026677
41	0x3f80076d	1.0002266
42	0x3f8017d1	1.0007268
43	0x3f7fe853	0.99963874
44	0x3f801bf5	1.0008532
45	0x3f7ffc42	0.9999429
46	0x3f7ff2f5	0.999801
47	0x3f8032c3	1.0015491
48	0x3f7fd810	0.9993906
49	0x3f7f5a58	0.9974723
50	0x3f81039b	1.0079225
51	0x3f802c2d	1.0013481
52	0x3f81b8b3	1.0134491
53	0x3f7ff309	0.9998022
54	0x3f801c1a	1.0008576
55	0x3f80449d	1.0020939
56	0x3f800a15	1.0003077
57	0x3f7ffdee	0.9999684
58	0x3f7ff333	0.9998047
59	0x3f7fe840	0.9996376
60	0x3f7ffca5	0.9999488
61	0x3f800d94	1.0004144
62	0x3f7fdf40	0.9995003
63	0x3f802006	1.0009773
64	0x3f7fe4ad	0.99958307
65	0x3f7f0485	0.9961627
66	0x3f818cfc	1.012115
67	0x3f7f39ca	0.99697554
68	0x3f80c9d4	1.0061593
69	0x3f802e4e	1.0014131
70	0x3f800fa6	1.0004776
71	0x3f800d96	1.0004146
72	0x3f7fec5e	0.9997004
73	0x3f7fc301	0.9990693
74	0x3f800919	1.0002776
75	0x3f7fff51	0.99998957
76	0x3f800762	1.0002253
77	0x3f7fe779	0.99962574
78	0x3f7fe845	0.9996379
79	0x3f803676	1.001662
80	0x3f7f003d	0.9960974
81	0x3f7ffaa9	0.9999185
82	0x3f81c36b	1.0137762
83	0x3f80925f	1.0044669
84	0x3f7f6625	0.99765235
85	0x3f802aaf	1.0013026
86	0x3f7ff803	0.9998781
87	0x3f7fd8fb	0.9994046
88	0x3f800e8b	1.0004438
89	0x3f800532	1.0001585
90	0x3f7fffec	0.9999988
91	0x3f800125	1.0000349
92	0x3f800138	1.0000372
93	0x3f7ffad0	0.99992085
94	0x3f8007c0	1.0002365
95	0x3f7f6d5e	0.99776256
96	0x3f8177d6	1.0114696
97	0x3f824548	1.0177393
98	0x3f80d23e	1.0064161
99	0x3f8052f7	1.0025319
100	0x3f7fd776	0.9993814
101	0x3f804724	1.002171
102	0x3f7fe9e4	0.99966264
103	0x3f800d60	1.0004082
104	0x3f8000bd	1.0000225
105	0x3f800011	1.000002
106	0x3f7ffcf1	0.9999533
107	0x3f7ffeb2	0.9999801
108	0x3f7ff2c5	0.9997981
109	0x3f7f8cf5	0.9982446
110	0x3f7f5524	0.9973929
111	0x3f80b951	1.0056554
112	0x3f710a22	0.94156086
113	0x3f80e4ed	1.0069863
114	0x3f8122f1	1.0088788
115	0x3f7f8b17	0.9982161
116	0x3f80308b	1.0014814
117	0x3f8015d3	1.000666
118	0x3f800521	1.0001565
119	0x3f7fffd7	0.99999756
120	0x3f7fff49	0.9999891
121	0x3f7ff6f4	0.99986196
122	0x3f801b99	1.0008422
123	0x3f804875	1.0022112
124	0x3f7fb8de	0.9989146
125	0x3f7fc080	0.99903107
126	0x3f81053e	1.0079725
127	0x3f7c116f	0.984641
128	0x3f80e867	1.0070924
129	0x3f7ef32e	0.9958981
130	0x3f7f8085	0.9980548
131	0x3f8088dc	1.0041766
132	0x3f801a32	1.0007994
133	0x3f7feb8c	0.9996879
134	0x3f800121	1.0000345
135	0x3f7ffbab	0.9999339
136	0x3f7fee1a	0.9997269
137	0x3f8043a1	1.0020639
138	0x3f7fae39	0.9987522
139	0x3f7fca09	0.99917656
140	0x3f7fa2f9	0.9985805
141	0x3f8152d0	1.0103397
142	0x3f828498	1.0196714
143	0x3f7dadbf	0.9909324
144	0x3f7f3ad5	0.99699146
145	0x3f7fa8f2	0.99867165
146	0x3f809c9f	1.0047797
147	0x3f7ff4ea	0.99983084
148	0x3f7ff690	0.999856
149	0x3f7ffb62	0.99992955
150	0x3f7ff90f	0.9998941
151	0x3f7fbcd6	0.99897516
152	0x3f7fb555	0.99886066
153	0x3f7ff571	0.9998389
154	0x3f80305f	1.0014762
155	0x3f7f905f	0.9982967
156	0x3f7fb3a9	0.99883515
157	0x3f7d4d4c	0.9894607
158	0x3f8040b5	1.0019747
159	0x3f80b03f	1.0053786
160	0x3f803e47	1.0019006
161	0x3f806e07	1.0033578
162	0x3f7fa56e	0.998618
163	0x3f800e00	1.0004272
164	0x3f7ffc10	0.9999399
165	0x3f800028	1.0000048
166	0x3f802c41	1.0013505
167	0x3f7f9bae	0.99846923
168	0x3f7fa342	0.99858487
169	0x3f8007c7	1.0002373
170	0x3f801562	1.0006526
171	0x3f8083a4	1.0040174
172	0x3f80b7ce	1.0056093
173	0x3f81d296	1.0142391
174	0x3f7fc6f2	0.9991294
175	0x3f808a37	1.004218
176	0x3f807588	1.0035868
177	0x3f803dfe	1.0018919
178	0x3f80413e	1.001991
179	0x3f80075c	1.0002246
180	0x3f800a5f	1.0003165
181	0x3f80000f	1.0000018
182	0x3f804177	1.0019978
183	0x3f805365	1.002545
184	0x3f7f9a68	0.9984498
185	0x3f804926	1.0022323
186	0x3f82bb7b	1.0213464
187	0x3f811a0b	1.0086073
188	0x3f8293c7	1.0201348
189	0x3f80e441	1.0069658
190	0x3f8054bc	1.0025859
191	0x3f80589e	1.0027044
192	0x3f7fb168	0.99880075
193	0x3f7fdea7	0.99949116
194	0x3f801747	1.0007104
195	0x3f7ff22d	0.99978906
196	0x3f7fe904	0.9996493
197	0x3f7fa2d2	0.9985782
198	0x3f80087b	1.0002588
199	0x3f8068de	1.0032003
200	0x3f8092d6	1.0044811
201	0x3f80aca0	1.0052681
202	0x3f81abde	1.0130575
203	0x3f81d63b	1.0143503
204	0x3f810289	1.0078899
205	0x3f808539	1.0040656
206	0x3f7fee98	0.9997344
207	0x3f8055e2	1.0026209
208	0x3f7fe7fd	0.9996336
209	0x3f7ff5ca	0.9998442
210	0x3f7ffa51	0.9999133
211	0x3f7fe864	0.99963975
212	0x3f802e8b	1.0014204
213	0x3f8011ff	1.0005492
214	0x3f802152	1.0010169
215	0x3f800411	1.0001241
216	0x3f81a9f0	1.0129986
217	0x3f8102c5	1.007897
218	0x3f81bc87	1.0135659
219	0x3f7fd0bd	0.99927884
220	0x3f7f8e76	0.99826753
221	0x3f80202d	1.0009819
222	0x3f7ff935	0.99989635
223	0x3f7fd212	0.99929917
224	0x3f801470	1.0006237

centres f4 [225, 2]
0	0xc0490fdb	-3.1415927
1	0xc0fb53d1	-7.8539815
2	0xc0490fdb	-3.1415927
3	0xc0d76c6a	-6.731984
4	0xc0490fdb	-3.1415927
5	0xc0b38503	-5.609987
6	0xc0490fdb	-3.1415927
7	0xc08f9d9c	-4.4879894
8	0xc0490fdb	-3.1415927
9	0xc0576c6a	-3.365992
10	0xc0490fdb	-3.1415927
11	0xc00f9d9c	-2.2439947
12	0xc0490fdb	-3.1415927
13	0xbf8f9d9c	-1.1219974
14	0xc0490fdb	-3.1415927
15	0x00000000	0.0
16	0xc0490fdb	-3.1415927
17	0x3f8f9d9c	1.1219974
18	0xc0490fdb	-3.1415927
19	0x400f9d9c	2.2439947
20	0xc0490fdb	-3.1415927
21	0x40576c6a	3.365992
22	0xc0490fdb	-3.1415927
23	0x408f9d9c	4.4879894
24	0xc0490fdb	-3.1415927
25	0x40b38503	5.609987
26	0xc0490fdb	-3.1415927
27	0x40d76c6a	6.731984
28	0xc0490fdb	-3.1415927
29	0x40fb53d1	7.8539815
30	0xc02c56bb	-2.6927936
31	0xc0fb53d1	-7.8539815
32	0xc02c56bb	-2.6927936
33	0xc0d76c6a	-6.731984
34	0xc02c56bb	-2.6927936
35	0xc0b38503	-5.609987
36	0xc02c56bb	-2.6927936
37	0xc08f9d9c	-4.4879894
38	0xc02c56bb	-2.6927936
39	0xc0576c6a	-3.365992
40	0xc02c56bb	-2.6927936
41	0xc00f9d9c	-2.2439947
42	0xc02c56bb	-2.6927936
43	0xbf8f9d9c	-1.1219974
44	0xc02c56bb	-2.6927936
45	0x00000000	0.0
46	0xc02c56bb	-2.6927936
47	0x3f8f9d9c	1.1219974
48	0xc02c56bb	-2.6927936
49	0x400f9d9c	2.2439947
50	0xc02c56bb	-2.6927936
51	0x40576c6a	3.365992
52	0xc02c56bb	-2.6927936
53	0x408f9d9c	4.4879894
54	0xc02c56bb	-2.6927936
55	0x40b38503	5.609987
56	0xc02c56bb	-2.6927936
57	0x40d76c6a	6.731984
58	0xc02c56bb	-2.6927936
59	0x40fb53d1	7.8539815
60	0xc00f9d9c	-2.2439947
61	0xc0fb53d1	-7.8539815
62	0xc00f9d9c	-2.2439947
63	0xc0d76c6a	-6.731984
64	0xc00f9d9c	-2.2439947
65	0xc0b38503	-5.609987
66	0xc00f9d9c	-2.2439947
67	0xc08f9d9c	-4.4879894
68	0xc00f9d9c	-2.2439947
69	0xc0576c6a	-3.365992
70	0xc00f9d9c	-2.2439947
71	0xc00f9d9c	-2.2439947
72	0xc00f9d9c	-2.2439947
73	0xbf8f9d9c	-1.1219974
74	0xc00f9d9c	-2.2439947
75	0x00000000	0.0
76	0xc00f9d9c	-2.2439947
77	0x3f8f9d9c	1.1219974
78	0xc00f9d9c	-2.2439947
79	0x400f9d9c	2.2439947
80	0xc00f9d9c	-2.2439947
81	0x40576c6a	3.365992
82	0xc00f9d9c	-2.2439947
83	0x408f9d9c	4.4879894
84	0xc00f9d9c	-2.2439947
85	0x40b38503	5.609987
86	0xc00f9d9c	-2.2439947
87	0x40d76c6a	6.731984
88	0xc00f9d9c	-2.2439947
89	0x40fb53d1	7.8539815
90	0xbfe5c8fa	-1.7951958
91	0xc0fb53d1	-7.8539815
92	0xbfe5c8fa	-1.7951958
93	0xc0d76c6a	-6.731984
94	0xbfe5c8fa	-1.7951958
95	0xc0b38503	-5.609987
96	0xbfe5c8fa	-1.7951958
97	0xc08f9d9c	-4.4879894
98	0xbfe5c8fa	-1.7951958
99	0xc0576c6a	-3.365992
100	0xbfe5c8fa	-1.7951958
101	0xc00f9d9c	-2.2439947
102	0xbfe5c8fa	-1.7951958
103	0xbf8f9d9c	-1.1219974
104	0xbfe5c8fa	-1.7951958
105	0x00000000	0.0
106	0xbfe5c8fa	-1.7951958
107	0x3f8f9d9c	1.1219974
108	0xbfe5c8fa	-1.7951958
109	0x400f9d9c	2.2439947
110	0xbfe5c8fa	-1.7951958
111	0x40576c6a	3.365992
112	0xbfe5c8fa	-1.7951958
113	0x408f9d9c	4.4879894
114	0xbfe5c8fa	-1.7951958
115	0x40b38503	5.609987
116	0xbfe5c8fa	-1.7951958
117	0x40d76c6a	6.731984
118	0xbfe5c8fa	-1.7951958
119	0x40fb53d1	7.8539815
120	0xbfac56bb	-1.3463968
121	0xc0fb53d1	-7.8539815
122	0xbfac56bb	-1.3463968
123	0xc0d76c6a	-6.731984
124	0xbfac56bb	-1.3463968
125	0xc0b38503	-5.609987
126	0xbfac56bb	-1.3463968
127	0xc08f9d9c	-4.4879894
128	0xbfac56bb	-1.3463968
129	0xc0576c6a	-3.365992
130	0xbfac56bb	-1.3463968
131	0xc00f9d9c	-2.2439947
132	0xbfac56bb	-1.3463968
133	0xbf8f9d9c	-1.1219974
134	0xbfac56bb	-1.3463968
135	0x00000000	0.0
136	0xbfac56bb	-1.3463968
137	0x3f8f9d9c	1.1219974
138	0xbfac56bb	-1.3463968
139	0x400f9d9c	2.2439947
140	0xbfac56bb	-1.3463968
141	0x40576c6a	3.365992
142	0xbfac56bb	-1.3463968
143	0x408f9d9c	4.4879894
144	0xbfac56bb	-1.3463968
145	0x40b38503	5.609987
146	0xbfac56bb	-1.3463968
147	0x40d76c6a	6.731984
148	0xbfac56bb	-1.3463968
149	0x40fb53d1	7.8539815
150	0xbf65c8fa	-0.8975979
151	0xc0fb53d1	-7.8539815
152	0xbf65c8fa	-0.8975979
153	0xc0d76c6a	-6.731984
154	0xbf65c8fa	-0.8975979
155	0xc0b38503	-5.609987
156	0xbf65c8fa	-0.8975979
157	0xc08f9d9c	-4.4879894
158	0xbf65c8fa	-0.8975979
159	0xc0576c6a	-3.365992
160	0xbf65c8fa	-0.8975979
161	0xc00f9d9c	-2.2439947
162	0xbf65c8fa	-0.8975979
163	0xbf8f9d9c	-1.1219974
164	0xbf65c8fa	-0.8975979
165	0x00000000	0.0
166	0xbf65c8fa	-0.8975979
167	0x3f8f9d9c	1.1219974
168	0xbf65c8fa	-0.8975979
169	0x400f9d9c	2.2439947
170	0xbf65c8fa	-0.8975979
171	0x40576c6a	3.365992
172	0xbf65c8fa	-0.8975979
173	0x408f9d9c	4.4879894
174	0xbf65c8fa	-0.8975979
175	0x40b38503	5.609987
176	0xbf65c8fa	-0.8975979
177	0x40d76c6a	6.731984
178	0xbf65c8fa	-0.8975979
179	0x40fb53d1	7.8539815
180	0xbee5c8fa	-0.44879895
181	0xc0fb53d1	-7.8539815
182	0xbee5c8fa	-0.44879895
183	0xc0d76c6a	-6.731984
184	0xbee5c8fa	-0.44879895
185	0xc0b38503	-5.609987
186	0xbee5c8fa	-0.44879895
187	0xc08f9d9c	-4.4879894
188	0xbee5c8fa	-0.44879895
189	0xc0576c6a	-3.365992
190	0xbee5c8fa	-0.44879895
191	0xc00f9d9c	-2.2439947
192	0xbee5c8fa	-0.44879895
193	0xbf8f9d9c	-1.1219974
194	0xbee5c8fa	-0.44879895
195	0x00000000	0.0
196	0xbee5c8fa	-0.44879895
197	0x3f8f9d9c	1.1219974
198	0xbee5c8fa	-0.44879895
199	0x400f9d9c	2.2439947
200	0xbee5c8fa	-0.44879895
201	0x40576c6a	3.365992
202	0xbee5c8fa	-0.44879895
203	0x408f9d9c	4.4879894
204	0xbee5c8fa	-0.44879895
205	0x40b38503	5.609987
206	0xbee5c8fa	-0.44879895
207	0x40d76c6a	6.731984
208	0xbee5c8fa	-0.44879895
209	0x40fb53d1	7.8539815
210	0x00000000	0.0
211	0xc0fb53d1	-7.8539815
212	0x00000000	0.0
213	0xc0d76c6a	-6.731984
214	0x00000000	0.0
215	0xc0b38503	-5.609987
216	0x00000000	0.0
217	0xc08f9d9c	-4.4879894
218	0x00000000	0.0
219	0xc0576c6a	-3.365992
220	0x00000000	0.0
221	0xc00f9d9c	-2.2439947
222	0x00000000	0.0
223	0xbf8f9d9c	-1.1219974
224	0x00000000	0.0
225	0x00000000	0.0
226	0x00000000	0.0
227	0x3f8f9d9c	1.1219974
228	0x00000000	0.0
229	0x400f9d9c	2.2439947
230	0x00000000	0.0
231	0x40576c6a	3.365992
232	0x00000000	0.0
233	0x408f9d9c	4.4879894
234	0x00000000	0.0
235	0x40b38503	5.609987
236	0x00000000	0.0
237	0x40d76c6a	6.731984
238	0x00000000	0.0
239	0x40fb53d1	7.8539815
240	0x3ee5c8fa	0.44879895
241	0xc0fb53d1	-7.8539815
242	0x3ee5c8fa	0.44879895
243	0xc0d76c6a	-6.731984
244	0x3ee5c8fa	0.44879895
245	0xc0b38503	-5.609987
246	0x3ee5c8fa	0.44879895
247	0xc08f9d9c	-4.4879894
248	0x3ee5c8fa	0.44879895
249	0xc0576c6a	-3.365992
250	0x3ee5c8fa	0.44879895
251	0xc00f9d9c	-2.2439947
252	0x3ee5c8fa	0.44879895
253	0xbf8f9d9c	-1.1219974
254	0x3ee5c8fa	0.44879895
255	0x00000000	0.0

weight f4 [1, 225]
0	0xbd4799fe	-0.048730843
1	0x3ba95ac6	0.0051682917
2	0xbd262bad	-0.040568996
3	0xbcdf0cb0	-0.02722773
4	0xbddefa41	-0.10887576
5	0xbd8fa0a3	-0.07013061
6	0xbdd90ff6	-0.105987474
7	0xbc5d9b23	-0.013525757
8	0xbe225d70	-0.15855956
9	0xbd80e18d	-0.062930204
10	0xbd9affc2	-0.07568313
11	0x3d2adea9	0.04171625
12	0x3bcd418b	0.006263917
13	0xbd94eafe	-0.07271384
14	0xbd4663b1	-0.048434917
15	0x3d529a11	0.05141646
16	0x3d3ddfec	0.046356127
17	0xbccdf0c2	-0.025139216
18	0xbda094da	-0.07840891
19	0xbe09fb48	-0.13474762
20	0xbe2b4fe6	-0.16729698
21	0xbde3c718	-0.111219585
22	0xbd24cdfd	-0.04023551
23	0xbe1ce6b5	-0.15322383
24	0xbde2c610	-0.11072934
25	0xbdaa8fcf	-0.083282106
26	0xbd749dde	-0.059720866
27	0xbc96102e	-0.018318262
28	0x3b1ad585	0.0023625803
29	0xbb812821	-0.0039415513
30	0xbcce072f	-0.02514991
31	0x3c43df43	0.011955085
32	0xbd07f2d9	-0.033190582
33	0xbbb855d6	-0.005625467
34	0xbd1760d1	-0.036957566
35	0xbdf48e5d	-0.11941216
36	0xbdebc0f9	-0.11511416
37	0xbe185f27	-0.14880048
38	0xbe0e194d	-0.13876839
39	0xbd4bce61	-0.049757365
40	0xbd8c07b7	-0.06837409
41	0xbaff7e94	-0.0019492679
42	0xbd1f4d20	-0.03889191
43	0xb9ea508d	-0.00044691973
44	0xbd6d99de	-0.058008067
45	0x3cd43cfb	0.025907984
46	0x3c54eac8	0.012995429
47	0xbda05e3d	-0.078304745
48	0x3b7c67f6	0.0038514114
49	0xbbfb43fe	-0.0076680174
50	0xbdb99885	-0.09062294
51	0xbd55fdeb	-0.05224411
52	0xbe0be7e1	-0.13662674
53	0xbd1aeb98	-0.037822336
54	0xbd3467ea	-0.044044413
55	0xbca026a6	-0.019549679
56	0x3d5aefd0	0.05345136
57	0xbcee64c6	-0.029100787
58	0xbb8eb240	-0.004354745
59	0x3cf73dd2	0.030180845
60	0x3d575e93	0.052580427
61	0xbd45c3b5	-0.048282344
62	0x3c963bbe	0.018339034
63	0xbd39c1d5	-0.04535087
64	0xbc8a8154	-0.016907372
65	0xbc605c54	-0.013693888
66	0xbe2c5177	-0.16827951
67	0xbd4383fd	-0.047733296
68	0xbdd4f862	-0.10398938
69	0xbaa9f873	-0.001296772
70	0x3d6b1f07	0.057402637
71	0x3d74e609	0.05978969
72	0x3c006591	0.007836715
73	0x3d0993aa	0.03358809
74	0xbd2fb717	-0.042899217
75	0x3d0da286	0.034578823
76	0xbd6b746e	-0.057484083
77	0x3cc3152c	0.023813806
78	0x3c309703	0.0107781915
79	0xbd5a9b2f	-0.05337065
80	0x3c973d6d	0.018461907
81	0xbd88cffb	-0.06680294
82	0x3c953aec	0.018216573
83	0x3d9843d9	0.07434816
84	0x3d80bed1	0.06286395
85	0x3c86d0bc	0.016456954
86	0x3d26a886	0.04068806
87	0x3d01b383	0.031665336
88	0xbcecaee6	-0.028891992
89	0xbd7091a6	-0.05873265
90	0x3d0c6cd4	0.034283474
91	0xbd12d7d5	-0.035850365
92	0xbc07d546	-0.008290594
93	0x3c308042	0.010772767
94	0xbd8c840f	-0.06861126
95	0x3d353e95	0.044249136
96	0x3d1f4ed4	0.038893536
97	0x3e6a5e1e	0.22887465
98	0x3d8eba69	0.06969149
99	0xba607d25	-0.000856357
100	0x3d049710	0.032370627
101	0xbd90b851	-0.070664056
102	0x3c7bc3cd	0.015366507
103	0xbd5044b6	-0.050846778
104	0xbce8cc14	-0.028417625
105	0x3d51bb47	0.051203992
106	0xbd5050d7	-0.050858345
107	0xbb38842c	-0.0028154952
108	0xbc23777f	-0.009977221
109	0xbd50a2ef	-0.050936636
110	0x3c57a701	0.013162375
111	0x3db1dd5b	0.08684798
112	0x3eabc878	0.33551383
113	0x3dc118a4	0.09428528
114	0xbd50cbfc	-0.050975785
115	0xbd2d67f4	-0.042335466
116	0xbd0c9c41	-0.034328703
117	0xbd12cda6	-0.035840653
118	0xbd221e87	-0.039579894
119	0x3c1beac0	0.009516418
120	0xbd249537	-0.040181365
121	0xbd022a4f	-0.03177863
122	0x3d393d6a	0.045224585
123	0x3d89c4a3	0.067269586
124	0xbc1894fe	-0.009312866
125	0x3dd10bbb	0.102073155
126	0x3dd43a5a	0.10362692
127	0x3e8230ec	0.2542795
128	0x3d9a9473	0.07547846
129	0x3c9f8671	0.019473286
130	0xbd70c3bb	-0.058780413
131	0xbd9110ae	-0.070832595
132	0xbd042b5a	-0.032267906
133	0x3d4d2088	0.050079852
134	0xbd66adbb	-0.056318026
135	0xbd820132	-0.06347884
136	0xbcc2a2de	-0.023759302
137	0x3d8c5974	0.06852999
138	0xbc9e9bc1	-0.019361379
139	0xbb2dc706	-0.0026516332
140	0x3dd386bd	0.10328434
141	0x3db03a8e	0.086049184
142	0x3e17d28c	0.14826411
143	0xbd94b429	-0.07260925
144	0x3ca8a7c1	0.020587804
145	0xbd04602e	-0.032318287
146	0xbdbe4212	-0.09289946
147	0xba673d7e	-0.0008821114
148	0x3bfef499	0.007780623
149	0x3cf01ed7	0.02931158
150	0xbd1c7c18	-0.038204283
151	0xbd4aac8c	-0.04948096
152	0xbcb5f364	-0.022210784
153	0x3c46083c	0.012086924
154	0x3d9abaf2	0.07555188
155	0x3d63a471	0.055576745
156	0x3c99dee7	0.018783046
157	0xbd9d66df	-0.07685637
158	0xbd833fb4	-0.06408635
159	0xbd668187	-0.05627587
160	0xbd23691f	-0.039895173
161	0xbdaac881	-0.08339024
162	0x3cc7139b	0.02430134
163	0xbc9c1dfb	-0.019057265
164	0x3c0c2114	0.008552808
165	0x3abdce1b	0.001448098
166	0x3d76a01f	0.060211297
167	0xbd110c13	-0.035411905
168	0xbcceee02	-0.025259975
169	0x3ca5d832	0.020244692
170	0xbcf23638	-0.02956687
171	0xbda0e72c	-0.078565925
172	0xbe211def	-0.15734075
173	0xbe0701f0	-0.13184333
174	0xbca2ae28	-0.019858435
175	0xbd32f975	-0.043694932
176	0xbda165a0	-0.078807116
177	0xbd960460	-0.07325053
178	0xbd8a36ad	-0.0674871
179	0xbc970be7	-0.018438293
180	0x3d32320c	0.04350476
181	0x3bdbe999	0.0067111966
182	0x3db1e44f	0.086861245
183	0x3da6dcab	0.08147558
184	0x3d77d2b7	0.060503688
185	0xbd9c6d84	-0.07638076
186	0xbe2dec48	-0.16984665
187	0xbdaf8473	-0.085701846
188	0xbe053618	-0.13008916
189	0xbdda3a19	-0.106556125
190	0xbd172632	-0.03690166
191	0xbd5cb04c	-0.053879067
192	0x3cb79c7e	0.022413488
193	0x3bb42443	0.005497487
194	0xbd2891af	-0.04115456
195	0xbcd0ee86	-0.025504362
196	0xbc6bedbb	-0.014399941
197	0xbd129aa5	-0.03579201
198	0x3c6d4001	0.014480592
199	0xbdaba606	-0.08381276
200	0xbe00317f	-0.12518881
201	0xbde762d6	-0.11298148
202	0xbe08fe31	-0.13378216
203	0xbe1db706	-0.15401849
204	0xbe26f01b	-0.1630253
205	0xbd938142	-0.07202388
206	0x3bb58127	0.005539078
207	0xbd9980d1	-0.07495273
208	0x3c24060c	0.010011207
209	0x3ba3caee	0.0049985563
210	0xbc3c92fd	-0.011509654
211	0xbc97a255	-0.018510023
212	0x3d74ebe0	0.05979526
213	0x3d1bdab7	0.03805038
214	0xbd092f04	-0.033492103
215	0xbd875023	-0.06607082
216	0xbe041f23	-0.12902503
217	0xbda40329	-0.08008415
218	0xbdff3dde	-0.12462972
219	0xbd192347	-0.03738716
220	0x3b982134	0.00464263
221	0xbd42b945	-0.047539968
222	0xba035447	-0.0005009812
223	0x3d017f3d	0.031615485
224	0xbd19e9ac	-0.037576362
