Models/RBF7/model.pt (torch_old, 10071 bytes, 3 tensors)

sigmas f4 [225]
1.0022149 0.9989555 0.95561975 1.0723579 1.0068035 1.0000322 0.9996067 1.0005437
0.99813294 1.0037506 1.040194 1.0646582 0.8410306 0.98509175 0.9970112 1.0037862
0.9920372 0.98132 1.0382174 1.0110291 0.9997016 0.9961886 0.99978673 0.9872909
1.0157832 1.0587382 1.0441399 0.99717873 0.97207725 1.0035206 1.003164 0.9882239
0.99513406 1.0263134 0.9905595 1.0010203 0.9959554 0.99798214 1.0957454 1.0312302
1.082962 1.0208305 0.9361222 1.0428659 0.9982874 0.99704945 0.9931944 1.01443
1.0296562 0.95749664 1.0331361 0.9533001 0.9553844 1.0182396 0.96141744 1.0502945
0.9935924 0.9933932 0.99150175 1.0014015 1.0001813 1.0079515 1.0235983 1.0310297
0.8940146 1.0255712 0.7693809 0.86353475 0.8585589 0.88478893 0.98423266 0.94596153
1.0561848 1.0144395 0.9982485 1.000718 1.0032487 0.9978755 1.004831 0.95605844
0.9825506 1.0625815 0.64518166 0.6809442 0.946474 0.8253365 1.0316601 1.014167
1.0238792 0.9999552 0.9999735 1.0032285 1.0165582 1.003169 0.9633801 0.93594944
0.9016488 0.6769111 0.7530131 0.9988296 0.9729231 1.0664699 1.0093977 1.006015
0.9998859 1.0002664 0.9995042 1.0265522 1.0090743 1.075728 0.9407893 0.68408245
0.10720288 0.67459625 0.95033854 1.0638164 1.0361054 1.0063125 1.0007113 1.0002997
0.9998769 1.0025933 1.0013453 1.0766584 0.9674848 0.9987096 0.7355135 0.6533554
0.8890369 0.9390353 1.0014215 1.0030433 1.0014976 1.0002793 1.0002033 0.999573
1.0005412 1.0146159 1.035917 0.8243785 0.9695524 0.68028575 0.65225255 1.0710781
0.9795687 0.9146028 1.0092952 1.0025048 1.0105277 0.9996407 0.99974775 1.0049485
1.0534858 0.9421012 0.98730993 0.8967285 0.859192 0.8611168 0.81059235 1.0111986
0.8973949 1.0374101 1.0156208 1.004829 1.0013384 0.99965817 0.987936 1.0111735
0.98771715 1.0419459 0.9753306 1.0184611 0.9514821 0.9357619 1.026674 0.9604671
1.0212235 1.0009325 0.99349415 0.99957794 1.0001426 1.0204782 0.9579036 1.0397779
1.0722777 1.0207238 1.0770806 0.9977101 1.009193 1.0123487 0.9951073 1.0262834
0.9794637 0.9862349 0.99999297 0.99961656 0.96732867 0.9942156 1.0483838 1.0621492
1.0012704 1.0122198 0.99932957 1.0056851 1.0046964 1.0050933 1.0506816 0.974957
0.9956742 1.0020996 1.0042542 0.9849586 0.8436482 1.0630486 1.0300932 0.993493
1.0030332 0.9985165 1.0009048 1.0000437 1.0129918 1.0573225 0.967139 0.9961212
0.9970225
00000000: 9448 803f 8cbb 7f3f 7fa3 743f 0643 893f
00000010: f0de 803f 0e01 803f 3ae6 7f3f d111 803f
00000020: a485 7f3f e67a 803f 1425 853f b846 883f
00000030: c84d 573f f92e 7c3f 203c 7f3f 117c 803f
00000040: 26f6 7d3f ca37 7b3f 4fe4 843f 6769 813f
00000050: 72ec 7f3f 3706 7f3f 06f2 7f3f 19bf 7c3f
00000060: 2f05 823f bc84 873f 60a6 853f 1b47 7f3f
00000070: 0eda 783f 5d73 803f ae67 803f 3efc 7c3f
00000080: 1bc1 7e3f 3d5e 833f 4f95 7d3f 6f21 803f
00000090: eff6 7e3f c27b 7f3f 6341 8c3f 5aff 833f
000000a0: 809e 8a3f 93aa 823f b4a5 6f3f a17c 853f
000000b0: c38f 7f3f a23e 7f3f fd41 7e3f d8d8 813f
000000c0: c6cb 833f 801e 753f ce3d 843f 7a0b 743f
000000d0: 1294 743f ad55 823f 741f 763f 0d70 863f
000000e0: 125c 7e3f 044f 7e3f 0fd3 7d3f ed2d 803f
000000f0: f105 803f 8e04 813f 4505 833f c8f8 833f
00000100: 24de 643f eb45 833f 26f6 443f 9d10 5d3f
00000110: 84ca 5b3f 8781 623f acf6 7b3f 892a 723f
00000120: 1031 873f 27d9 813f 378d 7f3f 8717 803f
00000130: 746a 803f c574 7f3f 4d9e 803f 3fc0 743f
00000140: 7088 7b3f ac02 883f a02a 253f 5c52 2e3f
00000150: 1f4c 723f 4149 533f 700d 843f 39d0 813f
00000160: 790e 833f 10fd 7f3f 43fe 7f3f cb69 803f
00000170: 941e 823f d767 803f 14a0 763f 629a 6f3f
00000180: 75d2 663f 0c4a 2d3f 77c5 403f 4cb3 7f3f
00000190: 7d11 793f 1682 883f f233 813f 19c5 803f
000001a0: 86f8 7f3f bb08 803f 82df 7f3f 1066 833f
000001b0: 5929 813f 75b1 893f 91d7 703f 0720 2f3f
000001c0: 2f8d db3d 57b2 2c3f 6349 733f 232b 883f
000001d0: 1a9f 843f d9ce 803f 4f17 803f d209 803f
000001e0: eff7 7f3f fa54 803f 152c 803f f1cf 893f
000001f0: 15ad 773f 6fab 7f3f 9d4a 3c3f 4d42 273f
00000200: ec97 633f 9e64 703f 942e 803f b963 803f
00000210: 1331 803f 2709 803f a906 803f 04e4 7f3f
00000220: bc11 803f efde 813f ee98 843f 780a 533f
00000230: 9634 783f 3527 2e3f 06fa 263f 1619 893f
00000240: 04c5 7a3f 6923 6a3f 9630 813f 1452 803f
00000250: f958 813f 74e8 7f3f 78ef 7f3f 27a2 803f
00000260: 9fd8 863f 8b2d 713f 58c0 7c3f 0090 653f
00000270: 02f4 5b3f 2772 5c3f fb82 4f3f f56e 813f
00000280: acbb 653f dbc9 843f ddff 813f 3d9e 803f
00000290: db2b 803f 99e9 7f3f 60e9 7c3f 226e 813f
000002a0: 08db 7c3f 7c5e 853f 44af 793f ef5c 823f
000002b0: 5594 733f 188e 6f3f 0e6a 833f 2ce1 753f
000002c0: 74b7 823f 8e1e 803f a255 7e3f 57e4 7f3f
000002d0: ac04 803f 089f 823f 2c39 753f 7117 853f
000002e0: 6540 893f 14a7 823f c7dd 893f ee69 7f3f
000002f0: 3c2d 813f a494 813f 5abf 7e3f 415d 833f
00000300: 22be 7a3f e479 7c3f 8aff 7f3f dfe6 7f3f
00000310: daa2 773f ea84 7e3f 7131 863f 81f4 873f
00000320: a129 803f 6b90 813f 10d4 7f3f 4aba 803f
00000330: e499 803f e6a6 803f bc7c 863f c896 793f
00000340: 81e4 7e3f cd44 803f 678b 803f 3f26 7c3f
00000350: 54f9 573f fa11 883f 18da 833f 8f55 7e3f
00000360: 6463 803f c79e 7f3f a61d 803f 6f01 803f
00000370: b7a9 813f 5856 873f 6c96 773f cd01 7f3f
00000380: de3c 7f3f

centres f4 [225, 2]
-3.1415927 -7.8539815 -3.1415927 -6.731984 -3.1415927 -5.609987 -3.1415927 -4.4879894
-3.1415927 -3.365992 -3.1415927 -2.2439947 -3.1415927 -1.1219974 -3.1415927 0.0
-3.1415927 1.1219974 -3.1415927 2.2439947 -3.1415927 3.365992 -3.1415927 4.4879894
-3.1415927 5.609987 -3.1415927 6.731984 -3.1415927 7.8539815 -2.6927936 -7.8539815
-2.6927936 -6.731984 -2.6927936 -5.609987 -2.6927936 -4.4879894 -2.6927936 -3.365992
-2.6927936 -2.2439947 -2.6927936 -1.1219974 -2.6927936 0.0 -2.6927936 1.1219974
-2.6927936 2.2439947 -2.6927936 3.365992 -2.6927936 4.4879894 -2.6927936 5.609987
-2.6927936 6.731984 -2.6927936 7.8539815 -2.2439947 -7.8539815 -2.2439947 -6.731984
-2.2439947 -5.609987 -2.2439947 -4.4879894 -2.2439947 -3.365992 -2.2439947 -2.2439947
-2.2439947 -1.1219974 -2.2439947 0.0 -2.2439947 1.1219974 -2.2439947 2.2439947
-2.2439947 3.365992 -2.2439947 4.4879894 -2.2439947 5.609987 -2.2439947 6.731984
-2.2439947 7.8539815 -1.7951958 -7.8539815 -1.7951958 -6.731984 -1.7951958 -5.609987
-1.7951958 -4.4879894 -1.7951958 -3.365992 -1.7951958 -2.2439947 -1.7951958 -1.1219974
-1.7951958 0.0 -1.7951958 1.1219974 -1.7951958 2.2439947 -1.7951958 3.365992
-1.7951958 4.4879894 -1.7951958 5.609987 -1.7951958 6.731984 -1.7951958 7.8539815
-1.3463968 -7.8539815 -1.3463968 -6.731984 -1.3463968 -5.609987 -1.3463968 -4.4879894
-1.3463968 -3.365992 -1.3463968 -2.2439947 -1.3463968 -1.1219974 -1.3463968 0.0
-1.3463968 1.1219974 -1.3463968 2.2439947 -1.3463968 3.365992 -1.3463968 4.4879894
-1.3463968 5.609987 -1.3463968 6.731984 -1.3463968 7.8539815 -0.8975979 -7.8539815
-0.8975979 -6.731984 -0.8975979 -5.609987 -0.8975979 -4.4879894 -0.8975979 -3.365992
-0.8975979 -2.2439947 -0.8975979 -1.1219974 -0.8975979 0.0 -0.8975979 1.1219974
-0.8975979 2.2439947 -0.8975979 3.365992 -0.8975979 4.4879894 -0.8975979 5.609987
-0.8975979 6.731984 -0.8975979 7.8539815 -0.44879895 -7.8539815 -0.44879895 -6.731984
-0.44879895 -5.609987 -0.44879895 -4.4879894 -0.44879895 -3.365992 -0.44879895 -2.2439947
-0.44879895 -1.1219974 -0.44879895 0.0 -0.44879895 1.1219974 -0.44879895 2.2439947
-0.44879895 3.365992 -0.44879895 4.4879894 -0.44879895 5.609987 -0.44879895 6.731984
-0.44879895 7.8539815 0.0 -7.8539815 0.0 -6.731984 0.0 -5.609987
0.0 -4.4879894 0.0 -3.365992 0.0 -2.2439947 0.0 -1.1219974
0.0 0.0 0.0 1.1219974 0.0 2.2439947 0.0 3.365992
0.0 4.4879894 0.0 5.609987 0.0 6.731984 0.0 7.8539815
0.44879895 -7.8539815 0.44879895 -6.731984 0.44879895 -5.609987 0.44879895 -4.4879894
0.44879895 -3.365992 0.44879895 -2.2439947 0.44879895 -1.1219974 0.44879895 0.0
00000000: db0f 49c0 d153 fbc0 db0f 49c0 6a6c d7c0
00000010: db0f 49c0 0385 b3c0 db0f 49c0 9c9d 8fc0
00000020: db0f 49c0 6a6c 57c0 db0f 49c0 9c9d 0fc0
00000030: db0f 49c0 9c9d 8fbf db0f 49c0 0000 0000
00000040: db0f 49c0 9c9d 8f3f db0f 49c0 9c9d 0f40
00000050: db0f 49c0 6a6c 5740 db0f 49c0 9c9d 8f40
00000060: db0f 49c0 0385 b340 db0f 49c0 6a6c d740
00000070: db0f 49c0 d153 fb40 bb56 2cc0 d153 fbc0
00000080: bb56 2cc0 6a6c d7c0 bb56 2cc0 0385 b3c0
00000090: bb56 2cc0 9c9d 8fc0 bb56 2cc0 6a6c 57c0
000000a0: bb56 2cc0 9c9d 0fc0 bb56 2cc0 9c9d 8fbf
000000b0: bb56 2cc0 0000 0000 bb56 2cc0 9c9d 8f3f
000000c0: bb56 2cc0 9c9d 0f40 bb56 2cc0 6a6c 5740
000000d0: bb56 2cc0 9c9d 8f40 bb56 2cc0 0385 b340
000000e0: bb56 2cc0 6a6c d740 bb56 2cc0 d153 fb40
000000f0: 9c9d 0fc0 d153 fbc0 9c9d 0fc0 6a6c d7c0
00000100: 9c9d 0fc0 0385 b3c0 9c9d 0fc0 9c9d 8fc0
00000110: 9c9d 0fc0 6a6c 57c0 9c9d 0fc0 9c9d 0fc0
00000120: 9c9d 0fc0 9c9d 8fbf 9c9d 0fc0 0000 0000
00000130: 9c9d 0fc0 9c9d 8f3f 9c9d 0fc0 9c9d 0f40
00000140: 9c9d 0fc0 6a6c 5740 9c9d 0fc0 9c9d 8f40
00000150: 9c9d 0fc0 0385 b340 9c9d 0fc0 6a6c d740
00000160: 9c9d 0fc0 d153 fb40 fac8 e5bf d153 fbc0
00000170: fac8 e5bf 6a6c d7c0 fac8 e5bf 0385 b3c0
00000180: fac8 e5bf 9c9d 8fc0 fac8 e5bf 6a6c 57c0
00000190: fac8 e5bf 9c9d 0fc0 fac8 e5bf 9c9d 8fbf
000001a0: fac8 e5bf 0000 0000 fac8 e5bf 9c9d 8f3f
000001b0: fac8 e5bf 9c9d 0f40 fac8 e5bf 6a6c 5740
000001c0: fac8 e5bf 9c9d 8f40 fac8 e5bf 0385 b340
000001d0: fac8 e5bf 6a6c d740 fac8 e5bf d153 fb40
000001e0: bb56 acbf d153 fbc0 bb56 acbf 6a6c d7c0
000001f0: bb56 acbf 0385 b3c0 bb56 acbf 9c9d 8fc0
00000200: bb56 acbf 6a6c 57c0 bb56 acbf 9c9d 0fc0
00000210: bb56 acbf 9c9d 8fbf bb56 acbf 0000 0000
00000220: bb56 acbf 9c9d 8f3f bb56 acbf 9c9d 0f40
00000230: bb56 acbf 6a6c 5740 bb56 acbf 9c9d 8f40
00000240: bb56 acbf 0385 b340 bb56 acbf 6a6c d740
00000250: bb56 acbf d153 fb40 fac8 65bf d153 fbc0
00000260: fac8 65bf 6a6c d7c0 fac8 65bf 0385 b3c0
00000270: fac8 65bf 9c9d 8fc0 fac8 65bf 6a6c 57c0
00000280: fac8 65bf 9c9d 0fc0 fac8 65bf 9c9d 8fbf
00000290: fac8 65bf 0000 0000 fac8 65bf 9c9d 8f3f
000002a0: fac8 65bf 9c9d 0f40 fac8 65bf 6a6c 5740
000002b0: fac8 65bf 9c9d 8f40 fac8 65bf 0385 b340
000002c0: fac8 65bf 6a6c d740 fac8 65bf d153 fb40
000002d0: fac8 e5be d153 fbc0 fac8 e5be 6a6c d7c0
000002e0: fac8 e5be 0385 b3c0 fac8 e5be 9c9d 8fc0
000002f0: fac8 e5be 6a6c 57c0 fac8 e5be 9c9d 0fc0
00000300: fac8 e5be 9c9d 8fbf fac8 e5be 0000 0000
00000310: fac8 e5be 9c9d 8f3f fac8 e5be 9c9d 0f40
00000320: fac8 e5be 6a6c 5740 fac8 e5be 9c9d 8f40
00000330: fac8 e5be 0385 b340 fac8 e5be 6a6c d740
00000340: fac8 e5be d153 fb40 0000 0000 d153 fbc0
00000350: 0000 0000 6a6c d7c0 0000 0000 0385 b3c0
00000360: 0000 0000 9c9d 8fc0 0000 0000 6a6c 57c0
00000370: 0000 0000 9c9d 0fc0 0000 0000 9c9d 8fbf
00000380: 0000 0000 0000 0000 0000 0000 9c9d 8f3f
00000390: 0000 0000 9c9d 0f40 0000 0000 6a6c 5740
000003a0: 0000 0000 9c9d 8f40 0000 0000 0385 b340
000003b0: 0000 0000 6a6c d740 0000 0000 d153 fb40
000003c0: fac8 e53e d153 fbc0 fac8 e53e 6a6c d7c0
000003d0: fac8 e53e 0385 b3c0 fac8 e53e 9c9d 8fc0
000003e0: fac8 e53e 6a6c 57c0 fac8 e53e 9c9d 0fc0
000003f0: fac8 e53e 9c9d 8fbf fac8 e53e 0000 0000

weight f4 [1, 225]
0.043697536 0.03255177 -0.27297938 -0.26046035 -0.056433942 -0.050594456 -0.016497541 0.022019397
0.02457762 -0.035450563 -0.13954033 -0.3085464 -0.34651616 0.07048699 0.0041863183 0.053785507
-0.00056121644 -0.2551213 -0.24289799 -0.12725583 0.0034124174 -0.039714873 -0.010116856 0.027259551
-0.09135039 -0.20619063 -0.46946615 -0.25126478 -0.061299343 0.06256228 0.05255104 0.16189003
-0.09610258 -0.26411295 -0.22579542 -0.0086515 -0.008131844 0.008036179 -0.24564703 -0.22832389
-0.37853923 -0.32128936 0.08685823 0.18677393 -0.040181287 -0.05943389 0.09254925 0.060091637
-0.18716328 -0.20453072 -0.10346302 0.10758592 0.00021882843 -0.3495318 -0.32664254 -0.37376258
-0.029693982 0.17483301 0.16982979 0.02780142 0.0052954494 0.09246153 0.19083725 -0.016667817
-0.17687246 -0.20197666 0.21544115 -0.20324326 -0.49226028 -0.31449854 -0.056355007 0.29445678
0.25778398 0.16088963 -0.047852334 0.06079341 0.036848262 0.08169931 0.104254104 -0.010826315
-0.32084408 -0.25374743 -0.35437298 -0.2271521 0.050592784 0.28265512 0.35818824 0.115944944
0.12398778 -0.0002984298 -0.011759371 0.058719084 0.10209365 0.09137224 -0.008257437 -0.059766043
-0.28432474 0.2182298 0.44872785 0.36127478 0.22912116 0.2671904 0.07178559 0.05427746
-0.021994729 0.020549962 -0.011456143 0.11314128 0.092893 0.24893627 0.33075643 0.105576575
0.16945197 0.07496999 0.2850688 0.23115599 0.14719795 0.047689397 0.016352758 0.039964855
-0.022799762 0.029110955 0.0520492 0.2832791 0.24669264 0.3203657 0.4290125 0.22328617
-0.25470054 -0.05477304 0.060775388 0.09217985 0.055980813 0.008644544 0.013107506 -0.018277759
0.036007147 0.11834683 0.3543369 0.26746595 0.07910358 -0.24173056 -0.37888664 -0.2719648
-0.3315634 -0.062206857 0.07327852 0.11078936 0.08617965 -0.027861904 -0.0067624454 0.13248952
0.22234203 0.27251136 -0.064915076 -0.32427728 -0.44532654 -0.1931792 0.15328656 -0.17351507
-0.16728002 -0.019449478 0.16923918 0.06862946 0.044885222 -0.054272857 0.23532689 0.21635753
0.0106439525 -0.35302833 -0.39051136 -0.36728132 0.014309169 0.15895143 -0.099435985 -0.20335317
-0.13605827 0.039993618 0.10381047 -0.005133934 -0.033589676 0.121619895 0.054614507 -0.358181
-0.37640417 -0.18034086 -0.21374975 0.01264392 0.10113872 -0.041823354 -0.23136467 -0.27674395
-0.040208135 0.096625656 0.0066376226 0.0315384 -0.06174028 -0.19471902 -0.48194563 -0.21877977
-0.047296718 -0.055362426 -0.019475596 0.058009766 -0.04379095 -0.09985925 -0.29813403 -0.26914918
0.06181891 0.037160173 0.08805537 0.07336577 -0.37279385 -0.3139218 -0.11502505 0.033523876
-0.04818027 -0.054422315 0.03269929 0.03357654 -0.08119924 -0.22925815 -0.28889555 0.034267854
-0.030957839
00000000: 30fc 323d 0155 053d f4c3 8bbe 0f5b 85be
00000010: 4727 67bd 223c 4fbd da25 87bc 0662 b43c
00000020: 0157 c93c 9c34 11bd a9e3 0ebe cbf9 9dbe
00000030: 916a b1be 7c5b 903d 622d 893b 314e 5c3d
00000040: 991e 13ba 429f 82be 40ba 78be 5a4f 02be
00000050: dda2 5f3b 10ac 22bd 2bc1 25bc 6c4f df3c
00000060: ea15 bbbd a323 53be de5d f0be c7a5 80be
00000070: 0515 7bbd a720 803d c23f 573d 80c6 253e
00000080: 6ed1 c4bd d039 87be ea36 67be 05bf 0dbc
00000090: 6d3b 05bc 2daa 033c e58a 7bbe bdcd 69be
000000a0: e5cf c1be 0a80 a4be bae2 b13d aa41 3f3e
000000b0: 2295 24bd f370 73bd 768a bd3d a622 763d
000000c0: bba7 3fbe 8070 51be 6be4 d3bd 0256 dc3d
000000d0: 4f75 6539 d5f5 b2be b13d a7be cf5d bfbe
000000e0: cb40 f3bc 6d07 333e dce7 2d3e cebf e33c
000000f0: 7385 ad3b 785c bd3d d76a 433e f28a 88bc
00000100: 0e1e 35be f8d2 4ebe 9b9c 5c3e 001f 50be
00000110: 8a09 fcbe f405 a1be 82d4 66bd 0ac3 963e
00000120: 43fc 833e 40c0 243e cf00 44bd 8302 793d
00000130: 34ee 163d f851 a73d 2d83 d53d db60 31bc
00000140: ad45 a4be 2feb 81be 6070 b5be 8f9a 68be
00000150: 613a 4f3d 2cb8 903e 7364 b73e 8b74 ed3d
00000160: 4eed fd3d 9276 9cb9 60aa 40bc 6c83 703d
00000170: 7a16 d13d 5e21 bb3d 334a 07bc 3dcd 74bd
00000180: 0393 91be a277 5f3e a8bf e53e 02f9 b83e
00000190: bd9e 6a3e 2ecd 883e 5304 933d 0b52 5e3d
000001a0: 4a2e b4bc 6558 a83c 8cb2 3bbc 9eb6 e73d
000001b0: af3e be3d 26e9 7e3e e858 a93e 8838 d83d
000001c0: d184 2d3e de89 993d 8af4 913e 28b4 6c3e
000001d0: 0fbb 163e f555 433d 38f6 853c 30b2 233d
000001e0: 91c6 babc 197a ee3c 8b31 553d f509 913e
000001f0: ff9c 7c3e f906 a43e 87a7 db3e 21a5 643e
00000200: 1c68 82be b259 60bd 9def 783d cac8 bc3d
00000210: 234c 653d d8a1 0d3c ddc0 563c 3dbb 95bc
00000220: 3b7c 133d d35f f23d a56b b53e 4cf1 883e
00000230: 0f01 a23d 3788 77be 6efd c1be f83e 8bbe
00000240: aec2 a9be 9ecc 7ebd 0c13 963d 88e5 e23d
00000250: f57e b03d a63e e4bc 8197 ddbb 55ab 073e
00000260: a1ad 633e 9c86 8b3e 32f2 84bd ac07 a6be
00000270: d701 e4be c5d0 45be 27f7 1c3e efad 31be
00000280: 744b 2bbe 8354 9fbc 094d 2d3e 9a8d 8c3d
00000290: 91d9 373d 374d 5ebd 88f9 703e d48c 5d3e
000002a0: f963 2e3c 21c0 b4be 1bf1 c7be 4c0c bcbe
000002b0: 0171 6a3c 2ac4 223e 18a5 cbbd d03b 50be
000002c0: dc52 0bbe 59d0 233d 959a d43d 8f3a a8bb
000002d0: 5495 09bd da13 f93d 76b3 5f3d 8063 b7be
000002e0: 0cb8 c0be 46ab 38be 37e1 5abe 7228 4f3c
000002f0: d121 cf3d f74e 2bbd dcea 6cbe 62b1 8dbe
00000300: 49b1 24bd ace3 c53d 6a80 d93b 692e 013d
00000310: 60e3 7cbd 6c64 47be 94c1 f6be ce07 60be
00000320: 34ba 41bd b6c3 62bd 498b 9fbc a69b 6d3d
00000330: 245e 33bd 0283 ccbd 06a5 98be eccd 89be
00000340: d335 7d3d 4435 183d 6056 b43d cb40 963d
00000350: d6de bebe 5cba a0be 4192 ebbd 5550 093d
00000360: ad58 45bd efe9 5ebd b1ef 053d 8e87 093d
00000370: ca4b a6bd a6c2 6abe 1eea 93be 735c 0c3d
00000380: 4b9b fdbc
