Models/Success1/model.pt (torch_old, 9898 bytes, 3 tensors)

sigmas f4 [225]
0	0x3f7ff6c2	0.999859
1	0x3f80702b	1.0034231
2	0x3f808c85	1.0042883
3	0x3f7f7440	0.9978676
4	0x3f7f833f	0.9980964
5	0x3f7f6fd5	0.9978002
6	0x3f7f5cd7	0.9975104
7	0x3f7f819c	0.99807143
8	0x3f813afa	1.0096123
9	0x3f82b535	1.021155
10	0x3f8343ee	1.0255105
11	0x3f80ff06	1.0077827
12	0x3f805faa	1.0029194
13	0x3f7feb12	0.99968064
14	0x3f7ffa37	0.9999117
15	0x3f7ffc61	0.99994475
16	0x3f80bce5	1.0057646
17	0x3f802c0d	1.0013443
18	0x3f800cff	1.0003966
19	0x3f7f75b2	0.99788964
20	0x3f7fca1a	0.9991776
21	0x3f800ccc	1.0003905
22	0x3f8026ea	1.0011876
23	0x3f805710	1.0026569
24	0x3f819967	1.012494
25	0x3f7f2c1e	0.9967669
26	0x3f80475e	1.002178
27	0x3f7feb78	0.9996867
28	0x3f7f95e8	0.99838114
29	0x3f7ff9aa	0.9999033
30	0x3f7ff6de	0.99986064
31	0x3f7ff416	0.9998182
32	0x3f800f13	1.00046
33	0x3f7f7f13	0.99803275
34	0x3f8045c1	1.0021287
35	0x3f7f93ef	0.99835104
36	0x3f7f75cc	0.9978912
37	0x3f80057c	1.0001674
38	0x3f801dd0	1.0009098
39	0x3f8013d9	1.0006057
40	0x3f7f734d	0.9978531
41	0x3f806138	1.0029669
42	0x3f801818	1.0007353
43	0x3f7fbac3	0.9989435
44	0x3f7ffc66	0.99994504
45	0x3f7fff37	0.999988
46	0x3f808a86	1.0042274
47	0x3f7f5a72	0.99747384
48	0x3f7ff041	0.99975973
49	0x3f80e5a9	1.0070087
50	0x3f7f70c3	0.99781436
51	0x3f818ccc	1.0121093
52	0x3f7f7b90	0.99797916
53	0x3f80bfbe	1.0058515
54	0x3f801ae8	1.0008211
55	0x3f80096a	1.0002873
56	0x3f7ff8ff	0.9998931
57	0x3f8003d1	1.0001165
58	0x3f7fdd65	0.99947196
59	0x3f800073	1.0000137
60	0x3f7ffd57	0.9999594
61	0x3f8022d3	1.0010628
62	0x3f8124ee	1.0089395
63	0x3f808270	1.0039806
64	0x3f7f501e	0.99731624
65	0x3f80880f	1.0041522
66	0x3f80b0a2	1.0053904
67	0x3f786f32	0.9704467
68	0x3f7f3ba5	0.99700385
69	0x3f8071a2	1.0034678
70	0x3f808cdf	1.004299
71	0x3f7fda2b	0.9994227
72	0x3f7fe277	0.9995493
73	0x3f8002cb	1.0000852
74	0x3f800016	1.0000026
75	0x3f7fff22	0.99998677
76	0x3f801172	1.0005324
77	0x3f8072c1	1.003502
78	0x3f7fff07	0.99998516
79	0x3f7ff406	0.99981725
80	0x3f80aadc	1.0052142
81	0x3f7b326a	0.981238
82	0x3f6b1264	0.91824937
83	0x3f7d44df	0.98933214
84	0x3f7f44ad	0.99714166
85	0x3f7f4b1a	0.9972397
86	0x3f800d93	1.0004143
87	0x3f7ffdd1	0.9999667
88	0x3f8005e4	1.0001798
89	0x3f7fffdd	0.9999979
90	0x3f800039	1.0000068
91	0x3f800339	1.0000983
92	0x3f80091d	1.0002781
93	0x3f806ff4	1.0034165
94	0x3f803560	1.0016289
95	0x3f7fa0af	0.9985456
96	0x3f77559f	0.9661502
97	0x3f6d72ca	0.9275328
98	0x3f72013b	0.9453313
99	0x3f80c9dd	1.0061604
100	0x3f7fdc75	0.99945766
101	0x3f7ff68c	0.99985576
102	0x3f7ff96f	0.9998998
103	0x3f80000b	1.0000013
104	0x3f7fffdc	0.99999785
105	0x3f800013	1.0000023
106	0x3f7fffac	0.999995
107	0x3f7fe135	0.99953014
108	0x3f7fdde6	0.99947965
109	0x3f8002b7	1.0000829
110	0x3f7f770f	0.99791044
111	0x3f7353ed	0.95049936
112	0x3f659707	0.89683574
113	0x3f79447e	0.97370136
114	0x3f7f3c02	0.9970094
115	0x3f802211	1.0010396
116	0x3f7fd9bd	0.9994162
117	0x3f7fef1b	0.9997422
118	0x3f7ffd09	0.99995476
119	0x3f7fff6f	0.99999136
120	0x3f800000	1.0
121	0x3f800034	1.0000062
122	0x3f7ff64d	0.999852
123	0x3f7fd7c6	0.9993862
124	0x3f8033bd	1.0015789
125	0x3f7f5756	0.9974264
126	0x3f72100e	0.9455575
127	0x3f7521ac	0.95754504
128	0x3f7582fe	0.95903003
129	0x3f80009e	1.0000188
130	0x3f7f4cc6	0.9972652
131	0x3f8003b6	1.0001132
132	0x3f7fb033	0.99878234
133	0x3f800a59	1.0003158
134	0x3f7ff66c	0.99985385
135	0x3f7ffff8	0.9999995
136	0x3f7ffde0	0.9999676
137	0x3f7fc0d4	0.9990361
138	0x3f7fa542	0.9986154
139	0x3f804189	1.002
140	0x3f7f5a96	0.997476
141	0x3f7ec607	0.99520916
142	0x3f681a54	0.90665174
143	0x3f7adf56	0.97997034
144	0x3f800d95	1.0004145
145	0x3f8088e0	1.0041771
146	0x3f801f8e	1.000963
147	0x3f803347	1.0015649
148	0x3f7f7d04	0.99800134
149	0x3f801b49	1.0008327
150	0x3f800000	1.0
151	0x3f7ff3a5	0.9998115
152	0x3f8047a6	1.0021865
153	0x3f7f94ea	0.998366
154	0x3f7f2629	0.996676
155	0x3f8115fa	1.0084832
156	0x3f834310	1.0254841
157	0x3f6e074d	0.9297989
158	0x3f817e5b	1.0116686
159	0x3f7fcfcb	0.9992644
160	0x3f7fffa0	0.9999943
161	0x3f8029a0	1.0012703
162	0x3f807b57	1.003764
163	0x3f7fb303	0.99882525
164	0x3f7ff4ff	0.9998321
165	0x3f80001a	1.0000031
166	0x3f7feb12	0.99968064
167	0x3f7f6a8d	0.9977196
168	0x3f806a84	1.0032506
169	0x3f80a797	1.0051144
170	0x3f807691	1.0036184
171	0x3f814dd5	1.0101877
172	0x3f7e0710	0.99229527
173	0x3f7d6fd1	0.98998743
174	0x3f7f39df	0.9969768
175	0x3f810484	1.0079503
176	0x3f806975	1.0032183
177	0x3f7fc5e3	0.99911326
178	0x3f8054c2	1.0025866
179	0x3f805f9d	1.0029179
180	0x3f7fffb9	0.99999577
181	0x3f800856	1.0002544
182	0x3f7f2a12	0.9967357
183	0x3f808388	1.004014
184	0x3f7f8c0d	0.99823076
185	0x3f806ad3	1.00326
186	0x3f7ff0f8	0.99977064
187	0x3f7f05bb	0.9961812
188	0x3f7fa4d3	0.99860877
189	0x3f7efe11	0.99606425
190	0x3f7f09cd	0.9962433
191	0x3f7f7445	0.9978679
192	0x3f80351a	1.0016205
193	0x3f8010a3	1.0005077
194	0x3f7f5526	0.997393
195	0x3f7ffff0	0.99999905
196	0x3f7ff7eb	0.9998767
197	0x3f7f9af5	0.9984582
198	0x3f7fc84b	0.99915
199	0x3f80272f	1.0011958
200	0x3f806966	1.0032165
201	0x3f80ae53	1.00532
202	0x3f7fdf52	0.99950135
203	0x3f7f2b5f	0.99675554
204	0x3f7ef176	0.9958719
205	0x3f800eae	1.000448
206	0x3f7f71a5	0.9978278
207	0x3f7ff967	0.9998993
208	0x3f802541	1.0011369
209	0x3f7fc8d5	0.9991582
210	0x3f800001	1.0000001
211	0x3f7ff088	0.99976397
212	0x3f7f2447	0.9966473
213	0x3f7df3ca	0.9920012
214	0x3f823d70	1.0174999
215	0x3f814e86	1.0102088
216	0x3f80a87a	1.0051415
217	0x3f7f7e33	0.9980194
218	0x3f7e73d0	0.99395466
219	0x3f7ff3ed	0.99981576
220	0x3f800c33	1.0003723
221	0x3f80242a	1.0011036
222	0x3f8061bc	1.0029826
223	0x3f7fab2a	0.9987055
224	0x3f8065e8	1.0031099

centres f4 [225, 2]
0	0xc0490fdb	-3.1415927
1	0xc0fb53d1	-7.8539815
2	0xc0490fdb	-3.1415927
3	0xc0d76c6a	-6.731984
4	0xc0490fdb	-3.1415927
5	0xc0b38503	-5.609987
6	0xc0490fdb	-3.1415927
7	0xc08f9d9c	-4.4879894
8	0xc0490fdb	-3.1415927
9	0xc0576c6a	-3.365992
10	0xc0490fdb	-3.1415927
11	0xc00f9d9c	-2.2439947
12	0xc0490fdb	-3.1415927
13	0xbf8f9d9c	-1.1219974
14	0xc0490fdb	-3.1415927
15	0x00000000	0.0
16	0xc0490fdb	-3.1415927
17	0x3f8f9d9c	1.1219974
18	0xc0490fdb	-3.1415927
19	0x400f9d9c	2.2439947
20	0xc0490fdb	-3.1415927
21	0x40576c6a	3.365992
22	0xc0490fdb	-3.1415927
23	0x408f9d9c	4.4879894
24	0xc0490fdb	-3.1415927
25	0x40b38503	5.609987
26	0xc0490fdb	-3.1415927
27	0x40d76c6a	6.731984
28	0xc0490fdb	-3.1415927
29	0x40fb53d1	7.8539815
30	0xc02c56bb	-2.6927936
31	0xc0fb53d1	-7.8539815
32	0xc02c56bb	-2.6927936
33	0xc0d76c6a	-6.731984
34	0xc02c56bb	-2.6927936
35	0xc0b38503	-5.609987
36	0xc02c56bb	-2.6927936
37	0xc08f9d9c	-4.4879894
38	0xc02c56bb	-2.6927936
39	0xc0576c6a	-3.365992
40	0xc02c56bb	-2.6927936
41	0xc00f9d9c	-2.2439947
42	0xc02c56bb	-2.6927936
43	0xbf8f9d9c	-1.1219974
44	0xc02c56bb	-2.6927936
45	0x00000000	0.0
46	0xc02c56bb	-2.6927936
47	0x3f8f9d9c	1.1219974
48	0xc02c56bb	-2.6927936
49	0x400f9d9c	2.2439947
50	0xc02c56bb	-2.6927936
51	0x40576c6a	3.365992
52	0xc02c56bb	-2.6927936
53	0x408f9d9c	4.4879894
54	0xc02c56bb	-2.6927936
55	0x40b38503	5.609987
56	0xc02c56bb	-2.6927936
57	0x40d76c6a	6.731984
58	0xc02c56bb	-2.6927936
59	0x40fb53d1	7.8539815
60	0xc00f9d9c	-2.2439947
61	0xc0fb53d1	-7.8539815
62	0xc00f9d9c	-2.2439947
63	0xc0d76c6a	-6.731984
64	0xc00f9d9c	-2.2439947
65	0xc0b38503	-5.609987
66	0xc00f9d9c	-2.2439947
67	0xc08f9d9c	-4.4879894
68	0xc00f9d9c	-2.2439947
69	0xc0576c6a	-3.365992
70	0xc00f9d9c	-2.2439947
71	0xc00f9d9c	-2.2439947
72	0xc00f9d9c	-2.2439947
73	0xbf8f9d9c	-1.1219974
74	0xc00f9d9c	-2.2439947
75	0x00000000	0.0
76	0xc00f9d9c	-2.2439947
77	0x3f8f9d9c	1.1219974
78	0xc00f9d9c	-2.2439947
79	0x400f9d9c	2.2439947
80	0xc00f9d9c	-2.2439947
81	0x40576c6a	3.365992
82	0xc00f9d9c	-2.2439947
83	0x408f9d9c	4.4879894
84	0xc00f9d9c	-2.2439947
85	0x40b38503	5.609987
86	0xc00f9d9c	-2.2439947
87	0x40d76c6a	6.731984
88	0xc00f9d9c	-2.2439947
89	0x40fb53d1	7.8539815
90	0xbfe5c8fa	-1.7951958
91	0xc0fb53d1	-7.8539815
92	0xbfe5c8fa	-1.7951958
93	0xc0d76c6a	-6.731984
94	0xbfe5c8fa	-1.7951958
95	0xc0b38503	-5.609987
96	0xbfe5c8fa	-1.7951958
97	0xc08f9d9c	-4.4879894
98	0xbfe5c8fa	-1.7951958
99	0xc0576c6a	-3.365992
100	0xbfe5c8fa	-1.7951958
101	0xc00f9d9c	-2.2439947
102	0xbfe5c8fa	-1.7951958
103	0xbf8f9d9c	-1.1219974
104	0xbfe5c8fa	-1.7951958
105	0x00000000	0.0
106	0xbfe5c8fa	-1.7951958
107	0x3f8f9d9c	1.1219974
108	0xbfe5c8fa	-1.7951958
109	0x400f9d9c	2.2439947
110	0xbfe5c8fa	-1.7951958
111	0x40576c6a	3.365992
112	0xbfe5c8fa	-1.7951958
113	0x408f9d9c	4.4879894
114	0xbfe5c8fa	-1.7951958
115	0x40b38503	5.609987
116	0xbfe5c8fa	-1.7951958
117	0x40d76c6a	6.731984
118	0xbfe5c8fa	-1.7951958
119	0x40fb53d1	7.8539815
120	0xbfac56bb	-1.3463968
121	0xc0fb53d1	-7.8539815
122	0xbfac56bb	-1.3463968
123	0xc0d76c6a	-6.731984
124	0xbfac56bb	-1.3463968
125	0xc0b38503	-5.609987
126	0xbfac56bb	-1.3463968
127	0xc08f9d9c	-4.4879894
128	0xbfac56bb	-1.3463968
129	0xc0576c6a	-3.365992
130	0xbfac56bb	-1.3463968
131	0xc00f9d9c	-2.2439947
132	0xbfac56bb	-1.3463968
133	0xbf8f9d9c	-1.1219974
134	0xbfac56bb	-1.3463968
135	0x00000000	0.0
136	0xbfac56bb	-1.3463968
137	0x3f8f9d9c	1.1219974
138	0xbfac56bb	-1.3463968
139	0x400f9d9c	2.2439947
140	0xbfac56bb	-1.3463968
141	0x40576c6a	3.365992
142	0xbfac56bb	-1.3463968
143	0x408f9d9c	4.4879894
144	0xbfac56bb	-1.3463968
145	0x40b38503	5.609987
146	0xbfac56bb	-1.3463968
147	0x40d76c6a	6.731984
148	0xbfac56bb	-1.3463968
149	0x40fb53d1	7.8539815
150	0xbf65c8fa	-0.8975979
151	0xc0fb53d1	-7.8539815
152	0xbf65c8fa	-0.8975979
153	0xc0d76c6a	-6.731984
154	0xbf65c8fa	-0.8975979
155	0xc0b38503	-5.609987
156	0xbf65c8fa	-0.8975979
157	0xc08f9d9c	-4.4879894
158	0xbf65c8fa	-0.8975979
159	0xc0576c6a	-3.365992
160	0xbf65c8fa	-0.8975979
161	0xc00f9d9c	-2.2439947
162	0xbf65c8fa	-0.8975979
163	0xbf8f9d9c	-1.1219974
164	0xbf65c8fa	-0.8975979
165	0x00000000	0.0
166	0xbf65c8fa	-0.8975979
167	0x3f8f9d9c	1.1219974
168	0xbf65c8fa	-0.8975979
169	0x400f9d9c	2.2439947
170	0xbf65c8fa	-0.8975979
171	0x40576c6a	3.365992
172	0xbf65c8fa	-0.8975979
173	0x408f9d9c	4.4879894
174	0xbf65c8fa	-0.8975979
175	0x40b38503	5.609987
176	0xbf65c8fa	-0.8975979
177	0x40d76c6a	6.731984
178	0xbf65c8fa	-0.8975979
179	0x40fb53d1	7.8539815
180	0xbee5c8fa	-0.44879895
181	0xc0fb53d1	-7.8539815
182	0xbee5c8fa	-0.44879895
183	0xc0d76c6a	-6.731984
184	0xbee5c8fa	-0.44879895
185	0xc0b38503	-5.609987
186	0xbee5c8fa	-0.44879895
187	0xc08f9d9c	-4.4879894
188	0xbee5c8fa	-0.44879895
189	0xc0576c6a	-3.365992
190	0xbee5c8fa	-0.44879895
191	0xc00f9d9c	-2.2439947
192	0xbee5c8fa	-0.44879895
193	0xbf8f9d9c	-1.1219974
194	0xbee5c8fa	-0.44879895
195	0x00000000	0.0
196	0xbee5c8fa	-0.44879895
197	0x3f8f9d9c	1.1219974
198	0xbee5c8fa	-0.44879895
199	0x400f9d9c	2.2439947
200	0xbee5c8fa	-0.44879895
201	0x40576c6a	3.365992
202	0xbee5c8fa	-0.44879895
203	0x408f9d9c	4.4879894
204	0xbee5c8fa	-0.44879895
205	0x40b38503	5.609987
206	0xbee5c8fa	-0.44879895
207	0x40d76c6a	6.731984
208	0xbee5c8fa	-0.44879895
209	0x40fb53d1	7.8539815
210	0x00000000	0.0
211	0xc0fb53d1	-7.8539815
212	0x00000000	0.0
213	0xc0d76c6a	-6.731984
214	0x00000000	0.0
215	0xc0b38503	-5.609987
216	0x00000000	0.0
217	0xc08f9d9c	-4.4879894
218	0x00000000	0.0
219	0xc0576c6a	-3.365992
220	0x00000000	0.0
221	0xc00f9d9c	-2.2439947
222	0x00000000	0.0
223	0xbf8f9d9c	-1.1219974
224	0x00000000	0.0
225	0x00000000	0.0
226	0x00000000	0.0
227	0x3f8f9d9c	1.1219974
228	0x00000000	0.0
229	0x400f9d9c	2.2439947
230	0x00000000	0.0
231	0x40576c6a	3.365992
232	0x00000000	0.0
233	0x408f9d9c	4.4879894
234	0x00000000	0.0
235	0x40b38503	5.609987
236	0x00000000	0.0
237	0x40d76c6a	6.731984
238	0x00000000	0.0
239	0x40fb53d1	7.8539815
240	0x3ee5c8fa	0.44879895
241	0xc0fb53d1	-7.8539815
242	0x3ee5c8fa	0.44879895
243	0xc0d76c6a	-6.731984
244	0x3ee5c8fa	0.44879895
245	0xc0b38503	-5.609987
246	0x3ee5c8fa	0.44879895
247	0xc08f9d9c	-4.4879894
248	0x3ee5c8fa	0.44879895
249	0xc0576c6a	-3.365992
250	0x3ee5c8fa	0.44879895
251	0xc00f9d9c	-2.2439947
252	0x3ee5c8fa	0.44879895
253	0xbf8f9d9c	-1.1219974
254	0x3ee5c8fa	0.44879895
255	0x00000000	0.0

weight f4 [1, 225]
0	0x3c8f2726	0.017474722
1	0xbd860dd6	-0.06545608
2	0xbdedd022	-0.11611964
3	0xb993c9fa	-0.0002818851
4	0x3c2a804c	0.010406565
5	0xbc27682b	-0.010217707
6	0xbbddbffd	-0.0067672716
7	0x3d08e0c7	0.03341749
8	0xbdcb004c	-0.09912166
9	0xbe23112e	-0.15924522
10	0xbdfb0bc1	-0.12258101
11	0xbddce500	-0.10785866
12	0xbe23a267	-0.1597992
13	0xbc2ffa83	-0.010740879
14	0x3cc3af82	0.0238874
15	0x3bc0e232	0.0058863396
16	0xbdbb2eaf	-0.091397636
17	0xbdc9b90a	-0.098497465
18	0xbc889cdd	-0.01667636
19	0x3c1fe875	0.009760012
20	0xbbbe2076	-0.0058022095
21	0x3d055f18	0.03256139
22	0xbd1526f8	-0.036414117
23	0xbd33a83b	-0.04386161
24	0xbd927ef1	-0.071531184
25	0x3d2f79e1	0.042840842
26	0xbd30311b	-0.04301558
27	0xbd974ce9	-0.07387716
28	0x3caa38fc	0.020779125
29	0x3d016947	0.03159454
30	0x3c9a1481	0.018808605
31	0xbc927b5c	-0.017881088
32	0xbdb21813	-0.08695998
33	0xbc974cfb	-0.018469324
34	0xbcf23898	-0.029568002
35	0xbcb62257	-0.022233171
36	0x3c8c4267	0.017121507
37	0x3c494139	0.012283617
38	0x3d4616b8	0.04836151
39	0x3c88e36f	0.016710011
40	0x3dba364d	0.09092388
41	0xbd55b3c5	-0.052173395
42	0xbcf0af2e	-0.029380407
43	0x3cfdc99e	0.030979928
44	0x3cfddce0	0.03098911
45	0x3b11590e	0.0022178325
46	0xbd911d80	-0.07085705
47	0xbd1fe08f	-0.039032515
48	0xbd3c3929	-0.04595295
49	0xbddfb2da	-0.10922785
50	0x3bfd7359	0.007734698
51	0xbd9cf556	-0.076639816
52	0x3ce0c56b	0.027437886
53	0x3d572e6a	0.0525345
54	0x3d1bc283	0.038027298
55	0x3cb4ecf0	0.022085637
56	0xbb10b3df	-0.0022079868
57	0x3b9c9d2b	0.004779478
58	0x3d6d891c	0.057992086
59	0xbcaf948a	-0.021433134
60	0x3c890e12	0.016730342
61	0xbce4fc00	-0.027952194
62	0xbdfd750d	-0.12375841
63	0xbdbd703d	-0.092499234
64	0x3b1af717	0.0023645812
65	0xbd9618e8	-0.07328969
66	0xbdbb44af	-0.0914396
67	0xbc069ac7	-0.008215613
68	0x3d94ef26	0.072721764
69	0x3d4c1100	0.0498209
70	0x3d79e07f	0.06100511
71	0xbcb54c96	-0.022131246
72	0x3d8a0fa3	0.06741264
73	0x3d2fd73d	0.042929877
74	0xbd258f81	-0.04042006
75	0x3c6fd526	0.014638221
76	0xbcbec377	-0.023286564
77	0xbd714355	-0.058902103
78	0xbd0c76d4	-0.03429301
79	0xbd24f693	-0.040274214
80	0xbd495e1a	-0.049162008
81	0xbe198667	-0.14992677
82	0x3d712008	0.058868438
83	0x3e5a23bb	0.21302693
84	0xbbd636ca	-0.006537293
85	0xbd1390b1	-0.03602666
86	0x3d6a43f0	0.057193696
87	0x3c24bad4	0.010054309
88	0x3d39a942	0.045327432
89	0xbd41e71a	-0.047339536
90	0xbcf3a46d	-0.02974149
91	0xbc37c7bf	-0.011217057
92	0xbc551f31	-0.013007925
93	0xbd84933b	-0.064733945
94	0xbd75b46b	-0.059986513
95	0x3cab2738	0.020892724
96	0xbd826922	-0.06367709
97	0x3e96430c	0.29348028
98	0x3e78fb49	0.24314608
99	0x3d764d00	0.060132027
100	0x3da02f15	0.0782148
101	0x3d5689b5	0.05237742
102	0xbca75401	-0.020425798
103	0x3af6916d	0.0018811651
104	0x3ca8dbcc	0.02061262
105	0xbd52fb46	-0.051509164
106	0x3b0f4b6b	0.002186502
107	0x3ceb9b52	0.028760586
108	0x3c3c3acb	0.011488627
109	0xbc9b188c	-0.018932603
110	0xbbca661c	-0.006176723
111	0x3de7d835	0.11320535
112	0x3effb68f	0.4994397
113	0x3e3667dd	0.17813058
114	0xbc8a3758	-0.016872093
115	0xbd31927d	-0.043352593
116	0x3d0d853b	0.034550887
117	0x3c62b79b	0.01383772
118	0x3bd41aaa	0.006472905
119	0x3c0faafb	0.008768792
120	0x3ce130ef	0.027489154
121	0x3c916ac6	0.017751109
122	0xbc4e28d3	-0.012582975
123	0xbc85c763	-0.016330427
124	0x3d8fe8f2	0.07026853
125	0x3bc4693a	0.0059939893
126	0x3e9cedc7	0.3065016
127	0x3eb409cf	0.35163733
128	0xbd4e0404	-0.0502968
129	0x3cd4e2df	0.025987087
130	0x3d1ebdc4	0.038755193
131	0xbc218368	-0.00985799
132	0x3cc11fa2	0.023574654
133	0xbc9371ac	-0.017998539
134	0x3d0b481b	0.034004312
135	0xbce77225	-0.02825267
136	0xbc4d7b6f	-0.012541636
137	0xbc9d662c	-0.019213758
138	0x3ab66ac3	0.0013917316
139	0x3d41d81b	0.047325235
140	0x3c2e7e6e	0.01065026
141	0x3e7b3cc5	0.245349
142	0x3d813068	0.06308061
143	0xbe0d9cb3	-0.13829307
144	0xbce87958	-0.028378174
145	0xbda5596c	-0.080736965
146	0xbced8991	-0.02899626
147	0xbd1f0abf	-0.038828608
148	0x3d1ba409	0.037998233
149	0xbd856708	-0.06513792
150	0xbaa14e1d	-0.0012306605
151	0xbd069214	-0.032854155
152	0x3d3a8492	0.045536585
153	0x3ca868c1	0.020557763
154	0xbc654350	-0.013993099
155	0x3dc764f1	0.0973605
156	0x3e31c902	0.17361835
157	0xbdbed3c4	-0.09317735
158	0xbdc57c7c	-0.09642884
159	0xbd34e24e	-0.044161133
160	0xbc433aba	-0.011915857
161	0xbd2c7bfd	-0.042110432
162	0xbd87f918	-0.06639308
163	0x3a8e3645	0.0010849914
164	0x3aeaeac5	0.001792275
165	0x3d36fa69	0.044672403
166	0xbd1ba9ab	-0.038003605
167	0xbc008bc6	-0.007845825
168	0x3dacabac	0.08431181
169	0x3d977dce	0.07397042
170	0x3d94cbf2	0.07265462
171	0x3da7fffb	0.08203121
172	0xbb8ab286	-0.0042327074
173	0x3c97686b	0.018482408
174	0xbd8887e0	-0.06666541
175	0xbd9f1925	-0.07768468
176	0xbdcdff1a	-0.100584224
177	0xbcab0622	-0.020876948
178	0xbd8e9f77	-0.06964009
179	0xbd99e22b	-0.07513841
180	0xbd7db631	-0.06194133
181	0x3d1ad015	0.0377961
182	0xbce7af54	-0.028281845
183	0x3d838bd6	0.06423156
184	0x3dbc408e	0.09192
185	0xbd4d8543	-0.050175916
186	0x3ce3c94d	0.027805949
187	0xb8ad8969	-8.2748775e-05
188	0xbbe3e46a	-0.0069547193
189	0xbb95f5bd	-0.0045764134
190	0x3bf767c1	0.00755021
191	0xbd2a9a2c	-0.041650936
192	0xbd5e5993	-0.054284643
193	0xbd2a7963	-0.04161967
194	0x3d0e5628	0.034750134
195	0xbce9d3d5	-0.028543392
196	0xbd5b7375	-0.053576905
197	0x3d1b7914	0.037957266
198	0x3c8301a3	0.015991991
199	0xbce6bd63	-0.028166478
200	0xbd2c3d69	-0.042050753
201	0xbdb1c2b9	-0.086797185
202	0xbd538a82	-0.051645763
203	0xbc48b33f	-0.012249767
204	0x3cb246d0	0.021762282
205	0xbd10ce56	-0.035353027
206	0x3bc26d34	0.005933428
207	0xbd0714a6	-0.032978676
208	0xbd6e4c75	-0.058178384
209	0xbb4a7587	-0.0030892806
210	0xbcba404c	-0.022735737
211	0x3d58bd4c	0.052914903
212	0x3d41a94f	0.047280606
213	0xbc9d00a5	-0.019165346
214	0xbe2734d3	-0.16328745
215	0xbdf88402	-0.121345535
216	0xbdcf45b1	-0.101207145
217	0xbd98c179	-0.07458777
218	0xbc61d9b8	-0.013784818
219	0xbc0fa150	-0.008766487
220	0x3d128969	0.035775576
221	0xbd5ccacd	-0.053904343
222	0xbd6eef3e	-0.058333628
223	0xbc6980e9	-0.014251926
224	0xbdb3386d	-0.08750997
