Models/Success5/model.pt (torch_old, 10038 bytes, 3 tensors)

sigmas f4 [225]
1.0004693 1.0010949 0.9987295 1.0013059 0.97284466 1.0053694 1.03083 0.96298134
0.9545185 1.0317292 0.9983765 0.99885297 0.9975882 1.0000685 0.9999972 0.99953634
0.9987371 1.0000542 0.9902698 1.0041273 0.9970403 0.9600354 0.98388505 1.0204803
1.0447128 0.9714682 0.9974535 1.0010759 0.99770033 1.0000597 1.0002949 0.9996123
1.0048888 0.99861795 0.99575394 1.0051044 1.0203022 1.0566487 1.0833873 1.0501537
0.97997344 1.0111119 1.000605 1.0008739 0.9999446 1.0000359 1.0053746 1.0103083
0.98694295 1.0085027 0.98756146 0.9918299 0.9874444 1.0147747 0.98230827 1.0012658
1.0153122 1.0128509 0.9996587 1.0000111 0.9997243 1.0031551 1.0013728 0.9986385
0.9966313 1.0068556 1.0417773 0.9507579 0.9058565 1.0261189 0.9910796 1.0102279
0.996269 0.99994344 0.99983233 1.0001224 1.0014368 1.0122185 1.0087585 0.98946357
0.9799765 0.90133905 0.6950114 1.0842527 0.9533093 1.0270354 1.0048503 0.99801165
0.999805 1.0000066 1.0000519 1.00014 1.0019374 0.9990553 0.998585 0.99856967
0.94162816 0.9509678 0.74954474 0.869609 1.0329964 0.9946625 1.0003269 0.9994133
1.0000927 1.0 1.000216 0.9995209 1.0013562 0.9968016 0.9950402 0.81301445
0.7025083 0.8484883 1.0016376 1.0002049 0.9989045 0.9988322 1.0000691 0.99996746
1.0 1.0001256 0.99994594 1.0010006 1.0386647 0.85824084 0.7395372 1.1348594
0.9665998 0.9619645 1.0002574 0.99707025 1.0084906 0.9989152 1.0000792 0.9999846
0.9998663 1.0048691 1.0028754 1.019127 0.96061987 1.0338186 0.9151949 0.9702099
1.0021396 0.9850058 1.0133954 1.0092053 0.99748325 0.999958 0.999955 0.99949104
1.0056146 1.0127187 1.0035539 1.0213631 0.9478859 1.0067096 1.0214943 1.0124322
1.0002785 0.9967865 1.0032969 1.0065904 0.9997592 0.99946564 0.99964136 0.99810165
1.006739 1.0080916 0.9715166 0.99704117 0.97867125 0.9938073 0.9910665 0.9841999
0.99941045 0.99894786 1.0018716 0.9995315 0.99907357 1.0001603 1.0034792 0.99694
0.9793381 1.0281368 1.0176033 1.1248536 1.0279261 1.0058302 0.99892616 1.0024495
0.9962699 1.0038432 1.0010856 1.0005949 1.0016994 0.99855566 0.993856 0.9658867
1.0436637 1.0334961 0.97991985 0.9521501 1.0036052 0.9956441 1.0017174 1.0031322
0.998831 0.99877346 1.0009485 0.99953485 1.0008097 0.996566 0.9922904 1.0196779
0.9458873 0.96617603 1.0309532 1.0120796 0.96589893 0.99911046 1.0033498 0.9995335
0.9990467
00000000: 610f 803f e123 803f bdac 7f3f cb2a 803f
00000010: 590c 793f f2af 803f 3df2 833f f285 763f
00000020: 535b 743f b40f 843f 9a95 7f3f d4b4 7f3f
00000030: f161 7f3f 3f02 803f d1ff 7f3f 9de1 7f3f
00000040: 3cad 7f3f c701 803f 5282 7d3f 3e87 803f
00000050: 083e 7f3f e1c4 753f e4df 7b3f 199f 823f
00000060: 26b9 853f 24b2 783f 1d59 7f3f 4123 803f
00000070: 4a69 7f3f f501 803f aa09 803f 97e6 7f3f
00000080: 32a0 803f 6da5 7f3f bbe9 7e3f 43a7 803f
00000090: 4399 823f 4440 873f 6fac 8a3f 706b 863f
000000a0: 8adf 7a3f 1d6c 813f d313 803f a31c 803f
000000b0: 5ffc 7f3f 2d01 803f 1db0 803f c851 813f
000000c0: 4ba8 7c3f 9e16 813f d4d0 7c3f 90e8 7d3f
000000d0: 28c9 7c3f 23e4 813f 8e78 7b3f 7a29 803f
000000e0: c0f5 813f 19a5 813f a2e9 7f3f 5d00 803f
000000f0: efed 7f3f 6367 803f fc2c 803f c6a6 7f3f
00000100: 3b23 7f3f a5e0 803f f558 853f df64 733f
00000110: 36e6 673f dd57 833f 65b7 7d3f 264f 813f
00000120: 7c0b 7f3f 4bfc 7f3f 03f5 7f3f 0304 803f
00000130: 152f 803f 6090 813f 001f 813f 7c4d 7d3f
00000140: bddf 7a3f 28be 663f 44ec 313f cbc8 8a3f
00000150: 140c 743f e575 833f ef9e 803f b17d 7f3f
00000160: 38f3 7f3f 3700 803f b301 803f 9604 803f
00000170: 7c3f 803f 17c2 7f3f 44a3 7f3f 43a2 7f3f
00000180: 8b0e 713f a072 733f 2ae2 3f3f b29e 5e3f
00000190: 3a39 843f 34a2 7e3f b60a 803f 8dd9 7f3f
000001a0: 0a03 803f 0000 803f 1407 803f 9ae0 7f3f
000001b0: 712c 803f 642e 7f3f f4ba 7e3f b721 503f
000001c0: 95d7 333f 8736 593f a935 803f b706 803f
000001d0: 35b8 7f3f 78b3 7f3f 4402 803f defd 7f3f
000001e0: 0000 803f 1e04 803f 75fc 7f3f ca20 803f
000001f0: f7f2 843f acb5 5b3f 4f52 3d3f 1343 913f
00000200: 1673 773f 4e43 763f 6f08 803f ff3f 7f3f
00000210: 3816 813f e8b8 7f3f 9802 803f fefe 7f3f
00000220: 3df7 7f3f 8d9f 803f 395e 803f c172 823f
00000230: 2feb 753f 2b54 843f 374a 6a3f ad5f 783f
00000240: 1c46 803f 5729 7c3f f1b6 813f a42d 813f
00000250: 105b 7f3f 3ffd 7f3f 0dfd 7f3f a5de 7f3f
00000260: fbb7 803f c4a0 813f 7474 803f 07bc 823f
00000270: a6a8 723f dcdb 803f 53c0 823f 6197 813f
00000280: 2009 803f 662d 7f3f 086c 803f f4d7 803f
00000290: 38f0 7f3f fbdc 7f3f 7fe8 7f3f 9783 7f3f
000002a0: d3dc 803f 2509 813f 50b5 783f 173e 7f3f
000002b0: 338a 7a3f 286a 7e3f 89b6 7d3f 86f4 7b3f
000002c0: 5dd9 7f3f 0cbb 7f3f 543d 803f 4ce1 7f3f
000002d0: 49c3 7f3f 4105 803f 0272 803f 7637 7f3f
000002e0: e7b5 7a3f fd99 833f d340 823f 34fb 8f3f
000002f0: 1593 833f 0bbf 803f a0b9 7f3f 4450 803f
00000300: 8b0b 7f3f ef7d 803f 9323 803f 7e13 803f
00000310: b037 803f 58a1 7f3f 596d 7e3f 5a44 773f
00000320: c696 853f 9a49 843f 07dc 7a3f 1cc0 733f
00000330: 2376 803f 88e2 7e3f 4738 803f a366 803f
00000340: 63b3 7f3f 9eaf 7f3f 151f 803f 84e1 7f3f
00000350: 881a 803f f31e 7f3f be06 7e3f ce84 823f
00000360: ac25 723f 5057 773f 46f6 833f d38b 813f
00000370: 2745 773f b4c5 7f3f c46d 803f 6de1 7f3f
00000380: 86c1 7f3f

centres f4 [225, 2]
-3.1415927 -7.8539815 -3.1415927 -6.731984 -3.1415927 -5.609987 -3.1415927 -4.4879894
-3.1415927 -3.365992 -3.1415927 -2.2439947 -3.1415927 -1.1219974 -3.1415927 0.0
-3.1415927 1.1219974 -3.1415927 2.2439947 -3.1415927 3.365992 -3.1415927 4.4879894
-3.1415927 5.609987 -3.1415927 6.731984 -3.1415927 7.8539815 -2.6927936 -7.8539815
-2.6927936 -6.731984 -2.6927936 -5.609987 -2.6927936 -4.4879894 -2.6927936 -3.365992
-2.6927936 -2.2439947 -2.6927936 -1.1219974 -2.6927936 0.0 -2.6927936 1.1219974
-2.6927936 2.2439947 -2.6927936 3.365992 -2.6927936 4.4879894 -2.6927936 5.609987
-2.6927936 6.731984 -2.6927936 7.8539815 -2.2439947 -7.8539815 -2.2439947 -6.731984
-2.2439947 -5.609987 -2.2439947 -4.4879894 -2.2439947 -3.365992 -2.2439947 -2.2439947
-2.2439947 -1.1219974 -2.2439947 0.0 -2.2439947 1.1219974 -2.2439947 2.2439947
-2.2439947 3.365992 -2.2439947 4.4879894 -2.2439947 5.609987 -2.2439947 6.731984
-2.2439947 7.8539815 -1.7951958 -7.8539815 -1.7951958 -6.731984 -1.7951958 -5.609987
-1.7951958 -4.4879894 -1.7951958 -3.365992 -1.7951958 -2.2439947 -1.7951958 -1.1219974
-1.7951958 0.0 -1.7951958 1.1219974 -1.7951958 2.2439947 -1.7951958 3.365992
-1.7951958 4.4879894 -1.7951958 5.609987 -1.7951958 6.731984 -1.7951958 7.8539815
-1.3463968 -7.8539815 -1.3463968 -6.731984 -1.3463968 -5.609987 -1.3463968 -4.4879894
-1.3463968 -3.365992 -1.3463968 -2.2439947 -1.3463968 -1.1219974 -1.3463968 0.0
-1.3463968 1.1219974 -1.3463968 2.2439947 -1.3463968 3.365992 -1.3463968 4.4879894
-1.3463968 5.609987 -1.3463968 6.731984 -1.3463968 7.8539815 -0.8975979 -7.8539815
-0.8975979 -6.731984 -0.8975979 -5.609987 -0.8975979 -4.4879894 -0.8975979 -3.365992
-0.8975979 -2.2439947 -0.8975979 -1.1219974 -0.8975979 0.0 -0.8975979 1.1219974
-0.8975979 2.2439947 -0.8975979 3.365992 -0.8975979 4.4879894 -0.8975979 5.609987
-0.8975979 6.731984 -0.8975979 7.8539815 -0.44879895 -7.8539815 -0.44879895 -6.731984
-0.44879895 -5.609987 -0.44879895 -4.4879894 -0.44879895 -3.365992 -0.44879895 -2.2439947
-0.44879895 -1.1219974 -0.44879895 0.0 -0.44879895 1.1219974 -0.44879895 2.2439947
-0.44879895 3.365992 -0.44879895 4.4879894 -0.44879895 5.609987 -0.44879895 6.731984
-0.44879895 7.8539815 0.0 -7.8539815 0.0 -6.731984 0.0 -5.609987
0.0 -4.4879894 0.0 -3.365992 0.0 -2.2439947 0.0 -1.1219974
0.0 0.0 0.0 1.1219974 0.0 2.2439947 0.0 3.365992
0.0 4.4879894 0.0 5.609987 0.0 6.731984 0.0 7.8539815
0.44879895 -7.8539815 0.44879895 -6.731984 0.44879895 -5.609987 0.44879895 -4.4879894
0.44879895 -3.365992 0.44879895 -2.2439947 0.44879895 -1.1219974 0.44879895 0.0
00000000: db0f 49c0 d153 fbc0 db0f 49c0 6a6c d7c0
00000010: db0f 49c0 0385 b3c0 db0f 49c0 9c9d 8fc0
00000020: db0f 49c0 6a6c 57c0 db0f 49c0 9c9d 0fc0
00000030: db0f 49c0 9c9d 8fbf db0f 49c0 0000 0000
00000040: db0f 49c0 9c9d 8f3f db0f 49c0 9c9d 0f40
00000050: db0f 49c0 6a6c 5740 db0f 49c0 9c9d 8f40
00000060: db0f 49c0 0385 b340 db0f 49c0 6a6c d740
00000070: db0f 49c0 d153 fb40 bb56 2cc0 d153 fbc0
00000080: bb56 2cc0 6a6c d7c0 bb56 2cc0 0385 b3c0
00000090: bb56 2cc0 9c9d 8fc0 bb56 2cc0 6a6c 57c0
000000a0: bb56 2cc0 9c9d 0fc0 bb56 2cc0 9c9d 8fbf
000000b0: bb56 2cc0 0000 0000 bb56 2cc0 9c9d 8f3f
000000c0: bb56 2cc0 9c9d 0f40 bb56 2cc0 6a6c 5740
000000d0: bb56 2cc0 9c9d 8f40 bb56 2cc0 0385 b340
000000e0: bb56 2cc0 6a6c d740 bb56 2cc0 d153 fb40
000000f0: 9c9d 0fc0 d153 fbc0 9c9d 0fc0 6a6c d7c0
00000100: 9c9d 0fc0 0385 b3c0 9c9d 0fc0 9c9d 8fc0
00000110: 9c9d 0fc0 6a6c 57c0 9c9d 0fc0 9c9d 0fc0
00000120: 9c9d 0fc0 9c9d 8fbf 9c9d 0fc0 0000 0000
00000130: 9c9d 0fc0 9c9d 8f3f 9c9d 0fc0 9c9d 0f40
00000140: 9c9d 0fc0 6a6c 5740 9c9d 0fc0 9c9d 8f40
00000150: 9c9d 0fc0 0385 b340 9c9d 0fc0 6a6c d740
00000160: 9c9d 0fc0 d153 fb40 fac8 e5bf d153 fbc0
00000170: fac8 e5bf 6a6c d7c0 fac8 e5bf 0385 b3c0
00000180: fac8 e5bf 9c9d 8fc0 fac8 e5bf 6a6c 57c0
00000190: fac8 e5bf 9c9d 0fc0 fac8 e5bf 9c9d 8fbf
000001a0: fac8 e5bf 0000 0000 fac8 e5bf 9c9d 8f3f
000001b0: fac8 e5bf 9c9d 0f40 fac8 e5bf 6a6c 5740
000001c0: fac8 e5bf 9c9d 8f40 fac8 e5bf 0385 b340
000001d0: fac8 e5bf 6a6c d740 fac8 e5bf d153 fb40
000001e0: bb56 acbf d153 fbc0 bb56 acbf 6a6c d7c0
000001f0: bb56 acbf 0385 b3c0 bb56 acbf 9c9d 8fc0
00000200: bb56 acbf 6a6c 57c0 bb56 acbf 9c9d 0fc0
00000210: bb56 acbf 9c9d 8fbf bb56 acbf 0000 0000
00000220: bb56 acbf 9c9d 8f3f bb56 acbf 9c9d 0f40
00000230: bb56 acbf 6a6c 5740 bb56 acbf 9c9d 8f40
00000240: bb56 acbf 0385 b340 bb56 acbf 6a6c d740
00000250: bb56 acbf d153 fb40 fac8 65bf d153 fbc0
00000260: fac8 65bf 6a6c d7c0 fac8 65bf 0385 b3c0
00000270: fac8 65bf 9c9d 8fc0 fac8 65bf 6a6c 57c0
00000280: fac8 65bf 9c9d 0fc0 fac8 65bf 9c9d 8fbf
00000290: fac8 65bf 0000 0000 fac8 65bf 9c9d 8f3f
000002a0: fac8 65bf 9c9d 0f40 fac8 65bf 6a6c 5740
000002b0: fac8 65bf 9c9d 8f40 fac8 65bf 0385 b340
000002c0: fac8 65bf 6a6c d740 fac8 65bf d153 fb40
000002d0: fac8 e5be d153 fbc0 fac8 e5be 6a6c d7c0
000002e0: fac8 e5be 0385 b3c0 fac8 e5be 9c9d 8fc0
000002f0: fac8 e5be 6a6c 57c0 fac8 e5be 9c9d 0fc0
00000300: fac8 e5be 9c9d 8fbf fac8 e5be 0000 0000
00000310: fac8 e5be 9c9d 8f3f fac8 e5be 9c9d 0f40
00000320: fac8 e5be 6a6c 5740 fac8 e5be 9c9d 8f40
00000330: fac8 e5be 0385 b340 fac8 e5be 6a6c d740
00000340: fac8 e5be d153 fb40 0000 0000 d153 fbc0
00000350: 0000 0000 6a6c d7c0 0000 0000 0385 b3c0
00000360: 0000 0000 9c9d 8fc0 0000 0000 6a6c 57c0
00000370: 0000 0000 9c9d 0fc0 0000 0000 9c9d 8fbf
00000380: 0000 0000 0000 0000 0000 0000 9c9d 8f3f
00000390: 0000 0000 9c9d 0f40 0000 0000 6a6c 5740
000003a0: 0000 0000 9c9d 8f40 0000 0000 0385 b340
000003b0: 0000 0000 6a6c d740 0000 0000 d153 fb40
000003c0: fac8 e53e d153 fbc0 fac8 e53e 6a6c d7c0
000003d0: fac8 e53e 0385 b3c0 fac8 e53e 9c9d 8fc0
000003e0: fac8 e53e 6a6c 57c0 fac8 e53e 9c9d 0fc0
000003f0: fac8 e53e 9c9d 8fbf fac8 e53e 0000 0000

weight f4 [1, 225]
-0.029678345 -0.038137577 0.02700355 0.043870665 -0.16970122 -0.3526337 -0.3365871 -0.52882284
-0.36903334 -0.13720751 -0.26160872 0.03976494 0.04276901 0.010192881 0.034408644 0.02429014
0.02477057 -0.05108831 0.11982792 -0.061468594 -0.20575742 -0.25891948 -0.26256865 -0.08923673
-0.05491047 -0.20463552 0.04497592 0.08721684 -0.058690798 0.022702964 -0.01899264 -0.0020975186
-0.15065464 0.03321121 0.104891166 0.0075721797 0.0028576383 0.010115121 -0.012481817 -0.15815972
-0.14895673 0.10425559 0.009277062 0.054436862 -0.03426793 -0.0029144417 -0.0835532 -0.13812417
-0.157075 0.050029304 0.15457173 0.19455057 0.112931915 -0.04888211 -0.10463414 0.017260142
0.20940205 0.0823422 -0.03847649 0.008183433 0.05464111 -0.061596066 -0.03754006 -0.09232512
-0.042844854 -0.029806197 0.0018697975 -0.18830648 -0.2575919 -0.020956071 0.2699588 0.2233424
-0.051216528 -0.025834331 0.051150057 -0.06400202 -0.0489923 -0.10396179 -0.11161 -0.19965103
-0.1619429 -0.2659447 -0.3984266 0.106591254 0.2588933 0.31097308 0.1082183 -0.037129465
0.0041642813 -0.018324316 -0.059515413 -0.010289733 -0.024968605 -0.011045342 -0.13527735 -0.061004974
-0.019259006 0.27991205 0.5324351 0.36086327 0.20770954 0.007894253 0.03184996 0.053745523
0.0557554 0.046269104 -0.062201854 0.027226044 0.043443568 0.000784924 0.16450459 0.43508738
0.90729105 0.38229173 0.2102092 0.013178649 -0.061265703 0.02171009 -0.0071610175 -0.044589475
0.0050216145 -0.022557948 0.0075140097 0.03637819 0.24646975 0.42495754 0.54690564 0.10445911
-0.033182785 -0.14435057 -0.051052805 -0.007406961 -0.08734687 0.02804135 -0.029549995 0.0037108695
0.011092964 0.06437389 0.08387443 0.2649412 0.23308912 0.015639102 -0.32723984 -0.20441942
-0.0638871 -0.19746219 -0.17495888 -0.08198053 0.03726227 0.008380886 0.011537388 0.051416952
0.06514582 0.19891118 0.25203303 0.0022012317 -0.2170787 -0.1699261 0.038476538 0.010331908
-0.037855618 -0.08490745 -0.071305305 -0.090667695 0.016980551 0.06038278 0.010081934 -0.01679469
0.23160285 0.0759245 -0.16838604 0.022283237 0.1875214 0.20454782 0.13376655 0.15307407
-0.007950634 -0.06278789 -0.04130225 0.02101409 0.059804514 -0.004478283 0.050507642 0.08345616
-0.16772535 -0.070296444 0.036405064 0.012978804 0.03156063 0.00023086097 0.08723785 0.027153721
-0.098148696 -0.0991715 -0.056348722 -0.03126415 -0.06908718 -0.004053597 0.052134372 -0.27903804
-0.094666824 -0.24951464 -0.27515247 -0.30872965 -0.25674424 -0.064435564 0.075209364 0.072156094
0.017016163 0.048943497 -0.04963924 0.0047406945 0.03777243 0.040086113 -0.16831294 -0.14302829
-0.32249743 -0.52661455 -0.3354695 -0.29494706 -0.22248009 0.069504395 0.08178225 0.017379742
0.037837993
00000000: 0020 f3bc 2636 1cbd 8d36 dd3c bab1 333d
00000010: 28c6 2dbe 688c b4be 2555 acbe ef60 07bf
00000020: f0f1 bcbe 2080 0cbe 94f1 85be 90e0 223d
00000030: 8f2e 2f3d 0b00 273c 14f0 0c3d 1efc c63c
00000040: a7eb ca3c fa41 51bd 5768 f53d 7ec6 7bbd
00000050: 13b2 52be 1891 84be 666f 86be bfc1 b6bd
00000060: cde9 60bd f98b 51be ac38 383d be9e b23d
00000070: c365 70bd 91fb b93c 7496 9bbc 8676 09bb
00000080: 3645 1abe 7a08 083d 2ed1 d63d 0c20 f83b
00000090: 3747 3b3b e4b9 253c 8980 4cbc 9ff4 21be
000000a0: 1d88 18be f483 d53d d1fe 173c 30f9 5e3d
000000b0: 875c 0cbd 3800 3fbb f11d abbd 6c70 0dbe
000000c0: 45d8 20be 87eb 4c3d 0d48 1e3e 4438 473e
000000d0: d948 e73d 9b38 48bd 6d4a d6bd 2465 8d3c
000000e0: 7e6d 563e 07a3 a83d 8699 1dbd ce13 063c
000000f0: 5bcf 5f3d 284c 7cbd 9bc3 19bd f414 bdbd
00000100: 167e 2fbd 202c f4bc fe13 f53a 6ad3 40be
00000110: 16e3 83be 11ac abbc 0a38 8a3e dfb3 643e
00000120: 6cc8 51bd 85a2 d3bc b982 513d 7e13 83bd
00000130: 26ac 48bd ebe9 d4bd c993 e4bd 5271 4cbe
00000140: 5cd4 25be e729 88be 92fe cbbe 844c da3d
00000150: aa8d 843e dd37 9f3e 8ea1 dd3d 1115 18bd
00000160: 8674 883b e01c 96bc 6fc6 73bd 4596 28bc
00000170: f68a ccbc 86f7 34bc 2586 0abe 5ae0 79bd
00000180: 10c5 9dbc a250 8f3e ab4d 083f 12c3 b83e
00000190: cfb1 543e e656 013c 1b75 023d 4424 5c3d
000001a0: c65f 643d ac84 3d3d 5fc7 7ebd 2709 df3c
000001b0: e2f1 313d 5cc3 4d3a e473 283e c6c3 de3e
000001c0: 3a44 683f bebb c33e 1541 573e 43eb 573c
000001d0: bff1 7abd 5cd9 b13c f8a6 eabb 74a3 36bd
000001e0: 5b8c a43b 72cb b8bc 1538 f63b 4c01 153d
000001f0: 9162 7c3e 0994 d93e 0202 0c3f a8ee d53d
00000200: acea 07bd a3d0 13be bf1c 51bd 18b6 f2bb
00000210: eae2 b2bd f9b6 e53c d512 f2bc 0f32 733b
00000220: 43bf 353c 75d6 833d 5bc6 ab3d 5fa6 873e
00000230: eaae 6e3e 931d 803c fb8b a7be 5353 51be
00000240: 3dd7 82bd 8733 4abe 6c28 33be 68e5 a7bd
00000250: 52a0 183d fc4f 093c 5007 3d3c 959a 523d
00000260: 2c6b 853d 5faf 4b3e 790a 813e 8a42 103b
00000270: e149 5ebe 1c01 2ebe 9399 1d3d 2a47 293c
00000280: 7e0e 1bbd f5e3 adbd 8408 92bd fcaf b9bd
00000290: cc1a 8b3c ef53 773d b22e 253c 0595 89bc
000002a0: 4c29 6d3e 4e7e 9b3d 646d 2cbe 568b b63c
000002b0: 9c05 403e fc74 513e 19fa 083e 73bf 1c3e
000002c0: 6043 02bc f096 80bd 8c2c 29bd be25 ac3c
000002d0: 94f5 743d 90be 92bb 1ae1 4e3d 10eb aa3d
000002e0: 32c0 2bbe 95f7 8fbd 7a1d 153d 0da5 543c
000002f0: b845 013d 4513 7239 c2a9 b23d 7b71 de3c
00000300: 2f02 c9bd 6d1a cbbd ebcd 66bd d60e 00bd
00000310: 947d 8dbd 09d4 84bb da8a 553d 13de 8ebe
00000320: aee0 c1bd c480 7fbe c9e0 8cbe d011 9ebe
00000330: fb73 83be cbf6 83bd 5e07 9a3d 93c6 933d
00000340: 7b65 8b3c fa78 483d 8452 4bbd d457 9b3b
00000350: 43b7 1a3d 5631 243d 3a5a 2cbe 0276 12be
00000360: 621e a5be 36d0 06bf a9c2 abbe 4d03 97be
00000370: d2d1 63be 5258 8e3d 747d a73d f65f 8e3c
00000380: 03fc 1a3d
