Models/Success2_v2/model.pt (torch_old, 10071 bytes, 3 tensors)

sigmas f4 [225]
000000 3b 86 80 3f 05 7f 80 3f cc 69 81 3f 4e 59 7f 3f
       1.0040964 1.0038763 1.0110412 0.99745643
000010 d6 e0 80 3f ae 13 80 3f 74 9e 80 3f cf d2 7e 3f
       1.0068614 1.0006006 1.0048356 0.9954042
000020 da c7 7e 3f 02 6f 80 3f dc ef 7e 3f 3a 51 81 3f
       0.995237 1.0033877 0.99584746 1.0102913
000030 2f d7 7e 3f ec 3a 80 3f 8e fb 7f 3f 0f 0f 80 3f
       0.99547094 1.0017982 0.99993217 1.0004596
000040 d0 e2 80 3f cf 0a 80 3f 39 fc 80 3f f4 aa 7e 3f
       1.0069218 1.0003299 1.0076972 0.99479604
000050 5c e6 7f 3f ea c7 80 3f 95 19 83 3f c5 43 82 3f
       0.99960876 1.0061009 1.0242182 1.0176932
000060 10 4e 80 3f a2 f9 7d 3f 54 b0 7f 3f 95 6b 80 3f
       1.0023823 0.99209034 0.9987843 1.0032831
000070 b7 ed 7f 3f f3 00 80 3f c4 40 82 3f 9b 18 81 3f
       0.999721 1.000029 1.0176015 1.0085634
000080 40 5d 80 3f fa d9 80 3f 7d 3a 80 3f ad 28 80 3f
       1.0028458 1.0066521 1.0017849 1.0012413
000090 10 00 82 3f 70 e7 84 3f c5 b5 83 3f 81 e1 7b 3f
       1.0156269 1.0383129 1.0289847 0.98390967
0000a0 37 b8 7e 3f f9 97 7d 3f 6d 05 81 3f 6e f8 7f 3f
       0.9949984 0.99060017 1.0079781 0.9998845
0000b0 00 00 80 3f 47 9f 7f 3f 2b db 7f 3f 76 50 80 3f
       1.0 0.9985241 0.999438 1.0024555
0000c0 59 11 81 3f 0a c1 7f 3f 5e 99 7f 3f 03 70 80 3f
       1.0083419 0.9990393 0.99843395 1.0034183
0000d0 49 08 81 3f c8 cc 74 3f 10 54 80 3f d5 34 7f 3f
       1.0080653 0.9562497 1.0025654 0.9968999
0000e0 3c bf 7b 3f 95 4f 7f 3f 72 fc 7f 3f e7 ff 7f 3f
       0.98338675 0.9973081 0.99994576 0.9999985
0000f0 10 b2 7f 3f 0c 1f 7f 3f d9 b1 7f 3f c5 c7 80 3f
       0.99881077 0.9965675 0.9988075 1.0060965
000100 5b 7c 80 3f 93 51 80 3f bf 74 80 3f 10 6a 55 3f
       1.003795 1.0024894 1.0035628 0.83364964
000110 5a d8 41 3f 6b 49 84 3f 2e 63 75 3f 96 60 81 3f
       0.7572075 1.0334905 0.9585446 1.0107601
000120 85 e2 7f 3f 73 03 80 3f f5 ff 7f 3f 42 77 7f 3f
       0.99955016 1.0001053 0.99999934 0.9979135
000130 93 1b 80 3f 8c 1e 7f 3f db 99 7f 3f 7a 2b 81 3f
       1.0008415 0.99655986 0.9984414 1.0091393
000140 29 4e 80 3f cf fd 76 3f 19 78 25 3f 94 13 7e 3f
       1.0023853 0.9648103 0.6463638 0.99248624
000150 26 ef 7f 3f ec 8b 79 3f a4 ed 80 3f 57 91 7f 3f
       0.99974287 0.9747913 1.0072522 0.99831146
000160 48 00 80 3f 06 00 80 3f 59 d3 7e 3f 0a d4 80 3f
       1.0000086 1.0000007 0.9954124 1.0064709
000170 94 c1 80 3f 31 e0 80 3f da 87 7f 3f 96 f3 7f 3f
       1.0059075 1.0068418 0.9981667 0.9998106
000180 de 4a 66 3f 48 3f 89 3f 71 6e 6e 3f 7a 9c 79 3f
       0.8995799 1.0722437 0.9313727 0.9750439
000190 23 6f 7e 3f 15 3a 80 3f f6 0a 80 3f af 01 80 3f
       0.9938833 1.0017725 1.0003345 1.0000514
0001a0 fb ff 7f 3f 61 a9 81 3f fd 18 7f 3f 23 17 80 3f
       0.9999997 1.0129815 0.99647504 1.0007061
0001b0 fe 46 80 3f c7 1e 7f 3f 60 f0 7e 3f 98 c4 6e 3f
       1.0021665 0.9965634 0.99585533 0.9326873
0001c0 28 e9 5b 3f ee 7a 49 3f 7c 3d 7c 3f 95 7e 80 3f
       0.85902643 0.787032 0.9853132 1.003863
0001d0 bd fe 7f 3f af f7 7f 3f ee 00 80 3f 02 00 80 3f
       0.99998075 0.9998731 1.0000284 1.0000002
0001e0 99 00 7f 3f 4f 67 7f 3f 43 d7 7f 3f 6e 50 80 3f
       0.99610287 0.9976701 0.9993784 1.0024545
0001f0 86 01 80 3f c6 ad 80 3f 3a c1 7b 3f b3 cc 71 3f
       1.0000465 1.0053031 0.98341715 0.9445297
000200 90 14 61 3f 48 e3 7f 3f 7f 1c 82 3f 93 ea 7f 3f
       0.87922 0.9995618 1.0164946 0.99967307
000210 e2 0a 80 3f 66 01 80 3f 01 00 80 3f 57 4f 83 3f
       1.0003321 1.0000427 1.0000001 1.0258588
000220 86 44 80 3f 41 9b 7f 3f 35 af 7f 3f e3 fb 7f 3f
       1.0020912 0.99846274 0.9987672 0.99993724
000230 01 4e 80 3f 12 c9 83 3f dd 6a 8a 3e ea b4 73 3f
       1.0023805 1.0295737 0.27034655 0.9519793
000240 a5 72 7b 3f fc 14 81 3f 2a 18 7f 3f df 71 80 3f
       0.9822181 1.0084529 0.99646246 1.0034751
000250 07 c4 7f 3f 2d fe 7f 3f e1 d0 84 3f 25 68 80 3f
       0.9990849 0.99997216 1.0376245 1.0031782
000260 22 cf 7f 3f 3a cd 7f 3f 57 72 80 3f 8d fb 7e 3f
       0.99925435 0.99922526 1.0034894 0.99602586
000270 4e f8 81 3f 0e 9d 46 3f 57 01 84 3f ca 76 7d 3f
       1.0153902 0.77583396 1.0312909 0.9900938
000280 32 bf 7d 3f 7b d8 7e 3f 06 f5 7f 3f 90 36 80 3f
       0.99119866 0.99549073 0.9998325 1.0016651
000290 97 fe 7f 3f 47 3d 7f 3f ab 69 80 3f bc 2a 7f 3f
       0.9999785 0.99702877 1.0032247 0.9967458
0002a0 71 36 80 3f 90 78 80 3f 29 a7 80 3f 8a 3c 7e 3f
       1.0016614 1.0036793 1.0051013 0.99311125
0002b0 97 f7 73 3f 7f 8a 7c 3f f0 1e 7e 3f c5 ed 7f 3f
       0.9529967 0.9864883 0.99265957 0.9997218
0002c0 48 98 7f 3f a8 b3 7f 3f 2e 77 80 3f 5d fe 7f 3f
       0.9984174 0.9988351 1.0036371 0.999975
0002d0 21 df 7d 3f 72 56 80 3f 3e 5b 7f 3f 6b e7 7f 3f
       0.9916859 1.0026381 0.997486 0.9996249
0002e0 ee 71 80 3f fc c3 7f 3f 68 7e 7e 3f 32 12 79 3f
       1.0034769 0.99908423 0.9941163 0.9729339
0002f0 94 a1 7d 3f 19 77 7f 3f 81 0c 80 3f 12 e2 7f 3f
       0.99074674 0.99791104 1.0003816 0.9995433
000300 2d 8b 7d 3f b9 79 80 3f e1 ff 7f 3f 78 c8 7d 3f
       0.9904049 1.0037147 0.99999815 0.99134016
000310 a1 d2 7f 3f 2e 0a 81 3f b6 de 7e 3f b0 ab 80 3f
       0.9993077 1.0081232 0.9955858 1.0052395
000320 e6 5b 7f 3f 35 2d 80 3f e3 32 7e 3f 96 8a 7e 3f
       0.997496 1.0013796 0.99296397 0.99430215
000330 7a c9 7f 3f ef fd 7f 3f fa af 7e 3f a0 ba 7d 3f
       0.99916804 0.99996847 0.9948727 0.9911289
000340 97 ed 7f 3f cf 00 80 3f 0e 98 7f 3f 6d 0d 80 3f
       0.9997191 1.0000247 0.9984139 1.0004097
000350 a6 48 81 3f 13 c0 7d 3f 86 5d 80 3f 33 99 7f 3f
       1.0100296 0.99121207 1.0028541 0.9984314
000360 39 2b 7f 3f b2 33 7f 3f fe f5 7e 3f 2b 60 7f 3f
       0.9967533 0.99688256 0.99594104 0.99756116
000370 14 26 80 3f a4 60 7f 3f 01 d7 7f 3f 62 d7 7f 3f
       1.001162 0.99756837 0.99937445 0.99938023
000380 2b ff 7f 3f
       0.9999873

centres f4 [225, 2]
000000 db 0f 49 c0 d1 53 fb c0 db 0f 49 c0 6a 6c d7 c0
       -3.1415927 -7.8539815 -3.1415927 -6.731984
000010 db 0f 49 c0 03 85 b3 c0 db 0f 49 c0 9c 9d 8f c0
       -3.1415927 -5.609987 -3.1415927 -4.4879894
000020 db 0f 49 c0 6a 6c 57 c0 db 0f 49 c0 9c 9d 0f c0
       -3.1415927 -3.365992 -3.1415927 -2.2439947
000030 db 0f 49 c0 9c 9d 8f bf db 0f 49 c0 00 00 00 00
       -3.1415927 -1.1219974 -3.1415927 0.0
000040 db 0f 49 c0 9c 9d 8f 3f db 0f 49 c0 9c 9d 0f 40
       -3.1415927 1.1219974 -3.1415927 2.2439947
000050 db 0f 49 c0 6a 6c 57 40 db 0f 49 c0 9c 9d 8f 40
       -3.1415927 3.365992 -3.1415927 4.4879894
000060 db 0f 49 c0 03 85 b3 40 db 0f 49 c0 6a 6c d7 40
       -3.1415927 5.609987 -3.1415927 6.731984
000070 db 0f 49 c0 d1 53 fb 40 bb 56 2c c0 d1 53 fb c0
       -3.1415927 7.8539815 -2.6927936 -7.8539815
000080 bb 56 2c c0 6a 6c d7 c0 bb 56 2c c0 03 85 b3 c0
       -2.6927936 -6.731984 -2.6927936 -5.609987
000090 bb 56 2c c0 9c 9d 8f c0 bb 56 2c c0 6a 6c 57 c0
       -2.6927936 -4.4879894 -2.6927936 -3.365992
0000a0 bb 56 2c c0 9c 9d 0f c0 bb 56 2c c0 9c 9d 8f bf
       -2.6927936 -2.2439947 -2.6927936 -1.1219974
0000b0 bb 56 2c c0 00 00 00 00 bb 56 2c c0 9c 9d 8f 3f
       -2.6927936 0.0 -2.6927936 1.1219974
0000c0 bb 56 2c c0 9c 9d 0f 40 bb 56 2c c0 6a 6c 57 40
       -2.6927936 2.2439947 -2.6927936 3.365992
0000d0 bb 56 2c c0 9c 9d 8f 40 bb 56 2c c0 03 85 b3 40
       -2.6927936 4.4879894 -2.6927936 5.609987
0000e0 bb 56 2c c0 6a 6c d7 40 bb 56 2c c0 d1 53 fb 40
       -2.6927936 6.731984 -2.6927936 7.8539815
0000f0 9c 9d 0f c0 d1 53 fb c0 9c 9d 0f c0 6a 6c d7 c0
       -2.2439947 -7.8539815 -2.2439947 -6.731984
000100 9c 9d 0f c0 03 85 b3 c0 9c 9d 0f c0 9c 9d 8f c0
       -2.2439947 -5.609987 -2.2439947 -4.4879894
000110 9c 9d 0f c0 6a 6c 57 c0 9c 9d 0f c0 9c 9d 0f c0
       -2.2439947 -3.365992 -2.2439947 -2.2439947
000120 9c 9d 0f c0 9c 9d 8f bf 9c 9d 0f c0 00 00 00 00
       -2.2439947 -1.1219974 -2.2439947 0.0
000130 9c 9d 0f c0 9c 9d 8f 3f 9c 9d 0f c0 9c 9d 0f 40
       -2.2439947 1.1219974 -2.2439947 2.2439947
000140 9c 9d 0f c0 6a 6c 57 40 9c 9d 0f c0 9c 9d 8f 40
       -2.2439947 3.365992 -2.2439947 4.4879894
000150 9c 9d 0f c0 03 85 b3 40 9c 9d 0f c0 6a 6c d7 40
       -2.2439947 5.609987 -2.2439947 6.731984
000160 9c 9d 0f c0 d1 53 fb 40 fa c8 e5 bf d1 53 fb c0
       -2.2439947 7.8539815 -1.7951958 -7.8539815
000170 fa c8 e5 bf 6a 6c d7 c0 fa c8 e5 bf 03 85 b3 c0
       -1.7951958 -6.731984 -1.7951958 -5.609987
000180 fa c8 e5 bf 9c 9d 8f c0 fa c8 e5 bf 6a 6c 57 c0
       -1.7951958 -4.4879894 -1.7951958 -3.365992
000190 fa c8 e5 bf 9c 9d 0f c0 fa c8 e5 bf 9c 9d 8f bf
       -1.7951958 -2.2439947 -1.7951958 -1.1219974
0001a0 fa c8 e5 bf 00 00 00 00 fa c8 e5 bf 9c 9d 8f 3f
       -1.7951958 0.0 -1.7951958 1.1219974
0001b0 fa c8 e5 bf 9c 9d 0f 40 fa c8 e5 bf 6a 6c 57 40
       -1.7951958 2.2439947 -1.7951958 3.365992
0001c0 fa c8 e5 bf 9c 9d 8f 40 fa c8 e5 bf 03 85 b3 40
       -1.7951958 4.4879894 -1.7951958 5.609987
0001d0 fa c8 e5 bf 6a 6c d7 40 fa c8 e5 bf d1 53 fb 40
       -1.7951958 6.731984 -1.7951958 7.8539815
0001e0 bb 56 ac bf d1 53 fb c0 bb 56 ac bf 6a 6c d7 c0
       -1.3463968 -7.8539815 -1.3463968 -6.731984
0001f0 bb 56 ac bf 03 85 b3 c0 bb 56 ac bf 9c 9d 8f c0
       -1.3463968 -5.609987 -1.3463968 -4.4879894
000200 bb 56 ac bf 6a 6c 57 c0 bb 56 ac bf 9c 9d 0f c0
       -1.3463968 -3.365992 -1.3463968 -2.2439947
000210 bb 56 ac bf 9c 9d 8f bf bb 56 ac bf 00 00 00 00
       -1.3463968 -1.1219974 -1.3463968 0.0
000220 bb 56 ac bf 9c 9d 8f 3f bb 56 ac bf 9c 9d 0f 40
       -1.3463968 1.1219974 -1.3463968 2.2439947
000230 bb 56 ac bf 6a 6c 57 40 bb 56 ac bf 9c 9d 8f 40
       -1.3463968 3.365992 -1.3463968 4.4879894
000240 bb 56 ac bf 03 85 b3 40 bb 56 ac bf 6a 6c d7 40
       -1.3463968 5.609987 -1.3463968 6.731984
000250 bb 56 ac bf d1 53 fb 40 fa c8 65 bf d1 53 fb c0
       -1.3463968 7.8539815 -0.8975979 -7.8539815
000260 fa c8 65 bf 6a 6c d7 c0 fa c8 65 bf 03 85 b3 c0
       -0.8975979 -6.731984 -0.8975979 -5.609987
000270 fa c8 65 bf 9c 9d 8f c0 fa c8 65 bf 6a 6c 57 c0
       -0.8975979 -4.4879894 -0.8975979 -3.365992
000280 fa c8 65 bf 9c 9d 0f c0 fa c8 65 bf 9c 9d 8f bf
       -0.8975979 -2.2439947 -0.8975979 -1.1219974
000290 fa c8 65 bf 00 00 00 00 fa c8 65 bf 9c 9d 8f 3f
       -0.8975979 0.0 -0.8975979 1.1219974
0002a0 fa c8 65 bf 9c 9d 0f 40 fa c8 65 bf 6a 6c 57 40
       -0.8975979 2.2439947 -0.8975979 3.365992
0002b0 fa c8 65 bf 9c 9d 8f 40 fa c8 65 bf 03 85 b3 40
       -0.8975979 4.4879894 -0.8975979 5.609987
0002c0 fa c8 65 bf 6a 6c d7 40 fa c8 65 bf d1 53 fb 40
       -0.8975979 6.731984 -0.8975979 7.8539815
0002d0 fa c8 e5 be d1 53 fb c0 fa c8 e5 be 6a 6c d7 c0
       -0.44879895 -7.8539815 -0.44879895 -6.731984
0002e0 fa c8 e5 be 03 85 b3 c0 fa c8 e5 be 9c 9d 8f c0
       -0.44879895 -5.609987 -0.44879895 -4.4879894
0002f0 fa c8 e5 be 6a 6c 57 c0 fa c8 e5 be 9c 9d 0f c0
       -0.44879895 -3.365992 -0.44879895 -2.2439947
000300 fa c8 e5 be 9c 9d 8f bf fa c8 e5 be 00 00 00 00
       -0.44879895 -1.1219974 -0.44879895 0.0
000310 fa c8 e5 be 9c 9d 8f 3f fa c8 e5 be 9c 9d 0f 40
       -0.44879895 1.1219974 -0.44879895 2.2439947
000320 fa c8 e5 be 6a 6c 57 40 fa c8 e5 be 9c 9d 8f 40
       -0.44879895 3.365992 -0.44879895 4.4879894
000330 fa c8 e5 be 03 85 b3 40 fa c8 e5 be 6a 6c d7 40
       -0.44879895 5.609987 -0.44879895 6.731984
000340 fa c8 e5 be d1 53 fb 40 00 00 00 00 d1 53 fb c0
       -0.44879895 7.8539815 0.0 -7.8539815
000350 00 00 00 00 6a 6c d7 c0 00 00 00 00 03 85 b3 c0
       0.0 -6.731984 0.0 -5.609987
000360 00 00 00 00 9c 9d 8f c0 00 00 00 00 6a 6c 57 c0
       0.0 -4.4879894 0.0 -3.365992
000370 00 00 00 00 9c 9d 0f c0 00 00 00 00 9c 9d 8f bf
       0.0 -2.2439947 0.0 -1.1219974
000380 00 00 00 00 00 00 00 00 00 00 00 00 9c 9d 8f 3f
       0.0 0.0 0.0 1.1219974
000390 00 00 00 00 9c 9d 0f 40 00 00 00 00 6a 6c 57 40
       0.0 2.2439947 0.0 3.365992
0003a0 00 00 00 00 9c 9d 8f 40 00 00 00 00 03 85 b3 40
       0.0 4.4879894 0.0 5.609987
0003b0 00 00 00 00 6a 6c d7 40 00 00 00 00 d1 53 fb 40
       0.0 6.731984 0.0 7.8539815
0003c0 fa c8 e5 3e d1 53 fb c0 fa c8 e5 3e 6a 6c d7 c0
       0.44879895 -7.8539815 0.44879895 -6.731984
0003d0 fa c8 e5 3e 03 85 b3 c0 fa c8 e5 3e 9c 9d 8f c0
       0.44879895 -5.609987 0.44879895 -4.4879894
0003e0 fa c8 e5 3e 6a 6c 57 c0 fa c8 e5 3e 9c 9d 0f c0
       0.44879895 -3.365992 0.44879895 -2.2439947
0003f0 fa c8 e5 3e 9c 9d 8f bf fa c8 e5 3e 00 00 00 00
       0.44879895 -1.1219974 0.44879895 0.0

weight f4 [1, 225]
000000 2b 95 61 bd ea 42 92 bd fd 77 eb bd 2a bd 9d bc
       -0.0550739 -0.07141669 -0.11497495 -0.01925524
000010 be 4e de bd b4 b2 af bd 1a f9 55 bd 28 1c a3 bc
       -0.10854863 -0.08579007 -0.052239515 -0.019910887
000020 6a 18 3c bd 2c 24 92 bd c1 1b e6 bc 05 51 a3 3d
       -0.04592172 -0.071358055 -0.028089406 0.079744376
000030 3e e2 fe 3c 8f 17 4b 3d 94 53 25 bd f4 18 09 bd
       0.03111374 0.049583014 -0.04036291 -0.033471063
000040 e0 50 e6 bd 6b ae 52 bd 22 af af bd e4 20 2a 3c
       -0.112458944 -0.05143587 -0.08578326 0.010383818
000050 83 8c 13 bd d7 59 10 bd 2c 41 fa bd bf 44 03 be
       -0.036022674 -0.035241928 -0.12219462 -0.12819193
000060 f3 02 ba bd fb cc 86 bc 4d 97 33 3c 56 97 44 3c
       -0.09082594 -0.016455164 0.010961366 0.011998972
000070 bf 56 2b bb 0d b8 a0 3c 3e 43 0c be 5a 9b 02 be
       -0.0026144234 0.019619012 -0.13697526 -0.12754574
000080 26 3c a0 bd 5a 54 70 bd a9 df 7e bd fc 4e 2d bd
       -0.078239724 -0.058674194 -0.062225018 -0.042311653
000090 70 ff 71 bd 21 4a 22 be b1 12 3d be df 55 a0 bd
       -0.059081495 -0.1584859 -0.18464161 -0.078288786
0000a0 2c df fb 3b 4f 21 36 3d bd 26 08 3d 28 43 1e bc
       0.0076865163 0.04446536 0.03324007 -0.009659566
0000b0 ad 20 57 3d 0d 5a 8d bc 87 fe 63 bd 13 e6 aa bd
       0.052521396 -0.017254854 -0.055662658 -0.083446644
0000c0 cb b9 b4 bd e2 24 2f bd e2 02 96 bc 7f 81 43 bd
       -0.088245 -0.042759784 -0.018311922 -0.04773092
0000d0 8a d9 5a be ff 1a 44 be 25 2b 06 3d ac 85 e3 3d
       -0.21372047 -0.19150923 0.03275599 0.1110948
0000e0 5e cf 09 3e 05 ad 3a bd 06 67 4e 3c d3 34 9b bb
       0.1345801 -0.04557516 0.012597805 -0.0047365217
0000f0 aa ef e1 3b ae 2d b4 bc 45 bd 30 bd 82 ac d1 bd
       0.0068950253 -0.021994438 -0.04314925 -0.102379814
000100 0b a0 9e bd f6 ea b4 bd b8 5c f4 bd 9e 75 92 be
       -0.077453695 -0.08833878 -0.11931747 -0.2860536
000110 1b c6 59 be 42 3f 18 3e 3e 00 36 3e 09 68 e8 3d
       -0.21266977 0.14867881 0.1777353 0.11347968
000120 d6 36 9d bb 8b ef 87 bd 18 a5 13 bc fe f9 79 3c
       -0.0047977967 -0.06637486 -0.009011529 0.015257357
000130 98 fc 17 bd 57 b3 f3 ba ef fe db bc 24 ff ef bd
       -0.037106127 -0.0018592876 -0.02685496 -0.11718586
000140 ed 0d 88 bd da 21 77 be 2a e7 a2 3c 31 46 75 3e
       -0.06643281 -0.24134007 0.019885618 0.23952557
000150 0f b9 38 3e cb 2a c6 3d 71 92 80 3d b9 18 62 bd
       0.18039344 0.09676131 0.062779315 -0.05519936
000160 b6 9f 55 bd 68 2c c4 bc f0 72 0c bd a4 8b b9 bd
       -0.052154265 -0.023946956 -0.0342893 -0.090598375
000170 e1 54 8e bd 82 4a b1 bd e9 2c 44 bc 0a 95 72 bd
       -0.06949783 -0.08656789 -0.011973598 -0.059224166
000180 38 77 b7 bd 97 c8 b3 3e 4f 6a ca 3e 63 69 62 3e
       -0.08958286 0.35113975 0.39534232 0.22110514
000190 5e 0f e6 3c ad ef 15 3d 93 77 12 3d d2 6f bb 3c
       0.0280835 0.036605526 0.035758566 0.022880469
0001a0 64 82 18 3d b8 15 bf 3c 05 ef d8 3c a9 96 c5 bc
       0.037233725 0.023325786 0.02648116 -0.024119692
0001b0 3b 4a 2f bd 27 07 ed 3c 55 5d 5b bd 88 dc 37 3e
       -0.0427954 0.028934075 -0.053555805 0.1795522
0001c0 81 ba 23 3f 70 17 65 3e cf 5a e0 3d b9 eb bb bd
       0.6395646 0.22372222 0.1095482 -0.0917582
0001d0 4f 8a 54 3d 65 c5 41 3d cd df 59 bd d0 38 4c bd
       0.051889714 0.04730739 -0.05319195 -0.049858868
0001e0 7c c2 ac bc 40 77 de 3c c1 3d 05 bc 31 9d 9d bd
       -0.021088831 0.027156472 -0.008132399 -0.076959975
0001f0 38 62 f6 bc f6 6f 85 3d 66 7c a1 3e 92 d1 53 3e
       -0.030076131 0.065154955 0.3154022 0.20685413
000200 df 63 2a bd f4 85 4b 3d 2e bf 1b be b3 2a 9c bd
       -0.04159915 0.049688295 -0.15209648 -0.07625332
000210 8d d5 e7 bc 53 42 b4 bc d3 8d e6 bb f4 4f d8 3d
       -0.028300071 -0.022004282 -0.0070359497 0.10562125
000220 36 e0 6d bd c5 fc 3f 3c 5c 1d 15 3d 82 ea 57 3b
       -0.058075152 0.01171798 0.036404952 0.0032946174
000230 d9 60 99 3d 03 97 8f 3e 99 5f 44 bf d8 e4 a0 be
       0.07489175 0.280449 -0.7670837 -0.31424594
000240 21 0a 47 bd 97 a7 f0 bc 20 97 6f bd 64 ae 83 bd
       -0.048593644 -0.029376788 -0.058493733 -0.06429747
000250 57 a8 6c 3d bb 12 db bc b8 87 2c 3e 11 15 3e bd
       0.05777773 -0.02674233 0.16848648 -0.04640681
000260 d9 91 e9 bc 2a 12 a4 3b dd 21 87 3d 2e f4 6d 3d
       -0.028511928 0.005007048 0.06598256 0.058094196
000270 bd e8 f8 3d 99 f8 c1 be 0e c0 69 be 8c a4 12 bc
       0.12153766 -0.37884977 -0.2282717 -0.008950364
000280 c8 ca cd 3c 32 e5 b6 bd fb 28 a9 bb cd 4a 3d bd
       0.025121108 -0.08930434 -0.005162356 -0.046213914
000290 3b db c0 bc 1c d3 0c 3d 3f eb 22 bd 63 04 88 3c
       -0.023542037 0.034381017 -0.03977513 0.016603654
0002a0 57 23 12 bd 99 ba 60 3c d3 28 5a bd d4 f7 30 bc
       -0.035678234 0.013716363 -0.05326159 -0.010801274
0002b0 5d 9f ca bd 1c 8d 84 bc ad 51 bd bc a1 0a be bb
       -0.098936774 -0.016180567 -0.023110235 -0.005799607
0002c0 f7 92 51 bc 98 c5 75 bc dd 5f 89 bd d2 5a de bb
       -0.012791387 -0.015000723 -0.067077376 -0.006785729
0002d0 0b 42 7a bc 57 14 85 bd 9b ae a1 bb 5d de a2 bc
       -0.015274535 -0.0649802 -0.0049341447 -0.019881422
0002e0 65 10 60 bc 71 17 43 bd 1c bb 27 bd 77 8a 0f 3d
       -0.013675784 -0.047629777 -0.040949926 0.03504416
0002f0 99 53 1c 3d bb d6 97 3c 02 c3 ce 3c fd fb 4e bd
       0.038165662 0.018535009 0.025239471 -0.050533284
000300 a9 a9 ba bd 56 3c 97 bd c6 91 3c bc 75 9f be bd
       -0.09114391 -0.07384555 -0.0115093645 -0.09307758
000310 9c f8 78 bc 4f d3 c6 bd 0f bf 22 bc d6 f9 62 bd
       -0.015195992 -0.09708273 -0.009933247 -0.055414043
000320 c4 e1 a3 bd 60 e4 e1 bd 0a 35 40 3d 2a 35 26 bd
       -0.08002046 -0.11029887 0.046925582 -0.040578045
000330 98 86 30 3c 03 f7 92 bc e5 94 1c 3d 82 1c c4 bd
       0.010774277 -0.01794005 0.038227934 -0.0957575
000340 8a f5 67 bb 9d cb 8f bc 79 09 c8 bc ce bf 16 bd
       -0.0035394155 -0.017553145 -0.02441858 -0.036804013
000350 9f 5f d2 bd ae 9d fe bd 5a 20 60 bd 48 9e 54 bd
       -0.102721445 -0.12432419 -0.054718353 -0.05190876
000360 48 12 52 bc 65 72 80 bd c6 7e 44 bd 0d 26 62 bd
       -0.012821741 -0.06271819 -0.047972463 -0.05521207
000370 0e 9c e5 3c 09 44 12 3e ab 39 c9 3d e7 cd f3 bc
       0.028028514 0.14283766 0.098254524 -0.029761268
000380 68 05 2f bc
       -0.010682441
