Models/RBF8/model.pt (torch_old, 10071 bytes, 3 tensors)

sigmas f4 [225]
000000 8c 48 80 3f 26 54 7f 3f 17 30 81 3f 46 22 80 3f
       1.002214 0.99737775 1.0092801 1.001046
000010 53 ea 7f 3f 9e 1a 80 3f fc 02 80 3f 52 f1 7f 3f
       0.99966925 1.0008123 1.0000911 0.999776
000020 0a 1f 80 3f 98 4e 7f 3f 76 bc 80 3f 31 13 81 3f
       1.0009472 0.997293 1.0057514 1.0083982
000030 33 22 7d 3f a6 1e 77 3f f5 eb 7e 3f 69 57 7f 3f
       0.9888031 0.9653114 0.9957879 0.9974275
000040 ad e0 7e 3f 95 b3 80 3f 9d 68 7e 3f d3 1f 80 3f
       0.9956158 1.0054804 0.9937838 1.0009712
000050 6c 05 80 3f 10 00 80 3f 1c af 7f 3f 21 e2 80 3f
       1.0001655 1.0000019 0.9987657 1.0069009
000060 68 73 7f 3f a6 cf 80 3f 77 35 81 3f c9 43 7e 3f
       0.9978547 1.0063369 1.0094441 0.9932218
000070 fb 44 79 3f 8e 12 80 3f c8 78 80 3f 9b 8b 80 3f
       0.9737088 1.0005662 1.003686 1.0042604
000080 72 34 80 3f 54 f1 7d 3f cf 58 7e 3f 08 2d 7e 3f
       1.0016005 0.9919636 0.9935426 0.9928746
000090 06 d3 7d 3f 2d 2c 7f 3f 19 06 75 3f de 74 84 3f
       0.9915012 0.9967678 0.9571243 1.0348165
0000a0 6c ae 7c 3f a4 54 7e 3f 38 0b 81 3f dd 79 75 3f
       0.98703647 0.993479 1.0081549 0.95889074
0000b0 cc ae 7f 3f 0d 98 7f 3f 1a dd 80 3f 67 54 82 3f
       0.99876094 0.99841386 1.0067475 1.0182008
0000c0 77 f9 7b 3f 25 42 7b 3f 84 2c 71 3f be e8 5a 3f
       0.9842753 0.98147804 0.9420855 0.85511386
0000d0 b5 19 70 3f 9f 06 3c 3f 66 14 8d 3f 86 d9 74 3f
       0.93789226 0.73447603 1.102185 0.95644414
0000e0 22 f5 7b 3f 11 b1 80 3f a4 02 7f 3f d2 14 80 3f
       0.9842092 1.0054036 0.99613404 1.0006354
0000f0 29 20 80 3f d7 50 7f 3f 95 70 81 3f 66 d8 7f 3f
       1.0009815 0.99732727 1.0112482 0.9993957
000100 d7 01 82 3f 8d 78 4b 3f 4c 21 28 3f fe 98 2c 3f
       1.0156811 0.7948082 0.65675807 0.6742095
000110 3b 64 15 3f 78 f3 82 3f ef 16 77 3f 7f e7 7b 3f
       0.58356065 1.0230551 0.9651937 0.9840011
000120 44 0c 7e 3f ed f5 7f 3f 88 0b 80 3f 0a 04 80 3f
       0.99237466 0.9998463 1.0003519 1.0001233
000130 a9 cf 7f 3f ac 2c 80 3f 1d 9d 81 3f 0b af 75 3f
       0.9992624 1.0013633 1.0126072 0.9597022
000140 b2 2f 27 3f 7c 8d 81 3f a2 d6 d7 3e dd 84 12 3f
       0.6530715 1.0121303 0.4215594 0.57233983
000150 cc 70 29 3f 47 13 8e 3f 55 fe 7b 3f d1 f7 7d 3f
       0.6618774 1.1099633 0.98434955 0.9920626
000160 e9 c0 7e 3f d8 0a 80 3f 40 03 80 3f 2d 13 80 3f
       0.9951311 1.0003309 1.0000992 1.0005852
000170 97 47 7f 3f ca 2d 7f 3f a2 93 7a 3f a8 5f 80 3f
       0.9971861 0.99679244 0.9788152 1.0029192
000180 2c c2 65 3f 95 5a f0 3e df da 7a 3f 6a 2c 3a 3f
       0.8974941 0.4694411 0.9799022 0.7272402
000190 df fb 86 3f 45 5d 7e 3f 75 48 80 3f c1 ed 7f 3f
       1.0545615 0.9936107 1.0022112 0.9997216
0001a0 fa fb 7f 3f 62 fd 7f 3f f5 ff 7f 3f 68 15 80 3f
       0.9999386 0.99996006 0.99999934 1.0006533
0001b0 02 7d 7f 3f 50 90 7c 3f ca 2c 87 3f 08 90 ca 3e
       0.9980012 0.98657703 1.0560544 0.39563012
0001c0 0c c6 b4 3d f4 75 18 3f 91 e8 7f 3f 22 f2 7c 3f
       0.08826837 0.5955498 0.99964243 0.98806965
0001d0 1b 49 7f 3f 2f 01 80 3f aa fc 7f 3f 41 03 80 3f
       0.99720925 1.0000361 0.9999491 1.0000993
0001e0 8b f9 7f 3f 10 06 80 3f a3 86 7f 3f ba eb 7e 3f
       0.9999015 1.000185 0.99814814 0.9957844
0001f0 1f 57 83 3f 0c 09 4b 3f aa be 73 3f 06 80 9f 3e
       1.0260962 0.7931068 0.95212805 0.31152362
000200 a7 4b 84 3f ab 3c 86 3f fb 30 75 3f 00 fd 7f 3f
       1.0335587 1.0487264 0.95777863 0.9999542
000210 e6 4e 80 3f fe fb 7f 3f 92 04 80 3f 0e 00 80 3f
       1.0024078 0.99993885 1.0001395 1.0000017
000220 78 3d 80 3f a6 d3 7f 3f 7e 0b 7e 3f ec ab 87 3f
       1.0018759 0.99932325 0.99236286 1.0599341
000230 24 62 58 3f 4a 05 12 3f 57 98 02 3f 90 38 92 3f
       0.8452475 0.5703932 0.510137 1.1423512
000240 d4 1f 4b 3f df d9 7c 3f 2c 88 7d 3f e9 08 81 3f
       0.7934544 0.98769945 0.99035907 1.0080844
000250 05 bb 7f 3f 83 04 80 3f c5 06 80 3f 65 e4 80 3f
       0.99894744 1.0001377 1.0002066 1.00697
000260 4f d4 80 3f 27 66 7b 3f 37 ea 81 3f fe 10 89 3f
       1.0064791 0.9820275 1.0149602 1.0708311
000270 85 a8 25 3f 12 d3 41 3f 53 c3 33 3f 72 e1 5d 3f
       0.64710265 0.7571269 0.70219916 0.8667213
000280 2d 00 85 3f fa 8a 6a 3f e6 b8 81 3f 9a 9f 7e 3f
       1.0390679 0.9161831 1.0134552 0.9946228
000290 4a 09 80 3f 6c 55 80 3f 2f 6c 7e 3f 36 67 7f 3f
       1.0002835 1.0026069 0.99383825 0.9976686
0002a0 d7 57 7c 3f f7 1f 6a 3f 36 48 8a 3f f5 0b 4a 3f
       0.9857153 0.91455024 1.0803287 0.78924495
0002b0 fc 11 74 3f 28 3c 5e 3f dc b0 7a 3f 69 e3 7e 3f
       0.9533994 0.8681054 0.97926116 0.9956575
0002c0 39 9f 72 3f 9f 48 80 3f 12 d0 7d 3f cb 1c 80 3f
       0.94774204 1.0022162 0.99145615 1.0008787
0002d0 f2 90 7f 3f c9 79 79 3f dd d1 80 3f bc 59 7e 3f
       0.99830544 0.97451454 1.0064045 0.99355674
0002e0 c5 42 7e 3f e6 d0 82 3f 43 20 7b 3f bf 3c 7e 3f
       0.9932063 1.0220001 0.980961 0.9931144
0002f0 f7 42 7d 3f 23 c8 7f 3f 7a d9 81 3f fb 60 7e 3f
       0.98930305 0.9991476 1.0144494 0.9936673
000300 a6 73 7b 3f 8a 9f 80 3f ad c0 7f 3f ac 93 7f 3f
       0.9822334 1.0048687 0.99903375 0.99834704
000310 24 ff 7f 3f 59 14 80 3f b7 0b 81 3f ff 4f 7f 3f
       0.9999869 1.000621 1.00817 0.9973144
000320 31 be 7e 3f d2 ab 7d 3f 83 e0 7f 3f d6 96 7f 3f
       0.9950896 0.990903 0.9995195 0.9983953
000330 ba 8a 7f 3f cf 78 80 3f fe df 80 3f 68 bb 7f 3f
       0.99821055 1.0036868 1.0068357 0.99895334
000340 cc 29 7e 3f ce e5 7f 3f 51 87 7f 3f 3b 6e 77 3f
       0.99282527 0.9996003 0.9981585 0.96652573
000350 62 f5 7f 3f 02 62 81 3f f7 80 80 3f ca 53 80 3f
       0.999838 1.0108035 1.0039357 1.002557
000360 ee 84 80 3f cb db 7f 3f 45 12 80 3f 9e f1 7f 3f
       1.0040567 0.9994475 1.0005575 0.99978054
000370 bc e0 7f 3f 2c 9b 7f 3f f9 4b 80 3f e4 76 7c 3f
       0.9995229 0.9984615 1.0023185 0.9861891
000380 74 51 80 3f
       1.0024858

centres f4 [225, 2]
000000 db 0f 49 c0 d1 53 fb c0 db 0f 49 c0 6a 6c d7 c0
       -3.1415927 -7.8539815 -3.1415927 -6.731984
000010 db 0f 49 c0 03 85 b3 c0 db 0f 49 c0 9c 9d 8f c0
       -3.1415927 -5.609987 -3.1415927 -4.4879894
000020 db 0f 49 c0 6a 6c 57 c0 db 0f 49 c0 9c 9d 0f c0
       -3.1415927 -3.365992 -3.1415927 -2.2439947
000030 db 0f 49 c0 9c 9d 8f bf db 0f 49 c0 00 00 00 00
       -3.1415927 -1.1219974 -3.1415927 0.0
000040 db 0f 49 c0 9c 9d 8f 3f db 0f 49 c0 9c 9d 0f 40
       -3.1415927 1.1219974 -3.1415927 2.2439947
000050 db 0f 49 c0 6a 6c 57 40 db 0f 49 c0 9c 9d 8f 40
       -3.1415927 3.365992 -3.1415927 4.4879894
000060 db 0f 49 c0 03 85 b3 40 db 0f 49 c0 6a 6c d7 40
       -3.1415927 5.609987 -3.1415927 6.731984
000070 db 0f 49 c0 d1 53 fb 40 bb 56 2c c0 d1 53 fb c0
       -3.1415927 7.8539815 -2.6927936 -7.8539815
000080 bb 56 2c c0 6a 6c d7 c0 bb 56 2c c0 03 85 b3 c0
       -2.6927936 -6.731984 -2.6927936 -5.609987
000090 bb 56 2c c0 9c 9d 8f c0 bb 56 2c c0 6a 6c 57 c0
       -2.6927936 -4.4879894 -2.6927936 -3.365992
0000a0 bb 56 2c c0 9c 9d 0f c0 bb 56 2c c0 9c 9d 8f bf
       -2.6927936 -2.2439947 -2.6927936 -1.1219974
0000b0 bb 56 2c c0 00 00 00 00 bb 56 2c c0 9c 9d 8f 3f
       -2.6927936 0.0 -2.6927936 1.1219974
0000c0 bb 56 2c c0 9c 9d 0f 40 bb 56 2c c0 6a 6c 57 40
       -2.6927936 2.2439947 -2.6927936 3.365992
0000d0 bb 56 2c c0 9c 9d 8f 40 bb 56 2c c0 03 85 b3 40
       -2.6927936 4.4879894 -2.6927936 5.609987
0000e0 bb 56 2c c0 6a 6c d7 40 bb 56 2c c0 d1 53 fb 40
       -2.6927936 6.731984 -2.6927936 7.8539815
0000f0 9c 9d 0f c0 d1 53 fb c0 9c 9d 0f c0 6a 6c d7 c0
       -2.2439947 -7.8539815 -2.2439947 -6.731984
000100 9c 9d 0f c0 03 85 b3 c0 9c 9d 0f c0 9c 9d 8f c0
       -2.2439947 -5.609987 -2.2439947 -4.4879894
000110 9c 9d 0f c0 6a 6c 57 c0 9c 9d 0f c0 9c 9d 0f c0
       -2.2439947 -3.365992 -2.2439947 -2.2439947
000120 9c 9d 0f c0 9c 9d 8f bf 9c 9d 0f c0 00 00 00 00
       -2.2439947 -1.1219974 -2.2439947 0.0
000130 9c 9d 0f c0 9c 9d 8f 3f 9c 9d 0f c0 9c 9d 0f 40
       -2.2439947 1.1219974 -2.2439947 2.2439947
000140 9c 9d 0f c0 6a 6c 57 40 9c 9d 0f c0 9c 9d 8f 40
       -2.2439947 3.365992 -2.2439947 4.4879894
000150 9c 9d 0f c0 03 85 b3 40 9c 9d 0f c0 6a 6c d7 40
       -2.2439947 5.609987 -2.2439947 6.731984
000160 9c 9d 0f c0 d1 53 fb 40 fa c8 e5 bf d1 53 fb c0
       -2.2439947 7.8539815 -1.7951958 -7.8539815
000170 fa c8 e5 bf 6a 6c d7 c0 fa c8 e5 bf 03 85 b3 c0
       -1.7951958 -6.731984 -1.7951958 -5.609987
000180 fa c8 e5 bf 9c 9d 8f c0 fa c8 e5 bf 6a 6c 57 c0
       -1.7951958 -4.4879894 -1.7951958 -3.365992
000190 fa c8 e5 bf 9c 9d 0f c0 fa c8 e5 bf 9c 9d 8f bf
       -1.7951958 -2.2439947 -1.7951958 -1.1219974
0001a0 fa c8 e5 bf 00 00 00 00 fa c8 e5 bf 9c 9d 8f 3f
       -1.7951958 0.0 -1.7951958 1.1219974
0001b0 fa c8 e5 bf 9c 9d 0f 40 fa c8 e5 bf 6a 6c 57 40
       -1.7951958 2.2439947 -1.7951958 3.365992
0001c0 fa c8 e5 bf 9c 9d 8f 40 fa c8 e5 bf 03 85 b3 40
       -1.7951958 4.4879894 -1.7951958 5.609987
0001d0 fa c8 e5 bf 6a 6c d7 40 fa c8 e5 bf d1 53 fb 40
       -1.7951958 6.731984 -1.7951958 7.8539815
0001e0 bb 56 ac bf d1 53 fb c0 bb 56 ac bf 6a 6c d7 c0
       -1.3463968 -7.8539815 -1.3463968 -6.731984
0001f0 bb 56 ac bf 03 85 b3 c0 bb 56 ac bf 9c 9d 8f c0
       -1.3463968 -5.609987 -1.3463968 -4.4879894
000200 bb 56 ac bf 6a 6c 57 c0 bb 56 ac bf 9c 9d 0f c0
       -1.3463968 -3.365992 -1.3463968 -2.2439947
000210 bb 56 ac bf 9c 9d 8f bf bb 56 ac bf 00 00 00 00
       -1.3463968 -1.1219974 -1.3463968 0.0
000220 bb 56 ac bf 9c 9d 8f 3f bb 56 ac bf 9c 9d 0f 40
       -1.3463968 1.1219974 -1.3463968 2.2439947
000230 bb 56 ac bf 6a 6c 57 40 bb 56 ac bf 9c 9d 8f 40
       -1.3463968 3.365992 -1.3463968 4.4879894
000240 bb 56 ac bf 03 85 b3 40 bb 56 ac bf 6a 6c d7 40
       -1.3463968 5.609987 -1.3463968 6.731984
000250 bb 56 ac bf d1 53 fb 40 fa c8 65 bf d1 53 fb c0
       -1.3463968 7.8539815 -0.8975979 -7.8539815
000260 fa c8 65 bf 6a 6c d7 c0 fa c8 65 bf 03 85 b3 c0
       -0.8975979 -6.731984 -0.8975979 -5.609987
000270 fa c8 65 bf 9c 9d 8f c0 fa c8 65 bf 6a 6c 57 c0
       -0.8975979 -4.4879894 -0.8975979 -3.365992
000280 fa c8 65 bf 9c 9d 0f c0 fa c8 65 bf 9c 9d 8f bf
       -0.8975979 -2.2439947 -0.8975979 -1.1219974
000290 fa c8 65 bf 00 00 00 00 fa c8 65 bf 9c 9d 8f 3f
       -0.8975979 0.0 -0.8975979 1.1219974
0002a0 fa c8 65 bf 9c 9d 0f 40 fa c8 65 bf 6a 6c 57 40
       -0.8975979 2.2439947 -0.8975979 3.365992
0002b0 fa c8 65 bf 9c 9d 8f 40 fa c8 65 bf 03 85 b3 40
       -0.8975979 4.4879894 -0.8975979 5.609987
0002c0 fa c8 65 bf 6a 6c d7 40 fa c8 65 bf d1 53 fb 40
       -0.8975979 6.731984 -0.8975979 7.8539815
0002d0 fa c8 e5 be d1 53 fb c0 fa c8 e5 be 6a 6c d7 c0
       -0.44879895 -7.8539815 -0.44879895 -6.731984
0002e0 fa c8 e5 be 03 85 b3 c0 fa c8 e5 be 9c 9d 8f c0
       -0.44879895 -5.609987 -0.44879895 -4.4879894
0002f0 fa c8 e5 be 6a 6c 57 c0 fa c8 e5 be 9c 9d 0f c0
       -0.44879895 -3.365992 -0.44879895 -2.2439947
000300 fa c8 e5 be 9c 9d 8f bf fa c8 e5 be 00 00 00 00
       -0.44879895 -1.1219974 -0.44879895 0.0
000310 fa c8 e5 be 9c 9d 8f 3f fa c8 e5 be 9c 9d 0f 40
       -0.44879895 1.1219974 -0.44879895 2.2439947
000320 fa c8 e5 be 6a 6c 57 40 fa c8 e5 be 9c 9d 8f 40
       -0.44879895 3.365992 -0.44879895 4.4879894
000330 fa c8 e5 be 03 85 b3 40 fa c8 e5 be 6a 6c d7 40
       -0.44879895 5.609987 -0.44879895 6.731984
000340 fa c8 e5 be d1 53 fb 40 00 00 00 00 d1 53 fb c0
       -0.44879895 7.8539815 0.0 -7.8539815
000350 00 00 00 00 6a 6c d7 c0 00 00 00 00 03 85 b3 c0
       0.0 -6.731984 0.0 -5.609987
000360 00 00 00 00 9c 9d 8f c0 00 00 00 00 6a 6c 57 c0
       0.0 -4.4879894 0.0 -3.365992
000370 00 00 00 00 9c 9d 0f c0 00 00 00 00 9c 9d 8f bf
       0.0 -2.2439947 0.0 -1.1219974
000380 00 00 00 00 00 00 00 00 00 00 00 00 9c 9d 8f 3f
       0.0 0.0 0.0 1.1219974
000390 00 00 00 00 9c 9d 0f 40 00 00 00 00 6a 6c 57 40
       0.0 2.2439947 0.0 3.365992
0003a0 00 00 00 00 9c 9d 8f 40 00 00 00 00 03 85 b3 40
       0.0 4.4879894 0.0 5.609987
0003b0 00 00 00 00 6a 6c d7 40 00 00 00 00 d1 53 fb 40
       0.0 6.731984 0.0 7.8539815
0003c0 fa c8 e5 3e d1 53 fb c0 fa c8 e5 3e 6a 6c d7 c0
       0.44879895 -7.8539815 0.44879895 -6.731984
0003d0 fa c8 e5 3e 03 85 b3 c0 fa c8 e5 3e 9c 9d 8f c0
       0.44879895 -5.609987 0.44879895 -4.4879894
0003e0 fa c8 e5 3e 6a 6c 57 c0 fa c8 e5 3e 9c 9d 0f c0
       0.44879895 -3.365992 0.44879895 -2.2439947
0003f0 fa c8 e5 3e 9c 9d 8f bf fa c8 e5 3e 00 00 00 00
       0.44879895 -1.1219974 0.44879895 0.0

weight f4 [1, 225]
000000 74 60 2c bd eb 47 87 bd 92 a4 87 bd ad 8b 28 bd
       -0.042084172 -0.06605514 -0.06623186 -0.04114883
000010 e4 be 27 bd b2 4f 70 3d 0a 31 34 3d b4 d0 7d 3b
       -0.04095353 0.058669753 0.04399208 0.0038729133
000020 e1 45 a4 bc 64 03 42 3d 6d 42 71 bd 38 5c ae bd
       -0.020052852 0.047366515 -0.05890124 -0.08513683
000030 c3 5e 2a be 55 18 5f be be f6 00 3d f2 e1 fe 3c
       -0.16637711 -0.21786626 0.03148531 0.031113598
000040 33 ef 98 bd f2 3b 3e bd 5b 7b bd 3c 69 08 4c bd
       -0.07467499 -0.046443887 0.02313011 -0.049812708
000050 8f be 2e 3b 17 c0 4a 3c 01 a9 a5 3c 8c 87 9a bd
       0.0026663875 0.012374899 0.020222189 -0.07545385
000060 99 c0 1e 3c 6f b0 ab bd be ce 06 be 3b db e8 bd
       0.009689474 -0.083832614 -0.13164803 -0.1136994
000070 89 86 1f 3d 11 33 1e bd 6b 06 97 bd 95 7c 16 be
       0.038946662 -0.03862292 -0.07374271 -0.14695962
000080 46 4e 14 bd 98 7b 21 be be ed d1 3c db b3 33 bd
       -0.03620746 -0.15769804 0.02562606 -0.043872695
000090 f8 c4 33 3d fc 0d 8f bc 6b 01 1e be 5c 41 a0 bd
       0.043889016 -0.017462723 -0.15430228 -0.07824966
0000a0 d3 f8 1d be ac ee 73 bc 85 ae 21 3d 83 bd 06 3e
       -0.1542695 -0.014888447 0.039473075 0.1315823
0000b0 5c 00 3e bd 98 18 41 3d 14 f8 d5 bd f2 8a 08 be
       -0.04638706 0.047142595 -0.10447708 -0.13334253
0000c0 66 61 f6 bd d2 a5 93 3c ca 06 a5 bd 9f 63 2c 3e
       -0.12030296 0.018023405 -0.080579355 0.16834877
0000d0 ec 57 b4 bd 48 e7 97 be 8c 39 fd bd d3 c9 b9 bd
       -0.08805832 -0.2966864 -0.12364492 -0.09071698
0000e0 22 9f 36 bc b2 38 18 3d 82 cf 35 3d ea 21 a3 3c
       -0.011146339 0.037163444 0.044387348 0.019913632
0000f0 de 09 7d bd 3b 39 47 3c e0 db f0 bd dc 9f 9d bd
       -0.06177699 0.012159641 -0.11760688 -0.076965064
000100 b4 d7 4d be b1 16 79 be 3c de 05 3f 5d cb 38 be
       -0.20101815 -0.24325062 0.5229223 -0.18046327
000110 f3 29 13 bf e7 c3 21 bd 1b 8d 5f bd 39 9c 08 3d
       -0.57485884 -0.039493468 -0.054577928 0.03335211
000120 8f 60 a7 3d 62 2b 77 3c bf 36 4b 3c 30 bb b1 bb
       0.08172714 0.015086027 0.012403189 -0.005423926
000130 a5 30 19 3c 02 77 54 bd e6 2e 9c bd 5a fc 6d be
       0.009349977 -0.051871307 -0.07626133 -0.23240796
000140 c2 cd 9a be 69 18 07 bf 90 c3 27 be cd 20 c1 be
       -0.30235106 -0.5277162 -0.16383195 -0.37720338
000150 5f 57 26 3e f2 d5 58 3e 0c 01 f7 3d 38 cb 9f bb
       0.16244267 0.21175364 0.120607466 -0.0048765205
000160 47 58 6e bd 96 8f 02 3d 97 9c 87 bc 31 54 e7 bc
       -0.058189657 0.031875215 -0.01655416 -0.028238388
000170 89 f4 7c 3c 8f c8 12 3c 87 13 cb bd 78 f0 2b 3e
       0.015439161 0.00895895 -0.09915834 0.1679095
000180 e0 fc be be 64 c9 a8 3e 22 78 22 3f 60 08 74 be
       -0.37302303 0.3296615 0.6346456 -0.2383132
000190 43 89 1d 3e bf d2 8a 3c 7d 7e 4c 3d 59 ac 18 bc
       0.15384392 0.016946195 0.049925316 -0.009318435
0001a0 ef 67 ce bc d5 3d e1 3c ab a3 32 3c 2c 41 68 bd
       -0.025196044 0.027495304 0.010903279 -0.056702778
0001b0 08 ea 30 3d ab ad 8a 3c a2 7b 63 3e 89 a7 f5 3d
       0.04319194 0.016928514 0.22215131 0.119948454
0001c0 b3 bd 02 3d 44 b7 5d 3d 4d d1 e1 3d b1 10 24 bd
       0.031919193 0.054129854 0.11026249 -0.04005498
0001d0 7a fd c2 bc 0a 1c 34 3c 00 f0 28 bc e8 4e 40 3d
       -0.023802508 0.010993013 -0.010311127 0.04695025
0001e0 1f 56 50 bd c1 e7 92 3c f3 ce f7 bc 54 d6 d7 bb
       -0.05086338 0.017932774 -0.030250048 -0.006586829
0001f0 d3 05 69 3e 89 e9 b9 bd 7f bd 24 3f 39 8f f3 3d
       0.22756128 -0.090777464 0.6435165 0.11892552
000200 bd 3d ce be ca 4f 5a 3e 99 b7 1c be 49 73 79 bd
       -0.40281478 0.213195 -0.15304412 -0.06090096
000210 a2 c0 67 bd 90 bd 86 3b 8b b1 19 bd b2 a5 b7 3b
       -0.056580193 0.004111953 -0.037522834 0.005604469
000220 65 15 db 3c 18 b8 8d 3d ac bd b1 3c b5 20 24 3e
       0.0267436 0.06919879 0.021696888 0.16028102
000230 90 66 a4 3c 54 83 ff be 56 0a fd bd 3b fc 00 bf
       0.020068437 -0.49904883 -0.12355487 -0.50384873
000240 f1 13 59 be ff 34 4f be ae 30 52 bc cd ab 1e bd
       -0.21199013 -0.2023506 -0.012828989 -0.03873806
000250 d5 61 d8 3c 2d 5f f2 3b 7c 8f c5 3b 85 41 90 3d
       0.026413837 0.0073965997 0.0060290676 0.07043747
000260 e5 61 99 3d ca 73 d2 3d 19 ee 9f 3b dd d3 24 be
       0.07489375 0.10275991 0.0048806784 -0.16096444
000270 c3 4f 36 bf 0d 3e 40 be d0 5d f6 3e c7 e5 71 be
       -0.71215457 -0.1877367 0.48118448 -0.2362281
000280 e5 9f e7 bd e0 db 15 be 05 a0 3f bd 60 b2 45 3d
       -0.11309794 -0.14634657 -0.046783466 0.048265815
000290 11 78 86 bd 38 51 62 3d bc 21 1d 3e 07 a4 9d bc
       -0.065658696 0.055253237 0.153449 -0.019243253
0002a0 ee f6 73 bc 29 f1 70 be a8 cf fb bd 08 4e a5 be
       -0.014890416 -0.23529495 -0.12295467 -0.32286096
0002b0 0a fa 2f be df 21 31 3e f3 e4 90 bd ce ba 81 bb
       -0.17185226 0.17298077 -0.070749186 -0.0039590364
0002c0 f5 42 0d be f6 ae 9f bd 46 26 ed 3c fd c5 28 bd
       -0.13795073 -0.07797043 0.028948914 -0.04120444
0002d0 a7 d9 5a bd d6 a1 db 3d 6e 38 3c ba c1 62 cb bc
       -0.053430226 0.10724227 -0.00071800395 -0.024827363
0002e0 7a 4b b7 bd 05 c5 76 bd 6d 67 2b be 1b aa 32 bb
       -0.08949943 -0.060246486 -0.16738673 -0.0027262035
0002f0 54 e3 71 3d 01 0b ef bb 7c 68 5d bd 86 fd 5b bd
       0.059054688 -0.007295013 -0.054054722 -0.053708576
000300 e7 6d 09 be 45 db 62 bd 9a 02 8e 3c c0 de c0 3c
       -0.1342083 -0.055384893 0.017335225 0.023543715
000310 74 5c 42 bd 8e 15 80 bd ae 87 d6 bd 74 87 e1 bc
       -0.04745145 -0.06254111 -0.104750976 -0.02753041
000320 db 34 41 3c 1f 48 92 3c cb 33 74 3b ef b1 8b bc
       0.011792387 0.017856656 0.0037262316 -0.017052619
000330 3b 76 01 3d 5d 66 50 bd f6 46 a2 bd 83 89 01 be
       0.031606894 -0.05087887 -0.07923691 -0.12650113
000340 a3 de 66 bd 75 a4 46 bb 25 f4 bd bb fc e9 55 be
       -0.056364667 -0.0030310426 -0.0057969266 -0.20890039
000350 e3 f6 0b be c0 0e d6 bd d4 4c 33 bd 8c 8a 16 bd
       -0.13668399 -0.10452032 -0.04377444 -0.036753222
000360 52 cc 8b bd 07 e8 ed 3c d2 16 2c 3d 02 80 d6 3c
       -0.068260804 0.029041303 0.04201395 0.026184086
000370 63 52 49 3c de e7 91 3a 1d 04 6b bd 4e 1f 9e bd
       0.012287709 0.0011131724 -0.05737697 -0.07720815
000380 e9 77 5c bd
       -0.053825293
